{
  "format": "graph-model",
  "generatedBy": "2.9.1",
  "convertedBy": "TensorFlow.js Converter v3.18.0",
  "signature":
  {
      "inputs":
      {
          "input_1": {"name":"input_1:0","dtype":"DT_FLOAT","tensorShape":{"dim":[{"size":"-1"},{"size":"112"},{"size":"112"},{"size":"3"}]}}
      },
      "outputs":
      {
          "embedding": {"name":"Identity:0","dtype":"DT_FLOAT","tensorShape":{"dim":[{"size":"-1"},{"size":"512"}]}}
      }
  },
  "modelTopology":
  {
      "node":
      [
          {"name":"StatefulPartitionedCall/GhostNet/activation_47/Neg","op":"Const","attr":{"value":{"tensor":{"dtype":"DT_HALF","tensorShape":{"dim":[{"size":"1"},{"size":"1"},{"size":"664"}]}}},"dtype":{"type":"DT_HALF"}}},
          {"name":"StatefulPartitionedCall/GhostNet/activation_45/Neg","op":"Const","attr":{"value":{"tensor":{"dtype":"DT_HALF","tensorShape":{"dim":[{"size":"1"},{"size":"1"},{"size":"168"}]}}},"dtype":{"type":"DT_HALF"}}},
          {"name":"StatefulPartitionedCall/GhostNet/activation_44/Neg","op":"Const","attr":{"dtype":{"type":"DT_HALF"},"value":{"tensor":{"dtype":"DT_HALF","tensorShape":{"dim":[{"size":"1"},{"size":"1"},{"size":"332"}]}}}}},
          {"name":"StatefulPartitionedCall/GhostNet/activation_43/Neg","op":"Const","attr":{"value":{"tensor":{"dtype":"DT_HALF","tensorShape":{"dim":[{"size":"1"},{"size":"1"},{"size":"332"}]}}},"dtype":{"type":"DT_HALF"}}},
          {"name":"StatefulPartitionedCall/GhostNet/activation_42/Neg","op":"Const","attr":{"value":{"tensor":{"dtype":"DT_HALF","tensorShape":{"dim":[{"size":"1"},{"size":"1"},{"size":"624"}]}}},"dtype":{"type":"DT_HALF"}}},
          {"name":"StatefulPartitionedCall/GhostNet/activation_41/Neg","op":"Const","attr":{"dtype":{"type":"DT_HALF"},"value":{"tensor":{"dtype":"DT_HALF","tensorShape":{"dim":[{"size":"1"},{"size":"1"},{"size":"624"}]}}}}},
          {"name":"StatefulPartitionedCall/GhostNet/activation_39/Neg","op":"Const","attr":{"value":{"tensor":{"dtype":"DT_HALF","tensorShape":{"dim":[{"size":"1"},{"size":"1"},{"size":"312"}]}}},"dtype":{"type":"DT_HALF"}}},
          {"name":"StatefulPartitionedCall/GhostNet/activation_38/Neg","op":"Const","attr":{"value":{"tensor":{"dtype":"DT_HALF","tensorShape":{"dim":[{"size":"1"},{"size":"1"},{"size":"624"}]}}},"dtype":{"type":"DT_HALF"}}},
          {"name":"StatefulPartitionedCall/GhostNet/activation_37/Neg","op":"Const","attr":{"value":{"tensor":{"dtype":"DT_HALF","tensorShape":{"dim":[{"size":"1"},{"size":"1"},{"size":"624"}]}}},"dtype":{"type":"DT_HALF"}}},
          {"name":"StatefulPartitionedCall/GhostNet/activation_36/Neg","op":"Const","attr":{"value":{"tensor":{"dtype":"DT_HALF","tensorShape":{"dim":[{"size":"1"},{"size":"1"},{"size":"624"}]}}},"dtype":{"type":"DT_HALF"}}},
          {"name":"StatefulPartitionedCall/GhostNet/activation_35/Neg","op":"Const","attr":{"value":{"tensor":{"dtype":"DT_HALF","tensorShape":{"dim":[{"size":"1"},{"size":"1"},{"size":"624"}]}}},"dtype":{"type":"DT_HALF"}}},
          {"name":"StatefulPartitionedCall/GhostNet/activation_33/Neg","op":"Const","attr":{"dtype":{"type":"DT_HALF"},"value":{"tensor":{"dtype":"DT_HALF","tensorShape":{"dim":[{"size":"1"},{"size":"1"},{"size":"220"}]}}}}},
          {"name":"StatefulPartitionedCall/GhostNet/activation_32/Neg","op":"Const","attr":{"dtype":{"type":"DT_HALF"},"value":{"tensor":{"dtype":"DT_HALF","tensorShape":{"dim":[{"size":"1"},{"size":"1"},{"size":"436"}]}}}}},
          {"name":"StatefulPartitionedCall/GhostNet/activation_31/Neg","op":"Const","attr":{"value":{"tensor":{"dtype":"DT_HALF","tensorShape":{"dim":[{"size":"1"},{"size":"1"},{"size":"436"}]}}},"dtype":{"type":"DT_HALF"}}},
          {"name":"StatefulPartitionedCall/GhostNet/activation_29/Neg","op":"Const","attr":{"dtype":{"type":"DT_HALF"},"value":{"tensor":{"dtype":"DT_HALF","tensorShape":{"dim":[{"size":"1"},{"size":"1"},{"size":"220"}]}}}}},
          {"name":"StatefulPartitionedCall/GhostNet/activation_28/Neg","op":"Const","attr":{"value":{"tensor":{"dtype":"DT_HALF","tensorShape":{"dim":[{"size":"1"},{"size":"1"},{"size":"436"}]}}},"dtype":{"type":"DT_HALF"}}},
          {"name":"StatefulPartitionedCall/GhostNet/activation_27/Neg","op":"Const","attr":{"value":{"tensor":{"dtype":"DT_HALF","tensorShape":{"dim":[{"size":"1"},{"size":"1"},{"size":"436"}]}}},"dtype":{"type":"DT_HALF"}}},
          {"name":"StatefulPartitionedCall/GhostNet/activation_25/Neg","op":"Const","attr":{"dtype":{"type":"DT_HALF"},"value":{"tensor":{"dtype":"DT_HALF","tensorShape":{"dim":[{"size":"1"},{"size":"1"},{"size":"156"}]}}}}},
          {"name":"StatefulPartitionedCall/GhostNet/activation_24/Neg","op":"Const","attr":{"value":{"tensor":{"dtype":"DT_HALF","tensorShape":{"dim":[{"size":"1"},{"size":"1"},{"size":"312"}]}}},"dtype":{"type":"DT_HALF"}}},
          {"name":"StatefulPartitionedCall/GhostNet/activation_23/Neg","op":"Const","attr":{"dtype":{"type":"DT_HALF"},"value":{"tensor":{"dtype":"DT_HALF","tensorShape":{"dim":[{"size":"1"},{"size":"1"},{"size":"312"}]}}}}},
          {"name":"StatefulPartitionedCall/GhostNet/activation_22/Neg","op":"Const","attr":{"value":{"tensor":{"dtype":"DT_HALF","tensorShape":{"dim":[{"size":"1"},{"size":"1"},{"size":"120"}]}}},"dtype":{"type":"DT_HALF"}}},
          {"name":"StatefulPartitionedCall/GhostNet/activation_21/Neg","op":"Const","attr":{"value":{"tensor":{"dtype":"DT_HALF","tensorShape":{"dim":[{"size":"1"},{"size":"1"},{"size":"120"}]}}},"dtype":{"type":"DT_HALF"}}},
          {"name":"StatefulPartitionedCall/GhostNet/activation_20/Neg","op":"Const","attr":{"value":{"tensor":{"dtype":"DT_HALF","tensorShape":{"dim":[{"size":"1"},{"size":"1"},{"size":"120"}]}}},"dtype":{"type":"DT_HALF"}}},
          {"name":"StatefulPartitionedCall/GhostNet/activation_19/Neg","op":"Const","attr":{"value":{"tensor":{"dtype":"DT_HALF","tensorShape":{"dim":[{"size":"1"},{"size":"1"},{"size":"120"}]}}},"dtype":{"type":"DT_HALF"}}},
          {"name":"StatefulPartitionedCall/GhostNet/activation_18/Neg","op":"Const","attr":{"value":{"tensor":{"dtype":"DT_HALF","tensorShape":{"dim":[{"size":"1"},{"size":"1"},{"size":"130"}]}}},"dtype":{"type":"DT_HALF"}}},
          {"name":"StatefulPartitionedCall/GhostNet/activation_17/Neg","op":"Const","attr":{"dtype":{"type":"DT_HALF"},"value":{"tensor":{"dtype":"DT_HALF","tensorShape":{"dim":[{"size":"1"},{"size":"1"},{"size":"130"}]}}}}},
          {"name":"StatefulPartitionedCall/GhostNet/activation_16/Neg","op":"Const","attr":{"value":{"tensor":{"dtype":"DT_HALF","tensorShape":{"dim":[{"size":"1"},{"size":"1"},{"size":"156"}]}}},"dtype":{"type":"DT_HALF"}}},
          {"name":"StatefulPartitionedCall/GhostNet/activation_15/Neg","op":"Const","attr":{"value":{"tensor":{"dtype":"DT_HALF","tensorShape":{"dim":[{"size":"1"},{"size":"1"},{"size":"156"}]}}},"dtype":{"type":"DT_HALF"}}},
          {"name":"StatefulPartitionedCall/GhostNet/activation_13/Neg","op":"Const","attr":{"dtype":{"type":"DT_HALF"},"value":{"tensor":{"dtype":"DT_HALF","tensorShape":{"dim":[{"size":"1"},{"size":"1"},{"size":"40"}]}}}}},
          {"name":"StatefulPartitionedCall/GhostNet/activation_12/Neg","op":"Const","attr":{"dtype":{"type":"DT_HALF"},"value":{"tensor":{"dtype":"DT_HALF","tensorShape":{"dim":[{"size":"1"},{"size":"1"},{"size":"78"}]}}}}},
          {"name":"StatefulPartitionedCall/GhostNet/activation_11/Neg","op":"Const","attr":{"value":{"tensor":{"dtype":"DT_HALF","tensorShape":{"dim":[{"size":"1"},{"size":"1"},{"size":"78"}]}}},"dtype":{"type":"DT_HALF"}}},
          {"name":"StatefulPartitionedCall/GhostNet/activation_9/Neg","op":"Const","attr":{"dtype":{"type":"DT_HALF"},"value":{"tensor":{"dtype":"DT_HALF","tensorShape":{"dim":[{"size":"1"},{"size":"1"},{"size":"24"}]}}}}},
          {"name":"StatefulPartitionedCall/GhostNet/activation_8/Neg","op":"Const","attr":{"dtype":{"type":"DT_HALF"},"value":{"tensor":{"dtype":"DT_HALF","tensorShape":{"dim":[{"size":"1"},{"size":"1"},{"size":"46"}]}}}}},
          {"name":"StatefulPartitionedCall/GhostNet/activation_7/Neg","op":"Const","attr":{"dtype":{"type":"DT_HALF"},"value":{"tensor":{"dtype":"DT_HALF","tensorShape":{"dim":[{"size":"1"},{"size":"1"},{"size":"46"}]}}}}},
          {"name":"StatefulPartitionedCall/GhostNet/activation_6/Neg","op":"Const","attr":{"value":{"tensor":{"dtype":"DT_HALF","tensorShape":{"dim":[{"size":"1"},{"size":"1"},{"size":"46"}]}}},"dtype":{"type":"DT_HALF"}}},
          {"name":"StatefulPartitionedCall/GhostNet/activation_5/Neg","op":"Const","attr":{"value":{"tensor":{"dtype":"DT_HALF","tensorShape":{"dim":[{"size":"1"},{"size":"1"},{"size":"46"}]}}},"dtype":{"type":"DT_HALF"}}},
          {"name":"StatefulPartitionedCall/GhostNet/activation_4/Neg","op":"Const","attr":{"dtype":{"type":"DT_HALF"},"value":{"tensor":{"dtype":"DT_HALF","tensorShape":{"dim":[{"size":"1"},{"size":"1"},{"size":"32"}]}}}}},
          {"name":"StatefulPartitionedCall/GhostNet/activation_3/Neg","op":"Const","attr":{"value":{"tensor":{"dtype":"DT_HALF","tensorShape":{"dim":[{"size":"1"},{"size":"1"},{"size":"32"}]}}},"dtype":{"type":"DT_HALF"}}},
          {"name":"StatefulPartitionedCall/GhostNet/activation_2/Neg","op":"Const","attr":{"value":{"tensor":{"dtype":"DT_HALF","tensorShape":{"dim":[{"size":"1"},{"size":"1"},{"size":"10"}]}}},"dtype":{"type":"DT_HALF"}}},
          {"name":"StatefulPartitionedCall/GhostNet/activation_1/Neg","op":"Const","attr":{"dtype":{"type":"DT_HALF"},"value":{"tensor":{"dtype":"DT_HALF","tensorShape":{"dim":[{"size":"1"},{"size":"1"},{"size":"10"}]}}}}},
          {"name":"StatefulPartitionedCall/GhostNet/activation/Neg","op":"Const","attr":{"value":{"tensor":{"dtype":"DT_HALF","tensorShape":{"dim":[{"size":"1"},{"size":"1"},{"size":"20"}]}}},"dtype":{"type":"DT_HALF"}}},
          {"name":"StatefulPartitionedCall/GhostNet/concatenate/concat/axis","op":"Const","attr":{"value":{"tensor":{"dtype":"DT_INT32","tensorShape":{}}},"dtype":{"type":"DT_INT32"}}},
          {"name":"StatefulPartitionedCall/GhostNet/concatenate_1/concat/axis","op":"Const","attr":{"dtype":{"type":"DT_INT32"},"value":{"tensor":{"dtype":"DT_INT32","tensorShape":{}}}}},
          {"name":"StatefulPartitionedCall/GhostNet/concatenate_2/concat/axis","op":"Const","attr":{"value":{"tensor":{"dtype":"DT_INT32","tensorShape":{}}},"dtype":{"type":"DT_INT32"}}},
          {"name":"StatefulPartitionedCall/GhostNet/concatenate_3/concat/axis","op":"Const","attr":{"value":{"tensor":{"dtype":"DT_INT32","tensorShape":{}}},"dtype":{"type":"DT_INT32"}}},
          {"name":"StatefulPartitionedCall/GhostNet/concatenate_4/concat/axis","op":"Const","attr":{"value":{"tensor":{"dtype":"DT_INT32","tensorShape":{}}},"dtype":{"type":"DT_INT32"}}},
          {"name":"StatefulPartitionedCall/GhostNet/concatenate_5/concat/axis","op":"Const","attr":{"dtype":{"type":"DT_INT32"},"value":{"tensor":{"dtype":"DT_INT32","tensorShape":{}}}}},
          {"name":"StatefulPartitionedCall/GhostNet/concatenate_6/concat/axis","op":"Const","attr":{"value":{"tensor":{"dtype":"DT_INT32","tensorShape":{}}},"dtype":{"type":"DT_INT32"}}},
          {"name":"StatefulPartitionedCall/GhostNet/global_average_pooling2d/Mean/reduction_indices","op":"Const","attr":{"dtype":{"type":"DT_INT32"},"value":{"tensor":{"dtype":"DT_INT32","tensorShape":{"dim":[{"size":"2"}]}}}}},
          {"name":"StatefulPartitionedCall/GhostNet/reshape/strided_slice/stack","op":"Const","attr":{"dtype":{"type":"DT_INT32"},"value":{"tensor":{"dtype":"DT_INT32","tensorShape":{"dim":[{"size":"1"}]}}}}},
          {"name":"StatefulPartitionedCall/GhostNet/reshape/strided_slice/stack_1","op":"Const","attr":{"dtype":{"type":"DT_INT32"},"value":{"tensor":{"dtype":"DT_INT32","tensorShape":{"dim":[{"size":"1"}]}}}}},
          {"name":"StatefulPartitionedCall/GhostNet/reshape/strided_slice/stack_2","op":"Const","attr":{"dtype":{"type":"DT_INT32"},"value":{"tensor":{"dtype":"DT_INT32","tensorShape":{"dim":[{"size":"1"}]}}}}},
          {"name":"StatefulPartitionedCall/GhostNet/reshape/Reshape/shape/1","op":"Const","attr":{"value":{"tensor":{"dtype":"DT_INT32","tensorShape":{}}},"dtype":{"type":"DT_INT32"}}},
          {"name":"StatefulPartitionedCall/GhostNet/reshape/Reshape/shape/2","op":"Const","attr":{"dtype":{"type":"DT_INT32"},"value":{"tensor":{"dtype":"DT_INT32","tensorShape":{}}}}},
          {"name":"StatefulPartitionedCall/GhostNet/reshape/Reshape/shape/3","op":"Const","attr":{"dtype":{"type":"DT_INT32"},"value":{"tensor":{"dtype":"DT_INT32","tensorShape":{}}}}},
          {"name":"StatefulPartitionedCall/GhostNet/conv2d_9/Conv2D/Cast","op":"Const","attr":{"dtype":{"type":"DT_HALF"},"value":{"tensor":{"dtype":"DT_HALF","tensorShape":{"dim":[{"size":"1"},{"size":"1"},{"size":"92"},{"size":"24"}]}}}}},
          {"name":"StatefulPartitionedCall/GhostNet/conv2d_9/BiasAdd/Cast","op":"Const","attr":{"value":{"tensor":{"dtype":"DT_HALF","tensorShape":{"dim":[{"size":"24"}]}}},"dtype":{"type":"DT_HALF"}}},
          {"name":"StatefulPartitionedCall/GhostNet/conv2d_10/Conv2D/Cast","op":"Const","attr":{"value":{"tensor":{"dtype":"DT_HALF","tensorShape":{"dim":[{"size":"1"},{"size":"1"},{"size":"24"},{"size":"92"}]}}},"dtype":{"type":"DT_HALF"}}},
          {"name":"StatefulPartitionedCall/GhostNet/conv2d_10/BiasAdd/Cast","op":"Const","attr":{"dtype":{"type":"DT_HALF"},"value":{"tensor":{"dtype":"DT_HALF","tensorShape":{"dim":[{"size":"92"}]}}}}},
          {"name":"StatefulPartitionedCall/GhostNet/activation_10/Const","op":"Const","attr":{"dtype":{"type":"DT_HALF"},"value":{"tensor":{"dtype":"DT_HALF","tensorShape":{}}}}},
          {"name":"StatefulPartitionedCall/GhostNet/activation_10/Const_1","op":"Const","attr":{"dtype":{"type":"DT_HALF"},"value":{"tensor":{"dtype":"DT_HALF","tensorShape":{}}}}},
          {"name":"StatefulPartitionedCall/GhostNet/activation_10/clip_by_value/Minimum/y","op":"Const","attr":{"value":{"tensor":{"dtype":"DT_HALF","tensorShape":{}}},"dtype":{"type":"DT_HALF"}}},
          {"name":"StatefulPartitionedCall/GhostNet/activation_10/clip_by_value/y","op":"Const","attr":{"value":{"tensor":{"dtype":"DT_HALF","tensorShape":{}}},"dtype":{"type":"DT_HALF"}}},
          {"name":"StatefulPartitionedCall/GhostNet/concatenate_7/concat/axis","op":"Const","attr":{"dtype":{"type":"DT_INT32"},"value":{"tensor":{"dtype":"DT_INT32","tensorShape":{}}}}},
          {"name":"StatefulPartitionedCall/GhostNet/concatenate_8/concat/axis","op":"Const","attr":{"value":{"tensor":{"dtype":"DT_INT32","tensorShape":{}}},"dtype":{"type":"DT_INT32"}}},
          {"name":"StatefulPartitionedCall/GhostNet/global_average_pooling2d_1/Mean/reduction_indices","op":"Const","attr":{"value":{"tensor":{"dtype":"DT_INT32","tensorShape":{"dim":[{"size":"2"}]}}},"dtype":{"type":"DT_INT32"}}},
          {"name":"StatefulPartitionedCall/GhostNet/reshape_1/strided_slice/stack","op":"Const","attr":{"dtype":{"type":"DT_INT32"},"value":{"tensor":{"dtype":"DT_INT32","tensorShape":{"dim":[{"size":"1"}]}}}}},
          {"name":"StatefulPartitionedCall/GhostNet/reshape_1/strided_slice/stack_1","op":"Const","attr":{"dtype":{"type":"DT_INT32"},"value":{"tensor":{"dtype":"DT_INT32","tensorShape":{"dim":[{"size":"1"}]}}}}},
          {"name":"StatefulPartitionedCall/GhostNet/reshape_1/strided_slice/stack_2","op":"Const","attr":{"dtype":{"type":"DT_INT32"},"value":{"tensor":{"dtype":"DT_INT32","tensorShape":{"dim":[{"size":"1"}]}}}}},
          {"name":"StatefulPartitionedCall/GhostNet/reshape_1/Reshape/shape/1","op":"Const","attr":{"value":{"tensor":{"dtype":"DT_INT32","tensorShape":{}}},"dtype":{"type":"DT_INT32"}}},
          {"name":"StatefulPartitionedCall/GhostNet/reshape_1/Reshape/shape/2","op":"Const","attr":{"value":{"tensor":{"dtype":"DT_INT32","tensorShape":{}}},"dtype":{"type":"DT_INT32"}}},
          {"name":"StatefulPartitionedCall/GhostNet/reshape_1/Reshape/shape/3","op":"Const","attr":{"value":{"tensor":{"dtype":"DT_INT32","tensorShape":{}}},"dtype":{"type":"DT_INT32"}}},
          {"name":"StatefulPartitionedCall/GhostNet/conv2d_14/Conv2D/Cast","op":"Const","attr":{"dtype":{"type":"DT_HALF"},"value":{"tensor":{"dtype":"DT_HALF","tensorShape":{"dim":[{"size":"1"},{"size":"1"},{"size":"156"},{"size":"40"}]}}}}},
          {"name":"StatefulPartitionedCall/GhostNet/conv2d_14/BiasAdd/Cast","op":"Const","attr":{"dtype":{"type":"DT_HALF"},"value":{"tensor":{"dtype":"DT_HALF","tensorShape":{"dim":[{"size":"40"}]}}}}},
          {"name":"StatefulPartitionedCall/GhostNet/conv2d_15/Conv2D/Cast","op":"Const","attr":{"value":{"tensor":{"dtype":"DT_HALF","tensorShape":{"dim":[{"size":"1"},{"size":"1"},{"size":"40"},{"size":"156"}]}}},"dtype":{"type":"DT_HALF"}}},
          {"name":"StatefulPartitionedCall/GhostNet/conv2d_15/BiasAdd/Cast","op":"Const","attr":{"value":{"tensor":{"dtype":"DT_HALF","tensorShape":{"dim":[{"size":"156"}]}}},"dtype":{"type":"DT_HALF"}}},
          {"name":"StatefulPartitionedCall/GhostNet/activation_14/Const","op":"Const","attr":{"dtype":{"type":"DT_HALF"},"value":{"tensor":{"dtype":"DT_HALF","tensorShape":{}}}}},
          {"name":"StatefulPartitionedCall/GhostNet/activation_14/Const_1","op":"Const","attr":{"dtype":{"type":"DT_HALF"},"value":{"tensor":{"dtype":"DT_HALF","tensorShape":{}}}}},
          {"name":"StatefulPartitionedCall/GhostNet/activation_14/clip_by_value/Minimum/y","op":"Const","attr":{"value":{"tensor":{"dtype":"DT_HALF","tensorShape":{}}},"dtype":{"type":"DT_HALF"}}},
          {"name":"StatefulPartitionedCall/GhostNet/activation_14/clip_by_value/y","op":"Const","attr":{"dtype":{"type":"DT_HALF"},"value":{"tensor":{"dtype":"DT_HALF","tensorShape":{}}}}},
          {"name":"StatefulPartitionedCall/GhostNet/concatenate_9/concat/axis","op":"Const","attr":{"dtype":{"type":"DT_INT32"},"value":{"tensor":{"dtype":"DT_INT32","tensorShape":{}}}}},
          {"name":"StatefulPartitionedCall/GhostNet/concatenate_10/concat/axis","op":"Const","attr":{"value":{"tensor":{"dtype":"DT_INT32","tensorShape":{}}},"dtype":{"type":"DT_INT32"}}},
          {"name":"StatefulPartitionedCall/GhostNet/concatenate_11/concat/axis","op":"Const","attr":{"value":{"tensor":{"dtype":"DT_INT32","tensorShape":{}}},"dtype":{"type":"DT_INT32"}}},
          {"name":"StatefulPartitionedCall/GhostNet/concatenate_12/concat/axis","op":"Const","attr":{"dtype":{"type":"DT_INT32"},"value":{"tensor":{"dtype":"DT_INT32","tensorShape":{}}}}},
          {"name":"StatefulPartitionedCall/GhostNet/concatenate_13/concat/axis","op":"Const","attr":{"dtype":{"type":"DT_INT32"},"value":{"tensor":{"dtype":"DT_INT32","tensorShape":{}}}}},
          {"name":"StatefulPartitionedCall/GhostNet/concatenate_14/concat/axis","op":"Const","attr":{"dtype":{"type":"DT_INT32"},"value":{"tensor":{"dtype":"DT_INT32","tensorShape":{}}}}},
          {"name":"StatefulPartitionedCall/GhostNet/concatenate_15/concat/axis","op":"Const","attr":{"dtype":{"type":"DT_INT32"},"value":{"tensor":{"dtype":"DT_INT32","tensorShape":{}}}}},
          {"name":"StatefulPartitionedCall/GhostNet/concatenate_16/concat/axis","op":"Const","attr":{"dtype":{"type":"DT_INT32"},"value":{"tensor":{"dtype":"DT_INT32","tensorShape":{}}}}},
          {"name":"StatefulPartitionedCall/GhostNet/concatenate_17/concat/axis","op":"Const","attr":{"value":{"tensor":{"dtype":"DT_INT32","tensorShape":{}}},"dtype":{"type":"DT_INT32"}}},
          {"name":"StatefulPartitionedCall/GhostNet/concatenate_18/concat/axis","op":"Const","attr":{"value":{"tensor":{"dtype":"DT_INT32","tensorShape":{}}},"dtype":{"type":"DT_INT32"}}},
          {"name":"StatefulPartitionedCall/GhostNet/global_average_pooling2d_2/Mean/reduction_indices","op":"Const","attr":{"dtype":{"type":"DT_INT32"},"value":{"tensor":{"dtype":"DT_INT32","tensorShape":{"dim":[{"size":"2"}]}}}}},
          {"name":"StatefulPartitionedCall/GhostNet/reshape_2/strided_slice/stack","op":"Const","attr":{"dtype":{"type":"DT_INT32"},"value":{"tensor":{"dtype":"DT_INT32","tensorShape":{"dim":[{"size":"1"}]}}}}},
          {"name":"StatefulPartitionedCall/GhostNet/reshape_2/strided_slice/stack_1","op":"Const","attr":{"dtype":{"type":"DT_INT32"},"value":{"tensor":{"dtype":"DT_INT32","tensorShape":{"dim":[{"size":"1"}]}}}}},
          {"name":"StatefulPartitionedCall/GhostNet/reshape_2/strided_slice/stack_2","op":"Const","attr":{"value":{"tensor":{"dtype":"DT_INT32","tensorShape":{"dim":[{"size":"1"}]}}},"dtype":{"type":"DT_INT32"}}},
          {"name":"StatefulPartitionedCall/GhostNet/reshape_2/Reshape/shape/1","op":"Const","attr":{"dtype":{"type":"DT_INT32"},"value":{"tensor":{"dtype":"DT_INT32","tensorShape":{}}}}},
          {"name":"StatefulPartitionedCall/GhostNet/reshape_2/Reshape/shape/2","op":"Const","attr":{"value":{"tensor":{"dtype":"DT_INT32","tensorShape":{}}},"dtype":{"type":"DT_INT32"}}},
          {"name":"StatefulPartitionedCall/GhostNet/reshape_2/Reshape/shape/3","op":"Const","attr":{"dtype":{"type":"DT_INT32"},"value":{"tensor":{"dtype":"DT_INT32","tensorShape":{}}}}},
          {"name":"StatefulPartitionedCall/GhostNet/conv2d_27/Conv2D/Cast","op":"Const","attr":{"dtype":{"type":"DT_HALF"},"value":{"tensor":{"dtype":"DT_HALF","tensorShape":{"dim":[{"size":"1"},{"size":"1"},{"size":"624"},{"size":"156"}]}}}}},
          {"name":"StatefulPartitionedCall/GhostNet/conv2d_27/BiasAdd/Cast","op":"Const","attr":{"dtype":{"type":"DT_HALF"},"value":{"tensor":{"dtype":"DT_HALF","tensorShape":{"dim":[{"size":"156"}]}}}}},
          {"name":"StatefulPartitionedCall/GhostNet/conv2d_28/Conv2D/Cast","op":"Const","attr":{"value":{"tensor":{"dtype":"DT_HALF","tensorShape":{"dim":[{"size":"1"},{"size":"1"},{"size":"156"},{"size":"624"}]}}},"dtype":{"type":"DT_HALF"}}},
          {"name":"StatefulPartitionedCall/GhostNet/conv2d_28/BiasAdd/Cast","op":"Const","attr":{"value":{"tensor":{"dtype":"DT_HALF","tensorShape":{"dim":[{"size":"624"}]}}},"dtype":{"type":"DT_HALF"}}},
          {"name":"StatefulPartitionedCall/GhostNet/activation_26/Const","op":"Const","attr":{"value":{"tensor":{"dtype":"DT_HALF","tensorShape":{}}},"dtype":{"type":"DT_HALF"}}},
          {"name":"StatefulPartitionedCall/GhostNet/activation_26/Const_1","op":"Const","attr":{"dtype":{"type":"DT_HALF"},"value":{"tensor":{"dtype":"DT_HALF","tensorShape":{}}}}},
          {"name":"StatefulPartitionedCall/GhostNet/activation_26/clip_by_value/Minimum/y","op":"Const","attr":{"value":{"tensor":{"dtype":"DT_HALF","tensorShape":{}}},"dtype":{"type":"DT_HALF"}}},
          {"name":"StatefulPartitionedCall/GhostNet/activation_26/clip_by_value/y","op":"Const","attr":{"dtype":{"type":"DT_HALF"},"value":{"tensor":{"dtype":"DT_HALF","tensorShape":{}}}}},
          {"name":"StatefulPartitionedCall/GhostNet/concatenate_19/concat/axis","op":"Const","attr":{"dtype":{"type":"DT_INT32"},"value":{"tensor":{"dtype":"DT_INT32","tensorShape":{}}}}},
          {"name":"StatefulPartitionedCall/GhostNet/concatenate_20/concat/axis","op":"Const","attr":{"dtype":{"type":"DT_INT32"},"value":{"tensor":{"dtype":"DT_INT32","tensorShape":{}}}}},
          {"name":"StatefulPartitionedCall/GhostNet/global_average_pooling2d_3/Mean/reduction_indices","op":"Const","attr":{"value":{"tensor":{"dtype":"DT_INT32","tensorShape":{"dim":[{"size":"2"}]}}},"dtype":{"type":"DT_INT32"}}},
          {"name":"StatefulPartitionedCall/GhostNet/reshape_3/strided_slice/stack","op":"Const","attr":{"dtype":{"type":"DT_INT32"},"value":{"tensor":{"dtype":"DT_INT32","tensorShape":{"dim":[{"size":"1"}]}}}}},
          {"name":"StatefulPartitionedCall/GhostNet/reshape_3/strided_slice/stack_1","op":"Const","attr":{"value":{"tensor":{"dtype":"DT_INT32","tensorShape":{"dim":[{"size":"1"}]}}},"dtype":{"type":"DT_INT32"}}},
          {"name":"StatefulPartitionedCall/GhostNet/reshape_3/strided_slice/stack_2","op":"Const","attr":{"value":{"tensor":{"dtype":"DT_INT32","tensorShape":{"dim":[{"size":"1"}]}}},"dtype":{"type":"DT_INT32"}}},
          {"name":"StatefulPartitionedCall/GhostNet/reshape_3/Reshape/shape/1","op":"Const","attr":{"value":{"tensor":{"dtype":"DT_INT32","tensorShape":{}}},"dtype":{"type":"DT_INT32"}}},
          {"name":"StatefulPartitionedCall/GhostNet/reshape_3/Reshape/shape/2","op":"Const","attr":{"dtype":{"type":"DT_INT32"},"value":{"tensor":{"dtype":"DT_INT32","tensorShape":{}}}}},
          {"name":"StatefulPartitionedCall/GhostNet/reshape_3/Reshape/shape/3","op":"Const","attr":{"value":{"tensor":{"dtype":"DT_INT32","tensorShape":{}}},"dtype":{"type":"DT_INT32"}}},
          {"name":"StatefulPartitionedCall/GhostNet/conv2d_32/Conv2D/Cast","op":"Const","attr":{"dtype":{"type":"DT_HALF"},"value":{"tensor":{"dtype":"DT_HALF","tensorShape":{"dim":[{"size":"1"},{"size":"1"},{"size":"872"},{"size":"220"}]}}}}},
          {"name":"StatefulPartitionedCall/GhostNet/conv2d_32/BiasAdd/Cast","op":"Const","attr":{"dtype":{"type":"DT_HALF"},"value":{"tensor":{"dtype":"DT_HALF","tensorShape":{"dim":[{"size":"220"}]}}}}},
          {"name":"StatefulPartitionedCall/GhostNet/conv2d_33/Conv2D/Cast","op":"Const","attr":{"value":{"tensor":{"dtype":"DT_HALF","tensorShape":{"dim":[{"size":"1"},{"size":"1"},{"size":"220"},{"size":"872"}]}}},"dtype":{"type":"DT_HALF"}}},
          {"name":"StatefulPartitionedCall/GhostNet/conv2d_33/BiasAdd/Cast","op":"Const","attr":{"dtype":{"type":"DT_HALF"},"value":{"tensor":{"dtype":"DT_HALF","tensorShape":{"dim":[{"size":"872"}]}}}}},
          {"name":"StatefulPartitionedCall/GhostNet/activation_30/Const","op":"Const","attr":{"dtype":{"type":"DT_HALF"},"value":{"tensor":{"dtype":"DT_HALF","tensorShape":{}}}}},
          {"name":"StatefulPartitionedCall/GhostNet/activation_30/Const_1","op":"Const","attr":{"dtype":{"type":"DT_HALF"},"value":{"tensor":{"dtype":"DT_HALF","tensorShape":{}}}}},
          {"name":"StatefulPartitionedCall/GhostNet/activation_30/clip_by_value/Minimum/y","op":"Const","attr":{"value":{"tensor":{"dtype":"DT_HALF","tensorShape":{}}},"dtype":{"type":"DT_HALF"}}},
          {"name":"StatefulPartitionedCall/GhostNet/activation_30/clip_by_value/y","op":"Const","attr":{"value":{"tensor":{"dtype":"DT_HALF","tensorShape":{}}},"dtype":{"type":"DT_HALF"}}},
          {"name":"StatefulPartitionedCall/GhostNet/concatenate_21/concat/axis","op":"Const","attr":{"dtype":{"type":"DT_INT32"},"value":{"tensor":{"dtype":"DT_INT32","tensorShape":{}}}}},
          {"name":"StatefulPartitionedCall/GhostNet/concatenate_22/concat/axis","op":"Const","attr":{"dtype":{"type":"DT_INT32"},"value":{"tensor":{"dtype":"DT_INT32","tensorShape":{}}}}},
          {"name":"StatefulPartitionedCall/GhostNet/global_average_pooling2d_4/Mean/reduction_indices","op":"Const","attr":{"value":{"tensor":{"dtype":"DT_INT32","tensorShape":{"dim":[{"size":"2"}]}}},"dtype":{"type":"DT_INT32"}}},
          {"name":"StatefulPartitionedCall/GhostNet/reshape_4/strided_slice/stack","op":"Const","attr":{"value":{"tensor":{"dtype":"DT_INT32","tensorShape":{"dim":[{"size":"1"}]}}},"dtype":{"type":"DT_INT32"}}},
          {"name":"StatefulPartitionedCall/GhostNet/reshape_4/strided_slice/stack_1","op":"Const","attr":{"value":{"tensor":{"dtype":"DT_INT32","tensorShape":{"dim":[{"size":"1"}]}}},"dtype":{"type":"DT_INT32"}}},
          {"name":"StatefulPartitionedCall/GhostNet/reshape_4/strided_slice/stack_2","op":"Const","attr":{"value":{"tensor":{"dtype":"DT_INT32","tensorShape":{"dim":[{"size":"1"}]}}},"dtype":{"type":"DT_INT32"}}},
          {"name":"StatefulPartitionedCall/GhostNet/reshape_4/Reshape/shape/1","op":"Const","attr":{"dtype":{"type":"DT_INT32"},"value":{"tensor":{"dtype":"DT_INT32","tensorShape":{}}}}},
          {"name":"StatefulPartitionedCall/GhostNet/reshape_4/Reshape/shape/2","op":"Const","attr":{"dtype":{"type":"DT_INT32"},"value":{"tensor":{"dtype":"DT_INT32","tensorShape":{}}}}},
          {"name":"StatefulPartitionedCall/GhostNet/reshape_4/Reshape/shape/3","op":"Const","attr":{"value":{"tensor":{"dtype":"DT_INT32","tensorShape":{}}},"dtype":{"type":"DT_INT32"}}},
          {"name":"StatefulPartitionedCall/GhostNet/conv2d_36/Conv2D/Cast","op":"Const","attr":{"value":{"tensor":{"dtype":"DT_HALF","tensorShape":{"dim":[{"size":"1"},{"size":"1"},{"size":"872"},{"size":"220"}]}}},"dtype":{"type":"DT_HALF"}}},
          {"name":"StatefulPartitionedCall/GhostNet/conv2d_36/BiasAdd/Cast","op":"Const","attr":{"value":{"tensor":{"dtype":"DT_HALF","tensorShape":{"dim":[{"size":"220"}]}}},"dtype":{"type":"DT_HALF"}}},
          {"name":"StatefulPartitionedCall/GhostNet/conv2d_37/Conv2D/Cast","op":"Const","attr":{"value":{"tensor":{"dtype":"DT_HALF","tensorShape":{"dim":[{"size":"1"},{"size":"1"},{"size":"220"},{"size":"872"}]}}},"dtype":{"type":"DT_HALF"}}},
          {"name":"StatefulPartitionedCall/GhostNet/conv2d_37/BiasAdd/Cast","op":"Const","attr":{"value":{"tensor":{"dtype":"DT_HALF","tensorShape":{"dim":[{"size":"872"}]}}},"dtype":{"type":"DT_HALF"}}},
          {"name":"StatefulPartitionedCall/GhostNet/activation_34/Const","op":"Const","attr":{"dtype":{"type":"DT_HALF"},"value":{"tensor":{"dtype":"DT_HALF","tensorShape":{}}}}},
          {"name":"StatefulPartitionedCall/GhostNet/activation_34/Const_1","op":"Const","attr":{"dtype":{"type":"DT_HALF"},"value":{"tensor":{"dtype":"DT_HALF","tensorShape":{}}}}},
          {"name":"StatefulPartitionedCall/GhostNet/activation_34/clip_by_value/Minimum/y","op":"Const","attr":{"value":{"tensor":{"dtype":"DT_HALF","tensorShape":{}}},"dtype":{"type":"DT_HALF"}}},
          {"name":"StatefulPartitionedCall/GhostNet/activation_34/clip_by_value/y","op":"Const","attr":{"value":{"tensor":{"dtype":"DT_HALF","tensorShape":{}}},"dtype":{"type":"DT_HALF"}}},
          {"name":"StatefulPartitionedCall/GhostNet/concatenate_23/concat/axis","op":"Const","attr":{"dtype":{"type":"DT_INT32"},"value":{"tensor":{"dtype":"DT_INT32","tensorShape":{}}}}},
          {"name":"StatefulPartitionedCall/GhostNet/concatenate_24/concat/axis","op":"Const","attr":{"value":{"tensor":{"dtype":"DT_INT32","tensorShape":{}}},"dtype":{"type":"DT_INT32"}}},
          {"name":"StatefulPartitionedCall/GhostNet/concatenate_25/concat/axis","op":"Const","attr":{"dtype":{"type":"DT_INT32"},"value":{"tensor":{"dtype":"DT_INT32","tensorShape":{}}}}},
          {"name":"StatefulPartitionedCall/GhostNet/concatenate_26/concat/axis","op":"Const","attr":{"value":{"tensor":{"dtype":"DT_INT32","tensorShape":{}}},"dtype":{"type":"DT_INT32"}}},
          {"name":"StatefulPartitionedCall/GhostNet/global_average_pooling2d_5/Mean/reduction_indices","op":"Const","attr":{"dtype":{"type":"DT_INT32"},"value":{"tensor":{"dtype":"DT_INT32","tensorShape":{"dim":[{"size":"2"}]}}}}},
          {"name":"StatefulPartitionedCall/GhostNet/reshape_5/strided_slice/stack","op":"Const","attr":{"dtype":{"type":"DT_INT32"},"value":{"tensor":{"dtype":"DT_INT32","tensorShape":{"dim":[{"size":"1"}]}}}}},
          {"name":"StatefulPartitionedCall/GhostNet/reshape_5/strided_slice/stack_1","op":"Const","attr":{"value":{"tensor":{"dtype":"DT_INT32","tensorShape":{"dim":[{"size":"1"}]}}},"dtype":{"type":"DT_INT32"}}},
          {"name":"StatefulPartitionedCall/GhostNet/reshape_5/strided_slice/stack_2","op":"Const","attr":{"dtype":{"type":"DT_INT32"},"value":{"tensor":{"dtype":"DT_INT32","tensorShape":{"dim":[{"size":"1"}]}}}}},
          {"name":"StatefulPartitionedCall/GhostNet/reshape_5/Reshape/shape/1","op":"Const","attr":{"dtype":{"type":"DT_INT32"},"value":{"tensor":{"dtype":"DT_INT32","tensorShape":{}}}}},
          {"name":"StatefulPartitionedCall/GhostNet/reshape_5/Reshape/shape/2","op":"Const","attr":{"value":{"tensor":{"dtype":"DT_INT32","tensorShape":{}}},"dtype":{"type":"DT_INT32"}}},
          {"name":"StatefulPartitionedCall/GhostNet/reshape_5/Reshape/shape/3","op":"Const","attr":{"value":{"tensor":{"dtype":"DT_INT32","tensorShape":{}}},"dtype":{"type":"DT_INT32"}}},
          {"name":"StatefulPartitionedCall/GhostNet/conv2d_43/Conv2D/Cast","op":"Const","attr":{"dtype":{"type":"DT_HALF"},"value":{"tensor":{"dtype":"DT_HALF","tensorShape":{"dim":[{"size":"1"},{"size":"1"},{"size":"1248"},{"size":"312"}]}}}}},
          {"name":"StatefulPartitionedCall/GhostNet/conv2d_43/BiasAdd/Cast","op":"Const","attr":{"value":{"tensor":{"dtype":"DT_HALF","tensorShape":{"dim":[{"size":"312"}]}}},"dtype":{"type":"DT_HALF"}}},
          {"name":"StatefulPartitionedCall/GhostNet/conv2d_44/Conv2D/Cast","op":"Const","attr":{"dtype":{"type":"DT_HALF"},"value":{"tensor":{"dtype":"DT_HALF","tensorShape":{"dim":[{"size":"1"},{"size":"1"},{"size":"312"},{"size":"1248"}]}}}}},
          {"name":"StatefulPartitionedCall/GhostNet/conv2d_44/BiasAdd/Cast","op":"Const","attr":{"dtype":{"type":"DT_HALF"},"value":{"tensor":{"dtype":"DT_HALF","tensorShape":{"dim":[{"size":"1248"}]}}}}},
          {"name":"StatefulPartitionedCall/GhostNet/activation_40/Const","op":"Const","attr":{"dtype":{"type":"DT_HALF"},"value":{"tensor":{"dtype":"DT_HALF","tensorShape":{}}}}},
          {"name":"StatefulPartitionedCall/GhostNet/activation_40/Const_1","op":"Const","attr":{"value":{"tensor":{"dtype":"DT_HALF","tensorShape":{}}},"dtype":{"type":"DT_HALF"}}},
          {"name":"StatefulPartitionedCall/GhostNet/activation_40/clip_by_value/Minimum/y","op":"Const","attr":{"dtype":{"type":"DT_HALF"},"value":{"tensor":{"dtype":"DT_HALF","tensorShape":{}}}}},
          {"name":"StatefulPartitionedCall/GhostNet/activation_40/clip_by_value/y","op":"Const","attr":{"dtype":{"type":"DT_HALF"},"value":{"tensor":{"dtype":"DT_HALF","tensorShape":{}}}}},
          {"name":"StatefulPartitionedCall/GhostNet/concatenate_27/concat/axis","op":"Const","attr":{"dtype":{"type":"DT_INT32"},"value":{"tensor":{"dtype":"DT_INT32","tensorShape":{}}}}},
          {"name":"StatefulPartitionedCall/GhostNet/concatenate_28/concat/axis","op":"Const","attr":{"value":{"tensor":{"dtype":"DT_INT32","tensorShape":{}}},"dtype":{"type":"DT_INT32"}}},
          {"name":"StatefulPartitionedCall/GhostNet/concatenate_29/concat/axis","op":"Const","attr":{"value":{"tensor":{"dtype":"DT_INT32","tensorShape":{}}},"dtype":{"type":"DT_INT32"}}},
          {"name":"StatefulPartitionedCall/GhostNet/concatenate_30/concat/axis","op":"Const","attr":{"value":{"tensor":{"dtype":"DT_INT32","tensorShape":{}}},"dtype":{"type":"DT_INT32"}}},
          {"name":"StatefulPartitionedCall/GhostNet/global_average_pooling2d_6/Mean/reduction_indices","op":"Const","attr":{"value":{"tensor":{"dtype":"DT_INT32","tensorShape":{"dim":[{"size":"2"}]}}},"dtype":{"type":"DT_INT32"}}},
          {"name":"StatefulPartitionedCall/GhostNet/reshape_6/strided_slice/stack","op":"Const","attr":{"dtype":{"type":"DT_INT32"},"value":{"tensor":{"dtype":"DT_INT32","tensorShape":{"dim":[{"size":"1"}]}}}}},
          {"name":"StatefulPartitionedCall/GhostNet/reshape_6/strided_slice/stack_1","op":"Const","attr":{"value":{"tensor":{"dtype":"DT_INT32","tensorShape":{"dim":[{"size":"1"}]}}},"dtype":{"type":"DT_INT32"}}},
          {"name":"StatefulPartitionedCall/GhostNet/reshape_6/strided_slice/stack_2","op":"Const","attr":{"dtype":{"type":"DT_INT32"},"value":{"tensor":{"dtype":"DT_INT32","tensorShape":{"dim":[{"size":"1"}]}}}}},
          {"name":"StatefulPartitionedCall/GhostNet/reshape_6/Reshape/shape/1","op":"Const","attr":{"dtype":{"type":"DT_INT32"},"value":{"tensor":{"dtype":"DT_INT32","tensorShape":{}}}}},
          {"name":"StatefulPartitionedCall/GhostNet/reshape_6/Reshape/shape/2","op":"Const","attr":{"dtype":{"type":"DT_INT32"},"value":{"tensor":{"dtype":"DT_INT32","tensorShape":{}}}}},
          {"name":"StatefulPartitionedCall/GhostNet/reshape_6/Reshape/shape/3","op":"Const","attr":{"dtype":{"type":"DT_INT32"},"value":{"tensor":{"dtype":"DT_INT32","tensorShape":{}}}}},
          {"name":"StatefulPartitionedCall/GhostNet/conv2d_49/Conv2D/Cast","op":"Const","attr":{"dtype":{"type":"DT_HALF"},"value":{"tensor":{"dtype":"DT_HALF","tensorShape":{"dim":[{"size":"1"},{"size":"1"},{"size":"664"},{"size":"168"}]}}}}},
          {"name":"StatefulPartitionedCall/GhostNet/conv2d_49/BiasAdd/Cast","op":"Const","attr":{"value":{"tensor":{"dtype":"DT_HALF","tensorShape":{"dim":[{"size":"168"}]}}},"dtype":{"type":"DT_HALF"}}},
          {"name":"StatefulPartitionedCall/GhostNet/conv2d_50/Conv2D/Cast","op":"Const","attr":{"value":{"tensor":{"dtype":"DT_HALF","tensorShape":{"dim":[{"size":"1"},{"size":"1"},{"size":"168"},{"size":"664"}]}}},"dtype":{"type":"DT_HALF"}}},
          {"name":"StatefulPartitionedCall/GhostNet/conv2d_50/BiasAdd/Cast","op":"Const","attr":{"dtype":{"type":"DT_HALF"},"value":{"tensor":{"dtype":"DT_HALF","tensorShape":{"dim":[{"size":"664"}]}}}}},
          {"name":"StatefulPartitionedCall/GhostNet/activation_46/Const","op":"Const","attr":{"value":{"tensor":{"dtype":"DT_HALF","tensorShape":{}}},"dtype":{"type":"DT_HALF"}}},
          {"name":"StatefulPartitionedCall/GhostNet/activation_46/Const_1","op":"Const","attr":{"dtype":{"type":"DT_HALF"},"value":{"tensor":{"dtype":"DT_HALF","tensorShape":{}}}}},
          {"name":"StatefulPartitionedCall/GhostNet/activation_46/clip_by_value/Minimum/y","op":"Const","attr":{"value":{"tensor":{"dtype":"DT_HALF","tensorShape":{}}},"dtype":{"type":"DT_HALF"}}},
          {"name":"StatefulPartitionedCall/GhostNet/activation_46/clip_by_value/y","op":"Const","attr":{"value":{"tensor":{"dtype":"DT_HALF","tensorShape":{}}},"dtype":{"type":"DT_HALF"}}},
          {"name":"StatefulPartitionedCall/GhostNet/concatenate_31/concat/axis","op":"Const","attr":{"value":{"tensor":{"dtype":"DT_INT32","tensorShape":{}}},"dtype":{"type":"DT_INT32"}}},
          {"name":"StatefulPartitionedCall/GhostNet/conv2d_53/Conv2D/Cast","op":"Const","attr":{"dtype":{"type":"DT_HALF"},"value":{"tensor":{"dtype":"DT_HALF","tensorShape":{"dim":[{"size":"1"},{"size":"1"},{"size":"664"},{"size":"512"}]}}}}},
          {"name":"StatefulPartitionedCall/GhostNet/conv2d_53/BiasAdd/Cast","op":"Const","attr":{"dtype":{"type":"DT_HALF"},"value":{"tensor":{"dtype":"DT_HALF","tensorShape":{"dim":[{"size":"512"}]}}}}},
          {"name":"StatefulPartitionedCall/GhostNet/flatten/Const","op":"Const","attr":{"value":{"tensor":{"dtype":"DT_INT32","tensorShape":{"dim":[{"size":"2"}]}}},"dtype":{"type":"DT_INT32"}}},
          {"name":"StatefulPartitionedCall/GhostNet/batch_normalization_81/batchnorm/mul","op":"Const","attr":{"dtype":{"type":"DT_FLOAT"},"value":{"tensor":{"dtype":"DT_FLOAT","tensorShape":{"dim":[{"size":"512"}]}}}}},
          {"name":"StatefulPartitionedCall/GhostNet/batch_normalization_81/batchnorm/sub","op":"Const","attr":{"dtype":{"type":"DT_FLOAT"},"value":{"tensor":{"dtype":"DT_FLOAT","tensorShape":{"dim":[{"size":"512"}]}}}}},
          {"name":"input_1","op":"Placeholder","attr":{"dtype":{"type":"DT_FLOAT"},"shape":{"shape":{"dim":[{"size":"-1"},{"size":"112"},{"size":"112"},{"size":"3"}]}}}},
          {"name":"StatefulPartitionedCall/GhostNet/conv2d/Conv2D_weights","op":"Const","attr":{"dtype":{"type":"DT_HALF"},"value":{"tensor":{"dtype":"DT_HALF","tensorShape":{"dim":[{"size":"3"},{"size":"3"},{"size":"3"},{"size":"20"}]}}}}},
          {"name":"StatefulPartitionedCall/GhostNet/conv2d/Conv2D_bn_offset","op":"Const","attr":{"value":{"tensor":{"dtype":"DT_FLOAT","tensorShape":{"dim":[{"size":"20"}]}}},"dtype":{"type":"DT_FLOAT"}}},
          {"name":"StatefulPartitionedCall/GhostNet/conv2d_1/Conv2D_weights","op":"Const","attr":{"dtype":{"type":"DT_HALF"},"value":{"tensor":{"dtype":"DT_HALF","tensorShape":{"dim":[{"size":"1"},{"size":"1"},{"size":"20"},{"size":"10"}]}}}}},
          {"name":"StatefulPartitionedCall/GhostNet/conv2d_1/Conv2D_bn_offset","op":"Const","attr":{"value":{"tensor":{"dtype":"DT_FLOAT","tensorShape":{"dim":[{"size":"10"}]}}},"dtype":{"type":"DT_FLOAT"}}},
          {"name":"StatefulPartitionedCall/GhostNet/depthwise_conv2d/depthwise_weights","op":"Const","attr":{"dtype":{"type":"DT_HALF"},"value":{"tensor":{"dtype":"DT_HALF","tensorShape":{"dim":[{"size":"3"},{"size":"3"},{"size":"10"},{"size":"1"}]}}}}},
          {"name":"StatefulPartitionedCall/GhostNet/depthwise_conv2d/depthwise_bn_offset","op":"Const","attr":{"dtype":{"type":"DT_FLOAT"},"value":{"tensor":{"dtype":"DT_FLOAT","tensorShape":{"dim":[{"size":"10"}]}}}}},
          {"name":"StatefulPartitionedCall/GhostNet/conv2d_2/Conv2D_weights","op":"Const","attr":{"dtype":{"type":"DT_HALF"},"value":{"tensor":{"dtype":"DT_HALF","tensorShape":{"dim":[{"size":"1"},{"size":"1"},{"size":"20"},{"size":"10"}]}}}}},
          {"name":"StatefulPartitionedCall/GhostNet/conv2d_2/Conv2D_bn_offset","op":"Const","attr":{"dtype":{"type":"DT_FLOAT"},"value":{"tensor":{"dtype":"DT_FLOAT","tensorShape":{"dim":[{"size":"10"}]}}}}},
          {"name":"StatefulPartitionedCall/GhostNet/depthwise_conv2d_1/depthwise_weights","op":"Const","attr":{"dtype":{"type":"DT_HALF"},"value":{"tensor":{"dtype":"DT_HALF","tensorShape":{"dim":[{"size":"3"},{"size":"3"},{"size":"10"},{"size":"1"}]}}}}},
          {"name":"StatefulPartitionedCall/GhostNet/depthwise_conv2d_1/depthwise_bn_offset","op":"Const","attr":{"dtype":{"type":"DT_FLOAT"},"value":{"tensor":{"dtype":"DT_FLOAT","tensorShape":{"dim":[{"size":"10"}]}}}}},
          {"name":"StatefulPartitionedCall/GhostNet/depthwise_conv2d_5/depthwise_weights","op":"Const","attr":{"dtype":{"type":"DT_HALF"},"value":{"tensor":{"dtype":"DT_HALF","tensorShape":{"dim":[{"size":"3"},{"size":"3"},{"size":"20"},{"size":"1"}]}}}}},
          {"name":"StatefulPartitionedCall/GhostNet/depthwise_conv2d_5/depthwise_bn_offset","op":"Const","attr":{"value":{"tensor":{"dtype":"DT_FLOAT","tensorShape":{"dim":[{"size":"20"}]}}},"dtype":{"type":"DT_FLOAT"}}},
          {"name":"StatefulPartitionedCall/GhostNet/conv2d_3/Conv2D_weights","op":"Const","attr":{"value":{"tensor":{"dtype":"DT_HALF","tensorShape":{"dim":[{"size":"1"},{"size":"1"},{"size":"20"},{"size":"32"}]}}},"dtype":{"type":"DT_HALF"}}},
          {"name":"StatefulPartitionedCall/GhostNet/conv2d_3/Conv2D_bn_offset","op":"Const","attr":{"dtype":{"type":"DT_FLOAT"},"value":{"tensor":{"dtype":"DT_FLOAT","tensorShape":{"dim":[{"size":"32"}]}}}}},
          {"name":"StatefulPartitionedCall/GhostNet/conv2d_5/Conv2D_weights","op":"Const","attr":{"value":{"tensor":{"dtype":"DT_HALF","tensorShape":{"dim":[{"size":"1"},{"size":"1"},{"size":"20"},{"size":"32"}]}}},"dtype":{"type":"DT_HALF"}}},
          {"name":"StatefulPartitionedCall/GhostNet/conv2d_5/Conv2D_bn_offset","op":"Const","attr":{"dtype":{"type":"DT_FLOAT"},"value":{"tensor":{"dtype":"DT_FLOAT","tensorShape":{"dim":[{"size":"32"}]}}}}},
          {"name":"StatefulPartitionedCall/GhostNet/depthwise_conv2d_2/depthwise_weights","op":"Const","attr":{"dtype":{"type":"DT_HALF"},"value":{"tensor":{"dtype":"DT_HALF","tensorShape":{"dim":[{"size":"3"},{"size":"3"},{"size":"32"},{"size":"1"}]}}}}},
          {"name":"StatefulPartitionedCall/GhostNet/depthwise_conv2d_2/depthwise_bn_offset","op":"Const","attr":{"dtype":{"type":"DT_FLOAT"},"value":{"tensor":{"dtype":"DT_FLOAT","tensorShape":{"dim":[{"size":"32"}]}}}}},
          {"name":"StatefulPartitionedCall/GhostNet/depthwise_conv2d_3/depthwise_weights","op":"Const","attr":{"dtype":{"type":"DT_HALF"},"value":{"tensor":{"dtype":"DT_HALF","tensorShape":{"dim":[{"size":"3"},{"size":"3"},{"size":"64"},{"size":"1"}]}}}}},
          {"name":"StatefulPartitionedCall/GhostNet/depthwise_conv2d_3/depthwise_bn_offset","op":"Const","attr":{"value":{"tensor":{"dtype":"DT_FLOAT","tensorShape":{"dim":[{"size":"64"}]}}},"dtype":{"type":"DT_FLOAT"}}},
          {"name":"StatefulPartitionedCall/GhostNet/conv2d_4/Conv2D_weights","op":"Const","attr":{"value":{"tensor":{"dtype":"DT_HALF","tensorShape":{"dim":[{"size":"1"},{"size":"1"},{"size":"64"},{"size":"16"}]}}},"dtype":{"type":"DT_HALF"}}},
          {"name":"StatefulPartitionedCall/GhostNet/conv2d_4/Conv2D_bn_offset","op":"Const","attr":{"dtype":{"type":"DT_FLOAT"},"value":{"tensor":{"dtype":"DT_FLOAT","tensorShape":{"dim":[{"size":"16"}]}}}}},
          {"name":"StatefulPartitionedCall/GhostNet/depthwise_conv2d_4/depthwise_weights","op":"Const","attr":{"dtype":{"type":"DT_HALF"},"value":{"tensor":{"dtype":"DT_HALF","tensorShape":{"dim":[{"size":"3"},{"size":"3"},{"size":"16"},{"size":"1"}]}}}}},
          {"name":"StatefulPartitionedCall/GhostNet/depthwise_conv2d_4/depthwise_bn_offset","op":"Const","attr":{"value":{"tensor":{"dtype":"DT_FLOAT","tensorShape":{"dim":[{"size":"16"}]}}},"dtype":{"type":"DT_FLOAT"}}},
          {"name":"StatefulPartitionedCall/GhostNet/conv2d_6/Conv2D_weights","op":"Const","attr":{"dtype":{"type":"DT_HALF"},"value":{"tensor":{"dtype":"DT_HALF","tensorShape":{"dim":[{"size":"1"},{"size":"1"},{"size":"32"},{"size":"46"}]}}}}},
          {"name":"StatefulPartitionedCall/GhostNet/conv2d_6/Conv2D_bn_offset","op":"Const","attr":{"dtype":{"type":"DT_FLOAT"},"value":{"tensor":{"dtype":"DT_FLOAT","tensorShape":{"dim":[{"size":"46"}]}}}}},
          {"name":"StatefulPartitionedCall/GhostNet/depthwise_conv2d_6/depthwise_weights","op":"Const","attr":{"value":{"tensor":{"dtype":"DT_HALF","tensorShape":{"dim":[{"size":"3"},{"size":"3"},{"size":"46"},{"size":"1"}]}}},"dtype":{"type":"DT_HALF"}}},
          {"name":"StatefulPartitionedCall/GhostNet/depthwise_conv2d_6/depthwise_bn_offset","op":"Const","attr":{"dtype":{"type":"DT_FLOAT"},"value":{"tensor":{"dtype":"DT_FLOAT","tensorShape":{"dim":[{"size":"46"}]}}}}},
          {"name":"StatefulPartitionedCall/GhostNet/conv2d_7/Conv2D_weights","op":"Const","attr":{"value":{"tensor":{"dtype":"DT_HALF","tensorShape":{"dim":[{"size":"1"},{"size":"1"},{"size":"92"},{"size":"16"}]}}},"dtype":{"type":"DT_HALF"}}},
          {"name":"StatefulPartitionedCall/GhostNet/conv2d_7/Conv2D_bn_offset","op":"Const","attr":{"dtype":{"type":"DT_FLOAT"},"value":{"tensor":{"dtype":"DT_FLOAT","tensorShape":{"dim":[{"size":"16"}]}}}}},
          {"name":"StatefulPartitionedCall/GhostNet/depthwise_conv2d_7/depthwise_weights","op":"Const","attr":{"value":{"tensor":{"dtype":"DT_HALF","tensorShape":{"dim":[{"size":"3"},{"size":"3"},{"size":"16"},{"size":"1"}]}}},"dtype":{"type":"DT_HALF"}}},
          {"name":"StatefulPartitionedCall/GhostNet/depthwise_conv2d_7/depthwise_bn_offset","op":"Const","attr":{"value":{"tensor":{"dtype":"DT_FLOAT","tensorShape":{"dim":[{"size":"16"}]}}},"dtype":{"type":"DT_FLOAT"}}},
          {"name":"StatefulPartitionedCall/GhostNet/depthwise_conv2d_11/depthwise_weights","op":"Const","attr":{"dtype":{"type":"DT_HALF"},"value":{"tensor":{"dtype":"DT_HALF","tensorShape":{"dim":[{"size":"5"},{"size":"5"},{"size":"32"},{"size":"1"}]}}}}},
          {"name":"StatefulPartitionedCall/GhostNet/depthwise_conv2d_11/depthwise_bn_offset","op":"Const","attr":{"dtype":{"type":"DT_FLOAT"},"value":{"tensor":{"dtype":"DT_FLOAT","tensorShape":{"dim":[{"size":"32"}]}}}}},
          {"name":"StatefulPartitionedCall/GhostNet/conv2d_8/Conv2D_weights","op":"Const","attr":{"value":{"tensor":{"dtype":"DT_HALF","tensorShape":{"dim":[{"size":"1"},{"size":"1"},{"size":"32"},{"size":"46"}]}}},"dtype":{"type":"DT_HALF"}}},
          {"name":"StatefulPartitionedCall/GhostNet/conv2d_8/Conv2D_bn_offset","op":"Const","attr":{"value":{"tensor":{"dtype":"DT_FLOAT","tensorShape":{"dim":[{"size":"46"}]}}},"dtype":{"type":"DT_FLOAT"}}},
          {"name":"StatefulPartitionedCall/GhostNet/conv2d_12/Conv2D_weights","op":"Const","attr":{"dtype":{"type":"DT_HALF"},"value":{"tensor":{"dtype":"DT_HALF","tensorShape":{"dim":[{"size":"1"},{"size":"1"},{"size":"32"},{"size":"52"}]}}}}},
          {"name":"StatefulPartitionedCall/GhostNet/conv2d_12/Conv2D_bn_offset","op":"Const","attr":{"dtype":{"type":"DT_FLOAT"},"value":{"tensor":{"dtype":"DT_FLOAT","tensorShape":{"dim":[{"size":"52"}]}}}}},
          {"name":"StatefulPartitionedCall/GhostNet/depthwise_conv2d_8/depthwise_weights","op":"Const","attr":{"value":{"tensor":{"dtype":"DT_HALF","tensorShape":{"dim":[{"size":"3"},{"size":"3"},{"size":"46"},{"size":"1"}]}}},"dtype":{"type":"DT_HALF"}}},
          {"name":"StatefulPartitionedCall/GhostNet/depthwise_conv2d_8/depthwise_bn_offset","op":"Const","attr":{"dtype":{"type":"DT_FLOAT"},"value":{"tensor":{"dtype":"DT_FLOAT","tensorShape":{"dim":[{"size":"46"}]}}}}},
          {"name":"StatefulPartitionedCall/GhostNet/depthwise_conv2d_9/depthwise_weights","op":"Const","attr":{"value":{"tensor":{"dtype":"DT_HALF","tensorShape":{"dim":[{"size":"5"},{"size":"5"},{"size":"92"},{"size":"1"}]}}},"dtype":{"type":"DT_HALF"}}},
          {"name":"StatefulPartitionedCall/GhostNet/depthwise_conv2d_9/depthwise_bn_offset","op":"Const","attr":{"value":{"tensor":{"dtype":"DT_FLOAT","tensorShape":{"dim":[{"size":"92"}]}}},"dtype":{"type":"DT_FLOAT"}}},
          {"name":"StatefulPartitionedCall/GhostNet/conv2d_11/Conv2D_weights","op":"Const","attr":{"value":{"tensor":{"dtype":"DT_HALF","tensorShape":{"dim":[{"size":"1"},{"size":"1"},{"size":"92"},{"size":"26"}]}}},"dtype":{"type":"DT_HALF"}}},
          {"name":"StatefulPartitionedCall/GhostNet/conv2d_11/Conv2D_bn_offset","op":"Const","attr":{"value":{"tensor":{"dtype":"DT_FLOAT","tensorShape":{"dim":[{"size":"26"}]}}},"dtype":{"type":"DT_FLOAT"}}},
          {"name":"StatefulPartitionedCall/GhostNet/depthwise_conv2d_10/depthwise_weights","op":"Const","attr":{"value":{"tensor":{"dtype":"DT_HALF","tensorShape":{"dim":[{"size":"3"},{"size":"3"},{"size":"26"},{"size":"1"}]}}},"dtype":{"type":"DT_HALF"}}},
          {"name":"StatefulPartitionedCall/GhostNet/depthwise_conv2d_10/depthwise_bn_offset","op":"Const","attr":{"value":{"tensor":{"dtype":"DT_FLOAT","tensorShape":{"dim":[{"size":"26"}]}}},"dtype":{"type":"DT_FLOAT"}}},
          {"name":"StatefulPartitionedCall/GhostNet/conv2d_13/Conv2D_weights","op":"Const","attr":{"value":{"tensor":{"dtype":"DT_HALF","tensorShape":{"dim":[{"size":"1"},{"size":"1"},{"size":"52"},{"size":"78"}]}}},"dtype":{"type":"DT_HALF"}}},
          {"name":"StatefulPartitionedCall/GhostNet/conv2d_13/Conv2D_bn_offset","op":"Const","attr":{"dtype":{"type":"DT_FLOAT"},"value":{"tensor":{"dtype":"DT_FLOAT","tensorShape":{"dim":[{"size":"78"}]}}}}},
          {"name":"StatefulPartitionedCall/GhostNet/depthwise_conv2d_12/depthwise_weights","op":"Const","attr":{"dtype":{"type":"DT_HALF"},"value":{"tensor":{"dtype":"DT_HALF","tensorShape":{"dim":[{"size":"3"},{"size":"3"},{"size":"78"},{"size":"1"}]}}}}},
          {"name":"StatefulPartitionedCall/GhostNet/depthwise_conv2d_12/depthwise_bn_offset","op":"Const","attr":{"value":{"tensor":{"dtype":"DT_FLOAT","tensorShape":{"dim":[{"size":"78"}]}}},"dtype":{"type":"DT_FLOAT"}}},
          {"name":"StatefulPartitionedCall/GhostNet/conv2d_16/Conv2D_weights","op":"Const","attr":{"dtype":{"type":"DT_HALF"},"value":{"tensor":{"dtype":"DT_HALF","tensorShape":{"dim":[{"size":"1"},{"size":"1"},{"size":"156"},{"size":"26"}]}}}}},
          {"name":"StatefulPartitionedCall/GhostNet/conv2d_16/Conv2D_bn_offset","op":"Const","attr":{"dtype":{"type":"DT_FLOAT"},"value":{"tensor":{"dtype":"DT_FLOAT","tensorShape":{"dim":[{"size":"26"}]}}}}},
          {"name":"StatefulPartitionedCall/GhostNet/depthwise_conv2d_13/depthwise_weights","op":"Const","attr":{"dtype":{"type":"DT_HALF"},"value":{"tensor":{"dtype":"DT_HALF","tensorShape":{"dim":[{"size":"3"},{"size":"3"},{"size":"26"},{"size":"1"}]}}}}},
          {"name":"StatefulPartitionedCall/GhostNet/depthwise_conv2d_13/depthwise_bn_offset","op":"Const","attr":{"value":{"tensor":{"dtype":"DT_FLOAT","tensorShape":{"dim":[{"size":"26"}]}}},"dtype":{"type":"DT_FLOAT"}}},
          {"name":"StatefulPartitionedCall/GhostNet/depthwise_conv2d_17/depthwise_weights","op":"Const","attr":{"dtype":{"type":"DT_HALF"},"value":{"tensor":{"dtype":"DT_HALF","tensorShape":{"dim":[{"size":"3"},{"size":"3"},{"size":"52"},{"size":"1"}]}}}}},
          {"name":"StatefulPartitionedCall/GhostNet/depthwise_conv2d_17/depthwise_bn_offset","op":"Const","attr":{"value":{"tensor":{"dtype":"DT_FLOAT","tensorShape":{"dim":[{"size":"52"}]}}},"dtype":{"type":"DT_FLOAT"}}},
          {"name":"StatefulPartitionedCall/GhostNet/conv2d_17/Conv2D_weights","op":"Const","attr":{"dtype":{"type":"DT_HALF"},"value":{"tensor":{"dtype":"DT_HALF","tensorShape":{"dim":[{"size":"1"},{"size":"1"},{"size":"52"},{"size":"156"}]}}}}},
          {"name":"StatefulPartitionedCall/GhostNet/conv2d_17/Conv2D_bn_offset","op":"Const","attr":{"dtype":{"type":"DT_FLOAT"},"value":{"tensor":{"dtype":"DT_FLOAT","tensorShape":{"dim":[{"size":"156"}]}}}}},
          {"name":"StatefulPartitionedCall/GhostNet/conv2d_19/Conv2D_weights","op":"Const","attr":{"value":{"tensor":{"dtype":"DT_HALF","tensorShape":{"dim":[{"size":"1"},{"size":"1"},{"size":"52"},{"size":"104"}]}}},"dtype":{"type":"DT_HALF"}}},
          {"name":"StatefulPartitionedCall/GhostNet/conv2d_19/Conv2D_bn_offset","op":"Const","attr":{"value":{"tensor":{"dtype":"DT_FLOAT","tensorShape":{"dim":[{"size":"104"}]}}},"dtype":{"type":"DT_FLOAT"}}},
          {"name":"StatefulPartitionedCall/GhostNet/depthwise_conv2d_14/depthwise_weights","op":"Const","attr":{"value":{"tensor":{"dtype":"DT_HALF","tensorShape":{"dim":[{"size":"3"},{"size":"3"},{"size":"156"},{"size":"1"}]}}},"dtype":{"type":"DT_HALF"}}},
          {"name":"StatefulPartitionedCall/GhostNet/depthwise_conv2d_14/depthwise_bn_offset","op":"Const","attr":{"dtype":{"type":"DT_FLOAT"},"value":{"tensor":{"dtype":"DT_FLOAT","tensorShape":{"dim":[{"size":"156"}]}}}}},
          {"name":"StatefulPartitionedCall/GhostNet/depthwise_conv2d_15/depthwise_weights","op":"Const","attr":{"dtype":{"type":"DT_HALF"},"value":{"tensor":{"dtype":"DT_HALF","tensorShape":{"dim":[{"size":"3"},{"size":"3"},{"size":"312"},{"size":"1"}]}}}}},
          {"name":"StatefulPartitionedCall/GhostNet/depthwise_conv2d_15/depthwise_bn_offset","op":"Const","attr":{"dtype":{"type":"DT_FLOAT"},"value":{"tensor":{"dtype":"DT_FLOAT","tensorShape":{"dim":[{"size":"312"}]}}}}},
          {"name":"StatefulPartitionedCall/GhostNet/conv2d_18/Conv2D_weights","op":"Const","attr":{"dtype":{"type":"DT_HALF"},"value":{"tensor":{"dtype":"DT_HALF","tensorShape":{"dim":[{"size":"1"},{"size":"1"},{"size":"312"},{"size":"52"}]}}}}},
          {"name":"StatefulPartitionedCall/GhostNet/conv2d_18/Conv2D_bn_offset","op":"Const","attr":{"dtype":{"type":"DT_FLOAT"},"value":{"tensor":{"dtype":"DT_FLOAT","tensorShape":{"dim":[{"size":"52"}]}}}}},
          {"name":"StatefulPartitionedCall/GhostNet/depthwise_conv2d_16/depthwise_weights","op":"Const","attr":{"dtype":{"type":"DT_HALF"},"value":{"tensor":{"dtype":"DT_HALF","tensorShape":{"dim":[{"size":"3"},{"size":"3"},{"size":"52"},{"size":"1"}]}}}}},
          {"name":"StatefulPartitionedCall/GhostNet/depthwise_conv2d_16/depthwise_bn_offset","op":"Const","attr":{"dtype":{"type":"DT_FLOAT"},"value":{"tensor":{"dtype":"DT_FLOAT","tensorShape":{"dim":[{"size":"52"}]}}}}},
          {"name":"StatefulPartitionedCall/GhostNet/conv2d_20/Conv2D_weights","op":"Const","attr":{"dtype":{"type":"DT_HALF"},"value":{"tensor":{"dtype":"DT_HALF","tensorShape":{"dim":[{"size":"1"},{"size":"1"},{"size":"104"},{"size":"130"}]}}}}},
          {"name":"StatefulPartitionedCall/GhostNet/conv2d_20/Conv2D_bn_offset","op":"Const","attr":{"dtype":{"type":"DT_FLOAT"},"value":{"tensor":{"dtype":"DT_FLOAT","tensorShape":{"dim":[{"size":"130"}]}}}}},
          {"name":"StatefulPartitionedCall/GhostNet/depthwise_conv2d_18/depthwise_weights","op":"Const","attr":{"value":{"tensor":{"dtype":"DT_HALF","tensorShape":{"dim":[{"size":"3"},{"size":"3"},{"size":"130"},{"size":"1"}]}}},"dtype":{"type":"DT_HALF"}}},
          {"name":"StatefulPartitionedCall/GhostNet/depthwise_conv2d_18/depthwise_bn_offset","op":"Const","attr":{"value":{"tensor":{"dtype":"DT_FLOAT","tensorShape":{"dim":[{"size":"130"}]}}},"dtype":{"type":"DT_FLOAT"}}},
          {"name":"StatefulPartitionedCall/GhostNet/conv2d_21/Conv2D_weights","op":"Const","attr":{"value":{"tensor":{"dtype":"DT_HALF","tensorShape":{"dim":[{"size":"1"},{"size":"1"},{"size":"260"},{"size":"52"}]}}},"dtype":{"type":"DT_HALF"}}},
          {"name":"StatefulPartitionedCall/GhostNet/conv2d_21/Conv2D_bn_offset","op":"Const","attr":{"dtype":{"type":"DT_FLOAT"},"value":{"tensor":{"dtype":"DT_FLOAT","tensorShape":{"dim":[{"size":"52"}]}}}}},
          {"name":"StatefulPartitionedCall/GhostNet/depthwise_conv2d_19/depthwise_weights","op":"Const","attr":{"dtype":{"type":"DT_HALF"},"value":{"tensor":{"dtype":"DT_HALF","tensorShape":{"dim":[{"size":"3"},{"size":"3"},{"size":"52"},{"size":"1"}]}}}}},
          {"name":"StatefulPartitionedCall/GhostNet/depthwise_conv2d_19/depthwise_bn_offset","op":"Const","attr":{"dtype":{"type":"DT_FLOAT"},"value":{"tensor":{"dtype":"DT_FLOAT","tensorShape":{"dim":[{"size":"52"}]}}}}},
          {"name":"StatefulPartitionedCall/GhostNet/conv2d_22/Conv2D_weights","op":"Const","attr":{"value":{"tensor":{"dtype":"DT_HALF","tensorShape":{"dim":[{"size":"1"},{"size":"1"},{"size":"104"},{"size":"120"}]}}},"dtype":{"type":"DT_HALF"}}},
          {"name":"StatefulPartitionedCall/GhostNet/conv2d_22/Conv2D_bn_offset","op":"Const","attr":{"value":{"tensor":{"dtype":"DT_FLOAT","tensorShape":{"dim":[{"size":"120"}]}}},"dtype":{"type":"DT_FLOAT"}}},
          {"name":"StatefulPartitionedCall/GhostNet/depthwise_conv2d_20/depthwise_weights","op":"Const","attr":{"dtype":{"type":"DT_HALF"},"value":{"tensor":{"dtype":"DT_HALF","tensorShape":{"dim":[{"size":"3"},{"size":"3"},{"size":"120"},{"size":"1"}]}}}}},
          {"name":"StatefulPartitionedCall/GhostNet/depthwise_conv2d_20/depthwise_bn_offset","op":"Const","attr":{"value":{"tensor":{"dtype":"DT_FLOAT","tensorShape":{"dim":[{"size":"120"}]}}},"dtype":{"type":"DT_FLOAT"}}},
          {"name":"StatefulPartitionedCall/GhostNet/conv2d_23/Conv2D_weights","op":"Const","attr":{"dtype":{"type":"DT_HALF"},"value":{"tensor":{"dtype":"DT_HALF","tensorShape":{"dim":[{"size":"1"},{"size":"1"},{"size":"240"},{"size":"52"}]}}}}},
          {"name":"StatefulPartitionedCall/GhostNet/conv2d_23/Conv2D_bn_offset","op":"Const","attr":{"value":{"tensor":{"dtype":"DT_FLOAT","tensorShape":{"dim":[{"size":"52"}]}}},"dtype":{"type":"DT_FLOAT"}}},
          {"name":"StatefulPartitionedCall/GhostNet/depthwise_conv2d_21/depthwise_weights","op":"Const","attr":{"value":{"tensor":{"dtype":"DT_HALF","tensorShape":{"dim":[{"size":"3"},{"size":"3"},{"size":"52"},{"size":"1"}]}}},"dtype":{"type":"DT_HALF"}}},
          {"name":"StatefulPartitionedCall/GhostNet/depthwise_conv2d_21/depthwise_bn_offset","op":"Const","attr":{"value":{"tensor":{"dtype":"DT_FLOAT","tensorShape":{"dim":[{"size":"52"}]}}},"dtype":{"type":"DT_FLOAT"}}},
          {"name":"StatefulPartitionedCall/GhostNet/conv2d_24/Conv2D_weights","op":"Const","attr":{"dtype":{"type":"DT_HALF"},"value":{"tensor":{"dtype":"DT_HALF","tensorShape":{"dim":[{"size":"1"},{"size":"1"},{"size":"104"},{"size":"120"}]}}}}},
          {"name":"StatefulPartitionedCall/GhostNet/conv2d_24/Conv2D_bn_offset","op":"Const","attr":{"dtype":{"type":"DT_FLOAT"},"value":{"tensor":{"dtype":"DT_FLOAT","tensorShape":{"dim":[{"size":"120"}]}}}}},
          {"name":"StatefulPartitionedCall/GhostNet/depthwise_conv2d_22/depthwise_weights","op":"Const","attr":{"dtype":{"type":"DT_HALF"},"value":{"tensor":{"dtype":"DT_HALF","tensorShape":{"dim":[{"size":"3"},{"size":"3"},{"size":"120"},{"size":"1"}]}}}}},
          {"name":"StatefulPartitionedCall/GhostNet/depthwise_conv2d_22/depthwise_bn_offset","op":"Const","attr":{"value":{"tensor":{"dtype":"DT_FLOAT","tensorShape":{"dim":[{"size":"120"}]}}},"dtype":{"type":"DT_FLOAT"}}},
          {"name":"StatefulPartitionedCall/GhostNet/conv2d_25/Conv2D_weights","op":"Const","attr":{"dtype":{"type":"DT_HALF"},"value":{"tensor":{"dtype":"DT_HALF","tensorShape":{"dim":[{"size":"1"},{"size":"1"},{"size":"240"},{"size":"52"}]}}}}},
          {"name":"StatefulPartitionedCall/GhostNet/conv2d_25/Conv2D_bn_offset","op":"Const","attr":{"value":{"tensor":{"dtype":"DT_FLOAT","tensorShape":{"dim":[{"size":"52"}]}}},"dtype":{"type":"DT_FLOAT"}}},
          {"name":"StatefulPartitionedCall/GhostNet/depthwise_conv2d_23/depthwise_weights","op":"Const","attr":{"dtype":{"type":"DT_HALF"},"value":{"tensor":{"dtype":"DT_HALF","tensorShape":{"dim":[{"size":"3"},{"size":"3"},{"size":"52"},{"size":"1"}]}}}}},
          {"name":"StatefulPartitionedCall/GhostNet/depthwise_conv2d_23/depthwise_bn_offset","op":"Const","attr":{"value":{"tensor":{"dtype":"DT_FLOAT","tensorShape":{"dim":[{"size":"52"}]}}},"dtype":{"type":"DT_FLOAT"}}},
          {"name":"StatefulPartitionedCall/GhostNet/depthwise_conv2d_26/depthwise_weights","op":"Const","attr":{"dtype":{"type":"DT_HALF"},"value":{"tensor":{"dtype":"DT_HALF","tensorShape":{"dim":[{"size":"3"},{"size":"3"},{"size":"104"},{"size":"1"}]}}}}},
          {"name":"StatefulPartitionedCall/GhostNet/depthwise_conv2d_26/depthwise_bn_offset","op":"Const","attr":{"dtype":{"type":"DT_FLOAT"},"value":{"tensor":{"dtype":"DT_FLOAT","tensorShape":{"dim":[{"size":"104"}]}}}}},
          {"name":"StatefulPartitionedCall/GhostNet/conv2d_26/Conv2D_weights","op":"Const","attr":{"value":{"tensor":{"dtype":"DT_HALF","tensorShape":{"dim":[{"size":"1"},{"size":"1"},{"size":"104"},{"size":"312"}]}}},"dtype":{"type":"DT_HALF"}}},
          {"name":"StatefulPartitionedCall/GhostNet/conv2d_26/Conv2D_bn_offset","op":"Const","attr":{"value":{"tensor":{"dtype":"DT_FLOAT","tensorShape":{"dim":[{"size":"312"}]}}},"dtype":{"type":"DT_FLOAT"}}},
          {"name":"StatefulPartitionedCall/GhostNet/conv2d_30/Conv2D_weights","op":"Const","attr":{"dtype":{"type":"DT_HALF"},"value":{"tensor":{"dtype":"DT_HALF","tensorShape":{"dim":[{"size":"1"},{"size":"1"},{"size":"104"},{"size":"144"}]}}}}},
          {"name":"StatefulPartitionedCall/GhostNet/conv2d_30/Conv2D_bn_offset","op":"Const","attr":{"dtype":{"type":"DT_FLOAT"},"value":{"tensor":{"dtype":"DT_FLOAT","tensorShape":{"dim":[{"size":"144"}]}}}}},
          {"name":"StatefulPartitionedCall/GhostNet/depthwise_conv2d_24/depthwise_weights","op":"Const","attr":{"value":{"tensor":{"dtype":"DT_HALF","tensorShape":{"dim":[{"size":"3"},{"size":"3"},{"size":"312"},{"size":"1"}]}}},"dtype":{"type":"DT_HALF"}}},
          {"name":"StatefulPartitionedCall/GhostNet/depthwise_conv2d_24/depthwise_bn_offset","op":"Const","attr":{"dtype":{"type":"DT_FLOAT"},"value":{"tensor":{"dtype":"DT_FLOAT","tensorShape":{"dim":[{"size":"312"}]}}}}},
          {"name":"StatefulPartitionedCall/GhostNet/conv2d_29/Conv2D_weights","op":"Const","attr":{"value":{"tensor":{"dtype":"DT_HALF","tensorShape":{"dim":[{"size":"1"},{"size":"1"},{"size":"624"},{"size":"72"}]}}},"dtype":{"type":"DT_HALF"}}},
          {"name":"StatefulPartitionedCall/GhostNet/conv2d_29/Conv2D_bn_offset","op":"Const","attr":{"dtype":{"type":"DT_FLOAT"},"value":{"tensor":{"dtype":"DT_FLOAT","tensorShape":{"dim":[{"size":"72"}]}}}}},
          {"name":"StatefulPartitionedCall/GhostNet/depthwise_conv2d_25/depthwise_weights","op":"Const","attr":{"value":{"tensor":{"dtype":"DT_HALF","tensorShape":{"dim":[{"size":"3"},{"size":"3"},{"size":"72"},{"size":"1"}]}}},"dtype":{"type":"DT_HALF"}}},
          {"name":"StatefulPartitionedCall/GhostNet/depthwise_conv2d_25/depthwise_bn_offset","op":"Const","attr":{"dtype":{"type":"DT_FLOAT"},"value":{"tensor":{"dtype":"DT_FLOAT","tensorShape":{"dim":[{"size":"72"}]}}}}},
          {"name":"StatefulPartitionedCall/GhostNet/conv2d_31/Conv2D_weights","op":"Const","attr":{"dtype":{"type":"DT_HALF"},"value":{"tensor":{"dtype":"DT_HALF","tensorShape":{"dim":[{"size":"1"},{"size":"1"},{"size":"144"},{"size":"436"}]}}}}},
          {"name":"StatefulPartitionedCall/GhostNet/conv2d_31/Conv2D_bn_offset","op":"Const","attr":{"dtype":{"type":"DT_FLOAT"},"value":{"tensor":{"dtype":"DT_FLOAT","tensorShape":{"dim":[{"size":"436"}]}}}}},
          {"name":"StatefulPartitionedCall/GhostNet/depthwise_conv2d_27/depthwise_weights","op":"Const","attr":{"value":{"tensor":{"dtype":"DT_HALF","tensorShape":{"dim":[{"size":"3"},{"size":"3"},{"size":"436"},{"size":"1"}]}}},"dtype":{"type":"DT_HALF"}}},
          {"name":"StatefulPartitionedCall/GhostNet/depthwise_conv2d_27/depthwise_bn_offset","op":"Const","attr":{"value":{"tensor":{"dtype":"DT_FLOAT","tensorShape":{"dim":[{"size":"436"}]}}},"dtype":{"type":"DT_FLOAT"}}},
          {"name":"StatefulPartitionedCall/GhostNet/conv2d_34/Conv2D_weights","op":"Const","attr":{"dtype":{"type":"DT_HALF"},"value":{"tensor":{"dtype":"DT_HALF","tensorShape":{"dim":[{"size":"1"},{"size":"1"},{"size":"872"},{"size":"72"}]}}}}},
          {"name":"StatefulPartitionedCall/GhostNet/conv2d_34/Conv2D_bn_offset","op":"Const","attr":{"dtype":{"type":"DT_FLOAT"},"value":{"tensor":{"dtype":"DT_FLOAT","tensorShape":{"dim":[{"size":"72"}]}}}}},
          {"name":"StatefulPartitionedCall/GhostNet/depthwise_conv2d_28/depthwise_weights","op":"Const","attr":{"value":{"tensor":{"dtype":"DT_HALF","tensorShape":{"dim":[{"size":"3"},{"size":"3"},{"size":"72"},{"size":"1"}]}}},"dtype":{"type":"DT_HALF"}}},
          {"name":"StatefulPartitionedCall/GhostNet/depthwise_conv2d_28/depthwise_bn_offset","op":"Const","attr":{"value":{"tensor":{"dtype":"DT_FLOAT","tensorShape":{"dim":[{"size":"72"}]}}},"dtype":{"type":"DT_FLOAT"}}},
          {"name":"StatefulPartitionedCall/GhostNet/depthwise_conv2d_32/depthwise_weights","op":"Const","attr":{"dtype":{"type":"DT_HALF"},"value":{"tensor":{"dtype":"DT_HALF","tensorShape":{"dim":[{"size":"5"},{"size":"5"},{"size":"144"},{"size":"1"}]}}}}},
          {"name":"StatefulPartitionedCall/GhostNet/depthwise_conv2d_32/depthwise_bn_offset","op":"Const","attr":{"value":{"tensor":{"dtype":"DT_FLOAT","tensorShape":{"dim":[{"size":"144"}]}}},"dtype":{"type":"DT_FLOAT"}}},
          {"name":"StatefulPartitionedCall/GhostNet/conv2d_35/Conv2D_weights","op":"Const","attr":{"value":{"tensor":{"dtype":"DT_HALF","tensorShape":{"dim":[{"size":"1"},{"size":"1"},{"size":"144"},{"size":"436"}]}}},"dtype":{"type":"DT_HALF"}}},
          {"name":"StatefulPartitionedCall/GhostNet/conv2d_35/Conv2D_bn_offset","op":"Const","attr":{"value":{"tensor":{"dtype":"DT_FLOAT","tensorShape":{"dim":[{"size":"436"}]}}},"dtype":{"type":"DT_FLOAT"}}},
          {"name":"StatefulPartitionedCall/GhostNet/conv2d_39/Conv2D_weights","op":"Const","attr":{"value":{"tensor":{"dtype":"DT_HALF","tensorShape":{"dim":[{"size":"1"},{"size":"1"},{"size":"144"},{"size":"208"}]}}},"dtype":{"type":"DT_HALF"}}},
          {"name":"StatefulPartitionedCall/GhostNet/conv2d_39/Conv2D_bn_offset","op":"Const","attr":{"value":{"tensor":{"dtype":"DT_FLOAT","tensorShape":{"dim":[{"size":"208"}]}}},"dtype":{"type":"DT_FLOAT"}}},
          {"name":"StatefulPartitionedCall/GhostNet/depthwise_conv2d_29/depthwise_weights","op":"Const","attr":{"dtype":{"type":"DT_HALF"},"value":{"tensor":{"dtype":"DT_HALF","tensorShape":{"dim":[{"size":"3"},{"size":"3"},{"size":"436"},{"size":"1"}]}}}}},
          {"name":"StatefulPartitionedCall/GhostNet/depthwise_conv2d_29/depthwise_bn_offset","op":"Const","attr":{"dtype":{"type":"DT_FLOAT"},"value":{"tensor":{"dtype":"DT_FLOAT","tensorShape":{"dim":[{"size":"436"}]}}}}},
          {"name":"StatefulPartitionedCall/GhostNet/depthwise_conv2d_30/depthwise_weights","op":"Const","attr":{"value":{"tensor":{"dtype":"DT_HALF","tensorShape":{"dim":[{"size":"5"},{"size":"5"},{"size":"872"},{"size":"1"}]}}},"dtype":{"type":"DT_HALF"}}},
          {"name":"StatefulPartitionedCall/GhostNet/depthwise_conv2d_30/depthwise_bn_offset","op":"Const","attr":{"value":{"tensor":{"dtype":"DT_FLOAT","tensorShape":{"dim":[{"size":"872"}]}}},"dtype":{"type":"DT_FLOAT"}}},
          {"name":"StatefulPartitionedCall/GhostNet/conv2d_38/Conv2D_weights","op":"Const","attr":{"value":{"tensor":{"dtype":"DT_HALF","tensorShape":{"dim":[{"size":"1"},{"size":"1"},{"size":"872"},{"size":"104"}]}}},"dtype":{"type":"DT_HALF"}}},
          {"name":"StatefulPartitionedCall/GhostNet/conv2d_38/Conv2D_bn_offset","op":"Const","attr":{"dtype":{"type":"DT_FLOAT"},"value":{"tensor":{"dtype":"DT_FLOAT","tensorShape":{"dim":[{"size":"104"}]}}}}},
          {"name":"StatefulPartitionedCall/GhostNet/depthwise_conv2d_31/depthwise_weights","op":"Const","attr":{"dtype":{"type":"DT_HALF"},"value":{"tensor":{"dtype":"DT_HALF","tensorShape":{"dim":[{"size":"3"},{"size":"3"},{"size":"104"},{"size":"1"}]}}}}},
          {"name":"StatefulPartitionedCall/GhostNet/depthwise_conv2d_31/depthwise_bn_offset","op":"Const","attr":{"value":{"tensor":{"dtype":"DT_FLOAT","tensorShape":{"dim":[{"size":"104"}]}}},"dtype":{"type":"DT_FLOAT"}}},
          {"name":"StatefulPartitionedCall/GhostNet/conv2d_40/Conv2D_weights","op":"Const","attr":{"value":{"tensor":{"dtype":"DT_HALF","tensorShape":{"dim":[{"size":"1"},{"size":"1"},{"size":"208"},{"size":"624"}]}}},"dtype":{"type":"DT_HALF"}}},
          {"name":"StatefulPartitionedCall/GhostNet/conv2d_40/Conv2D_bn_offset","op":"Const","attr":{"value":{"tensor":{"dtype":"DT_FLOAT","tensorShape":{"dim":[{"size":"624"}]}}},"dtype":{"type":"DT_FLOAT"}}},
          {"name":"StatefulPartitionedCall/GhostNet/depthwise_conv2d_33/depthwise_weights","op":"Const","attr":{"value":{"tensor":{"dtype":"DT_HALF","tensorShape":{"dim":[{"size":"3"},{"size":"3"},{"size":"624"},{"size":"1"}]}}},"dtype":{"type":"DT_HALF"}}},
          {"name":"StatefulPartitionedCall/GhostNet/depthwise_conv2d_33/depthwise_bn_offset","op":"Const","attr":{"dtype":{"type":"DT_FLOAT"},"value":{"tensor":{"dtype":"DT_FLOAT","tensorShape":{"dim":[{"size":"624"}]}}}}},
          {"name":"StatefulPartitionedCall/GhostNet/conv2d_41/Conv2D_weights","op":"Const","attr":{"value":{"tensor":{"dtype":"DT_HALF","tensorShape":{"dim":[{"size":"1"},{"size":"1"},{"size":"1248"},{"size":"104"}]}}},"dtype":{"type":"DT_HALF"}}},
          {"name":"StatefulPartitionedCall/GhostNet/conv2d_41/Conv2D_bn_offset","op":"Const","attr":{"value":{"tensor":{"dtype":"DT_FLOAT","tensorShape":{"dim":[{"size":"104"}]}}},"dtype":{"type":"DT_FLOAT"}}},
          {"name":"StatefulPartitionedCall/GhostNet/depthwise_conv2d_34/depthwise_weights","op":"Const","attr":{"value":{"tensor":{"dtype":"DT_HALF","tensorShape":{"dim":[{"size":"3"},{"size":"3"},{"size":"104"},{"size":"1"}]}}},"dtype":{"type":"DT_HALF"}}},
          {"name":"StatefulPartitionedCall/GhostNet/depthwise_conv2d_34/depthwise_bn_offset","op":"Const","attr":{"dtype":{"type":"DT_FLOAT"},"value":{"tensor":{"dtype":"DT_FLOAT","tensorShape":{"dim":[{"size":"104"}]}}}}},
          {"name":"StatefulPartitionedCall/GhostNet/conv2d_42/Conv2D_weights","op":"Const","attr":{"value":{"tensor":{"dtype":"DT_HALF","tensorShape":{"dim":[{"size":"1"},{"size":"1"},{"size":"208"},{"size":"624"}]}}},"dtype":{"type":"DT_HALF"}}},
          {"name":"StatefulPartitionedCall/GhostNet/conv2d_42/Conv2D_bn_offset","op":"Const","attr":{"dtype":{"type":"DT_FLOAT"},"value":{"tensor":{"dtype":"DT_FLOAT","tensorShape":{"dim":[{"size":"624"}]}}}}},
          {"name":"StatefulPartitionedCall/GhostNet/depthwise_conv2d_35/depthwise_weights","op":"Const","attr":{"dtype":{"type":"DT_HALF"},"value":{"tensor":{"dtype":"DT_HALF","tensorShape":{"dim":[{"size":"3"},{"size":"3"},{"size":"624"},{"size":"1"}]}}}}},
          {"name":"StatefulPartitionedCall/GhostNet/depthwise_conv2d_35/depthwise_bn_offset","op":"Const","attr":{"value":{"tensor":{"dtype":"DT_FLOAT","tensorShape":{"dim":[{"size":"624"}]}}},"dtype":{"type":"DT_FLOAT"}}},
          {"name":"StatefulPartitionedCall/GhostNet/conv2d_45/Conv2D_weights","op":"Const","attr":{"value":{"tensor":{"dtype":"DT_HALF","tensorShape":{"dim":[{"size":"1"},{"size":"1"},{"size":"1248"},{"size":"104"}]}}},"dtype":{"type":"DT_HALF"}}},
          {"name":"StatefulPartitionedCall/GhostNet/conv2d_45/Conv2D_bn_offset","op":"Const","attr":{"value":{"tensor":{"dtype":"DT_FLOAT","tensorShape":{"dim":[{"size":"104"}]}}},"dtype":{"type":"DT_FLOAT"}}},
          {"name":"StatefulPartitionedCall/GhostNet/depthwise_conv2d_36/depthwise_weights","op":"Const","attr":{"dtype":{"type":"DT_HALF"},"value":{"tensor":{"dtype":"DT_HALF","tensorShape":{"dim":[{"size":"3"},{"size":"3"},{"size":"104"},{"size":"1"}]}}}}},
          {"name":"StatefulPartitionedCall/GhostNet/depthwise_conv2d_36/depthwise_bn_offset","op":"Const","attr":{"dtype":{"type":"DT_FLOAT"},"value":{"tensor":{"dtype":"DT_FLOAT","tensorShape":{"dim":[{"size":"104"}]}}}}},
          {"name":"StatefulPartitionedCall/GhostNet/conv2d_46/Conv2D_weights","op":"Const","attr":{"value":{"tensor":{"dtype":"DT_HALF","tensorShape":{"dim":[{"size":"1"},{"size":"1"},{"size":"208"},{"size":"624"}]}}},"dtype":{"type":"DT_HALF"}}},
          {"name":"StatefulPartitionedCall/GhostNet/conv2d_46/Conv2D_bn_offset","op":"Const","attr":{"value":{"tensor":{"dtype":"DT_FLOAT","tensorShape":{"dim":[{"size":"624"}]}}},"dtype":{"type":"DT_FLOAT"}}},
          {"name":"StatefulPartitionedCall/GhostNet/depthwise_conv2d_37/depthwise_weights","op":"Const","attr":{"value":{"tensor":{"dtype":"DT_HALF","tensorShape":{"dim":[{"size":"3"},{"size":"3"},{"size":"624"},{"size":"1"}]}}},"dtype":{"type":"DT_HALF"}}},
          {"name":"StatefulPartitionedCall/GhostNet/depthwise_conv2d_37/depthwise_bn_offset","op":"Const","attr":{"value":{"tensor":{"dtype":"DT_FLOAT","tensorShape":{"dim":[{"size":"624"}]}}},"dtype":{"type":"DT_FLOAT"}}},
          {"name":"StatefulPartitionedCall/GhostNet/conv2d_47/Conv2D_weights","op":"Const","attr":{"dtype":{"type":"DT_HALF"},"value":{"tensor":{"dtype":"DT_HALF","tensorShape":{"dim":[{"size":"1"},{"size":"1"},{"size":"1248"},{"size":"104"}]}}}}},
          {"name":"StatefulPartitionedCall/GhostNet/conv2d_47/Conv2D_bn_offset","op":"Const","attr":{"dtype":{"type":"DT_FLOAT"},"value":{"tensor":{"dtype":"DT_FLOAT","tensorShape":{"dim":[{"size":"104"}]}}}}},
          {"name":"StatefulPartitionedCall/GhostNet/depthwise_conv2d_38/depthwise_weights","op":"Const","attr":{"value":{"tensor":{"dtype":"DT_HALF","tensorShape":{"dim":[{"size":"3"},{"size":"3"},{"size":"104"},{"size":"1"}]}}},"dtype":{"type":"DT_HALF"}}},
          {"name":"StatefulPartitionedCall/GhostNet/depthwise_conv2d_38/depthwise_bn_offset","op":"Const","attr":{"dtype":{"type":"DT_FLOAT"},"value":{"tensor":{"dtype":"DT_FLOAT","tensorShape":{"dim":[{"size":"104"}]}}}}},
          {"name":"StatefulPartitionedCall/GhostNet/conv2d_48/Conv2D_weights","op":"Const","attr":{"dtype":{"type":"DT_HALF"},"value":{"tensor":{"dtype":"DT_HALF","tensorShape":{"dim":[{"size":"1"},{"size":"1"},{"size":"208"},{"size":"332"}]}}}}},
          {"name":"StatefulPartitionedCall/GhostNet/conv2d_48/Conv2D_bn_offset","op":"Const","attr":{"dtype":{"type":"DT_FLOAT"},"value":{"tensor":{"dtype":"DT_FLOAT","tensorShape":{"dim":[{"size":"332"}]}}}}},
          {"name":"StatefulPartitionedCall/GhostNet/depthwise_conv2d_39/depthwise_weights","op":"Const","attr":{"dtype":{"type":"DT_HALF"},"value":{"tensor":{"dtype":"DT_HALF","tensorShape":{"dim":[{"size":"3"},{"size":"3"},{"size":"332"},{"size":"1"}]}}}}},
          {"name":"StatefulPartitionedCall/GhostNet/depthwise_conv2d_39/depthwise_bn_offset","op":"Const","attr":{"dtype":{"type":"DT_FLOAT"},"value":{"tensor":{"dtype":"DT_FLOAT","tensorShape":{"dim":[{"size":"332"}]}}}}},
          {"name":"StatefulPartitionedCall/GhostNet/conv2d_51/Conv2D_weights","op":"Const","attr":{"value":{"tensor":{"dtype":"DT_HALF","tensorShape":{"dim":[{"size":"1"},{"size":"1"},{"size":"664"},{"size":"104"}]}}},"dtype":{"type":"DT_HALF"}}},
          {"name":"StatefulPartitionedCall/GhostNet/conv2d_51/Conv2D_bn_offset","op":"Const","attr":{"dtype":{"type":"DT_FLOAT"},"value":{"tensor":{"dtype":"DT_FLOAT","tensorShape":{"dim":[{"size":"104"}]}}}}},
          {"name":"StatefulPartitionedCall/GhostNet/depthwise_conv2d_40/depthwise_weights","op":"Const","attr":{"dtype":{"type":"DT_HALF"},"value":{"tensor":{"dtype":"DT_HALF","tensorShape":{"dim":[{"size":"3"},{"size":"3"},{"size":"104"},{"size":"1"}]}}}}},
          {"name":"StatefulPartitionedCall/GhostNet/depthwise_conv2d_40/depthwise_bn_offset","op":"Const","attr":{"value":{"tensor":{"dtype":"DT_FLOAT","tensorShape":{"dim":[{"size":"104"}]}}},"dtype":{"type":"DT_FLOAT"}}},
          {"name":"StatefulPartitionedCall/GhostNet/conv2d_52/Conv2D_weights","op":"Const","attr":{"dtype":{"type":"DT_HALF"},"value":{"tensor":{"dtype":"DT_HALF","tensorShape":{"dim":[{"size":"1"},{"size":"1"},{"size":"208"},{"size":"664"}]}}}}},
          {"name":"StatefulPartitionedCall/GhostNet/conv2d_52/Conv2D_bn_offset","op":"Const","attr":{"dtype":{"type":"DT_FLOAT"},"value":{"tensor":{"dtype":"DT_FLOAT","tensorShape":{"dim":[{"size":"664"}]}}}}},
          {"name":"StatefulPartitionedCall/GhostNet/depthwise_conv2d_41/depthwise_weights","op":"Const","attr":{"value":{"tensor":{"dtype":"DT_HALF","tensorShape":{"dim":[{"size":"7"},{"size":"7"},{"size":"664"},{"size":"1"}]}}},"dtype":{"type":"DT_HALF"}}},
          {"name":"StatefulPartitionedCall/GhostNet/depthwise_conv2d_41/depthwise_bn_offset","op":"Const","attr":{"value":{"tensor":{"dtype":"DT_FLOAT","tensorShape":{"dim":[{"size":"664"}]}}},"dtype":{"type":"DT_FLOAT"}}},
          {"name":"StatefulPartitionedCall/GhostNet/conv2d/Cast","op":"Cast","input":["input_1"],"attr":{"Truncate":{"b":false},"SrcT":{"type":"DT_FLOAT"},"DstT":{"type":"DT_HALF"}}},
          {"name":"StatefulPartitionedCall/GhostNet/conv2d/Conv2D","op":"Conv2D","input":["StatefulPartitionedCall/GhostNet/conv2d/Cast","StatefulPartitionedCall/GhostNet/conv2d/Conv2D_weights"],"device":"/device:CPU:0","attr":{"use_cudnn_on_gpu":{"b":true},"dilations":{"list":{"i":["1","1","1","1"]}},"data_format":{"s":"TkhXQw=="},"T":{"type":"DT_HALF"},"strides":{"list":{"i":["1","1","1","1"]}},"explicit_paddings":{"list":{}},"padding":{"s":"U0FNRQ=="}}},
          {"name":"StatefulPartitionedCall/GhostNet/batch_normalization/FusedBatchNormV3","op":"BiasAdd","input":["StatefulPartitionedCall/GhostNet/conv2d/Conv2D","StatefulPartitionedCall/GhostNet/conv2d/Conv2D_bn_offset"],"attr":{"T":{"type":"DT_HALF"},"data_format":{"s":"TkhXQw=="}}},
          {"name":"StatefulPartitionedCall/GhostNet/activation/Relu","op":"Prelu","input":["StatefulPartitionedCall/GhostNet/batch_normalization/FusedBatchNormV3","StatefulPartitionedCall/GhostNet/activation/Neg"]},
          {"name":"StatefulPartitionedCall/GhostNet/conv2d_1/Conv2D","op":"Conv2D","input":["StatefulPartitionedCall/GhostNet/activation/Relu","StatefulPartitionedCall/GhostNet/conv2d_1/Conv2D_weights"],"device":"/device:CPU:0","attr":{"use_cudnn_on_gpu":{"b":true},"strides":{"list":{"i":["1","1","1","1"]}},"explicit_paddings":{"list":{}},"dilations":{"list":{"i":["1","1","1","1"]}},"T":{"type":"DT_HALF"},"data_format":{"s":"TkhXQw=="},"padding":{"s":"U0FNRQ=="}}},
          {"name":"StatefulPartitionedCall/GhostNet/batch_normalization_1/FusedBatchNormV3","op":"BiasAdd","input":["StatefulPartitionedCall/GhostNet/conv2d_1/Conv2D","StatefulPartitionedCall/GhostNet/conv2d_1/Conv2D_bn_offset"],"attr":{"T":{"type":"DT_HALF"},"data_format":{"s":"TkhXQw=="}}},
          {"name":"StatefulPartitionedCall/GhostNet/activation_1/Relu","op":"Prelu","input":["StatefulPartitionedCall/GhostNet/batch_normalization_1/FusedBatchNormV3","StatefulPartitionedCall/GhostNet/activation_1/Neg"]},
          {"name":"StatefulPartitionedCall/GhostNet/depthwise_conv2d/depthwise","op":"FusedDepthwiseConv2dNative","input":["StatefulPartitionedCall/GhostNet/activation_1/Relu","StatefulPartitionedCall/GhostNet/depthwise_conv2d/depthwise_weights","StatefulPartitionedCall/GhostNet/depthwise_conv2d/depthwise_bn_offset","StatefulPartitionedCall/GhostNet/activation_2/Neg"],"attr":{"dilations":{"list":{"i":["1","1","1","1"]}},"num_args":{"i":"2"},"explicit_paddings":{"list":{}},"strides":{"list":{"i":["1","1","1","1"]}},"T":{"type":"DT_HALF"},"padding":{"s":"U0FNRQ=="},"data_format":{"s":"TkhXQw=="},"fused_ops":{"list":{"s":["Qmlhc0FkZA==","UHJlbHU="]}}}},
          {"name":"StatefulPartitionedCall/GhostNet/concatenate/concat","op":"ConcatV2","input":["StatefulPartitionedCall/GhostNet/activation_1/Relu","StatefulPartitionedCall/GhostNet/depthwise_conv2d/depthwise","StatefulPartitionedCall/GhostNet/concatenate/concat/axis"],"attr":{"N":{"i":"2"},"T":{"type":"DT_HALF"},"Tidx":{"type":"DT_INT32"}}},
          {"name":"StatefulPartitionedCall/GhostNet/conv2d_2/Conv2D","op":"Conv2D","input":["StatefulPartitionedCall/GhostNet/concatenate/concat","StatefulPartitionedCall/GhostNet/conv2d_2/Conv2D_weights"],"device":"/device:CPU:0","attr":{"data_format":{"s":"TkhXQw=="},"strides":{"list":{"i":["1","1","1","1"]}},"padding":{"s":"U0FNRQ=="},"explicit_paddings":{"list":{}},"use_cudnn_on_gpu":{"b":true},"dilations":{"list":{"i":["1","1","1","1"]}},"T":{"type":"DT_HALF"}}},
          {"name":"StatefulPartitionedCall/GhostNet/batch_normalization_3/FusedBatchNormV3","op":"BiasAdd","input":["StatefulPartitionedCall/GhostNet/conv2d_2/Conv2D","StatefulPartitionedCall/GhostNet/conv2d_2/Conv2D_bn_offset"],"attr":{"T":{"type":"DT_HALF"},"data_format":{"s":"TkhXQw=="}}},
          {"name":"StatefulPartitionedCall/GhostNet/depthwise_conv2d_1/depthwise","op":"FusedDepthwiseConv2dNative","input":["StatefulPartitionedCall/GhostNet/batch_normalization_3/FusedBatchNormV3","StatefulPartitionedCall/GhostNet/depthwise_conv2d_1/depthwise_weights","StatefulPartitionedCall/GhostNet/depthwise_conv2d_1/depthwise_bn_offset"],"attr":{"strides":{"list":{"i":["1","1","1","1"]}},"explicit_paddings":{"list":{}},"fused_ops":{"list":{"s":["Qmlhc0FkZA=="]}},"padding":{"s":"U0FNRQ=="},"T":{"type":"DT_HALF"},"dilations":{"list":{"i":["1","1","1","1"]}},"num_args":{"i":"1"},"data_format":{"s":"TkhXQw=="}}},
          {"name":"StatefulPartitionedCall/GhostNet/concatenate_1/concat","op":"ConcatV2","input":["StatefulPartitionedCall/GhostNet/batch_normalization_3/FusedBatchNormV3","StatefulPartitionedCall/GhostNet/depthwise_conv2d_1/depthwise","StatefulPartitionedCall/GhostNet/concatenate_1/concat/axis"],"attr":{"T":{"type":"DT_HALF"},"N":{"i":"2"},"Tidx":{"type":"DT_INT32"}}},
          {"name":"StatefulPartitionedCall/GhostNet/add/add","op":"AddV2","input":["StatefulPartitionedCall/GhostNet/activation/Relu","StatefulPartitionedCall/GhostNet/concatenate_1/concat"],"attr":{"T":{"type":"DT_HALF"}}},
          {"name":"StatefulPartitionedCall/GhostNet/depthwise_conv2d_5/depthwise","op":"FusedDepthwiseConv2dNative","input":["StatefulPartitionedCall/GhostNet/add/add","StatefulPartitionedCall/GhostNet/depthwise_conv2d_5/depthwise_weights","StatefulPartitionedCall/GhostNet/depthwise_conv2d_5/depthwise_bn_offset"],"attr":{"T":{"type":"DT_HALF"},"num_args":{"i":"1"},"data_format":{"s":"TkhXQw=="},"padding":{"s":"U0FNRQ=="},"strides":{"list":{"i":["1","2","2","1"]}},"fused_ops":{"list":{"s":["Qmlhc0FkZA=="]}},"dilations":{"list":{"i":["1","1","1","1"]}},"explicit_paddings":{"list":{}}}},
          {"name":"StatefulPartitionedCall/GhostNet/conv2d_3/Conv2D","op":"Conv2D","input":["StatefulPartitionedCall/GhostNet/add/add","StatefulPartitionedCall/GhostNet/conv2d_3/Conv2D_weights"],"device":"/device:CPU:0","attr":{"explicit_paddings":{"list":{}},"dilations":{"list":{"i":["1","1","1","1"]}},"padding":{"s":"U0FNRQ=="},"strides":{"list":{"i":["1","1","1","1"]}},"data_format":{"s":"TkhXQw=="},"T":{"type":"DT_HALF"},"use_cudnn_on_gpu":{"b":true}}},
          {"name":"StatefulPartitionedCall/GhostNet/batch_normalization_5/FusedBatchNormV3","op":"BiasAdd","input":["StatefulPartitionedCall/GhostNet/conv2d_3/Conv2D","StatefulPartitionedCall/GhostNet/conv2d_3/Conv2D_bn_offset"],"attr":{"T":{"type":"DT_HALF"},"data_format":{"s":"TkhXQw=="}}},
          {"name":"StatefulPartitionedCall/GhostNet/conv2d_5/Conv2D","op":"Conv2D","input":["StatefulPartitionedCall/GhostNet/depthwise_conv2d_5/depthwise","StatefulPartitionedCall/GhostNet/conv2d_5/Conv2D_weights"],"device":"/device:CPU:0","attr":{"explicit_paddings":{"list":{}},"strides":{"list":{"i":["1","1","1","1"]}},"dilations":{"list":{"i":["1","1","1","1"]}},"data_format":{"s":"TkhXQw=="},"padding":{"s":"VkFMSUQ="},"T":{"type":"DT_HALF"},"use_cudnn_on_gpu":{"b":true}}},
          {"name":"StatefulPartitionedCall/GhostNet/activation_3/Relu","op":"Prelu","input":["StatefulPartitionedCall/GhostNet/batch_normalization_5/FusedBatchNormV3","StatefulPartitionedCall/GhostNet/activation_3/Neg"]},
          {"name":"StatefulPartitionedCall/GhostNet/batch_normalization_11/FusedBatchNormV3","op":"BiasAdd","input":["StatefulPartitionedCall/GhostNet/conv2d_5/Conv2D","StatefulPartitionedCall/GhostNet/conv2d_5/Conv2D_bn_offset"],"attr":{"data_format":{"s":"TkhXQw=="},"T":{"type":"DT_HALF"}}},
          {"name":"StatefulPartitionedCall/GhostNet/depthwise_conv2d_2/depthwise","op":"FusedDepthwiseConv2dNative","input":["StatefulPartitionedCall/GhostNet/activation_3/Relu","StatefulPartitionedCall/GhostNet/depthwise_conv2d_2/depthwise_weights","StatefulPartitionedCall/GhostNet/depthwise_conv2d_2/depthwise_bn_offset","StatefulPartitionedCall/GhostNet/activation_4/Neg"],"attr":{"T":{"type":"DT_HALF"},"dilations":{"list":{"i":["1","1","1","1"]}},"fused_ops":{"list":{"s":["Qmlhc0FkZA==","UHJlbHU="]}},"num_args":{"i":"2"},"padding":{"s":"U0FNRQ=="},"strides":{"list":{"i":["1","1","1","1"]}},"explicit_paddings":{"list":{}},"data_format":{"s":"TkhXQw=="}}},
          {"name":"StatefulPartitionedCall/GhostNet/concatenate_2/concat","op":"ConcatV2","input":["StatefulPartitionedCall/GhostNet/activation_3/Relu","StatefulPartitionedCall/GhostNet/depthwise_conv2d_2/depthwise","StatefulPartitionedCall/GhostNet/concatenate_2/concat/axis"],"attr":{"N":{"i":"2"},"Tidx":{"type":"DT_INT32"},"T":{"type":"DT_HALF"}}},
          {"name":"StatefulPartitionedCall/GhostNet/depthwise_conv2d_3/depthwise","op":"FusedDepthwiseConv2dNative","input":["StatefulPartitionedCall/GhostNet/concatenate_2/concat","StatefulPartitionedCall/GhostNet/depthwise_conv2d_3/depthwise_weights","StatefulPartitionedCall/GhostNet/depthwise_conv2d_3/depthwise_bn_offset"],"attr":{"explicit_paddings":{"list":{}},"T":{"type":"DT_HALF"},"strides":{"list":{"i":["1","2","2","1"]}},"dilations":{"list":{"i":["1","1","1","1"]}},"num_args":{"i":"1"},"padding":{"s":"U0FNRQ=="},"fused_ops":{"list":{"s":["Qmlhc0FkZA=="]}},"data_format":{"s":"TkhXQw=="}}},
          {"name":"StatefulPartitionedCall/GhostNet/conv2d_4/Conv2D","op":"Conv2D","input":["StatefulPartitionedCall/GhostNet/depthwise_conv2d_3/depthwise","StatefulPartitionedCall/GhostNet/conv2d_4/Conv2D_weights"],"device":"/device:CPU:0","attr":{"explicit_paddings":{"list":{}},"padding":{"s":"U0FNRQ=="},"data_format":{"s":"TkhXQw=="},"use_cudnn_on_gpu":{"b":true},"dilations":{"list":{"i":["1","1","1","1"]}},"T":{"type":"DT_HALF"},"strides":{"list":{"i":["1","1","1","1"]}}}},
          {"name":"StatefulPartitionedCall/GhostNet/batch_normalization_8/FusedBatchNormV3","op":"BiasAdd","input":["StatefulPartitionedCall/GhostNet/conv2d_4/Conv2D","StatefulPartitionedCall/GhostNet/conv2d_4/Conv2D_bn_offset"],"attr":{"T":{"type":"DT_HALF"},"data_format":{"s":"TkhXQw=="}}},
          {"name":"StatefulPartitionedCall/GhostNet/depthwise_conv2d_4/depthwise","op":"FusedDepthwiseConv2dNative","input":["StatefulPartitionedCall/GhostNet/batch_normalization_8/FusedBatchNormV3","StatefulPartitionedCall/GhostNet/depthwise_conv2d_4/depthwise_weights","StatefulPartitionedCall/GhostNet/depthwise_conv2d_4/depthwise_bn_offset"],"attr":{"T":{"type":"DT_HALF"},"fused_ops":{"list":{"s":["Qmlhc0FkZA=="]}},"num_args":{"i":"1"},"padding":{"s":"U0FNRQ=="},"dilations":{"list":{"i":["1","1","1","1"]}},"data_format":{"s":"TkhXQw=="},"explicit_paddings":{"list":{}},"strides":{"list":{"i":["1","1","1","1"]}}}},
          {"name":"StatefulPartitionedCall/GhostNet/concatenate_3/concat","op":"ConcatV2","input":["StatefulPartitionedCall/GhostNet/batch_normalization_8/FusedBatchNormV3","StatefulPartitionedCall/GhostNet/depthwise_conv2d_4/depthwise","StatefulPartitionedCall/GhostNet/concatenate_3/concat/axis"],"attr":{"Tidx":{"type":"DT_INT32"},"T":{"type":"DT_HALF"},"N":{"i":"2"}}},
          {"name":"StatefulPartitionedCall/GhostNet/add_1/add","op":"AddV2","input":["StatefulPartitionedCall/GhostNet/batch_normalization_11/FusedBatchNormV3","StatefulPartitionedCall/GhostNet/concatenate_3/concat"],"attr":{"T":{"type":"DT_HALF"}}},
          {"name":"StatefulPartitionedCall/GhostNet/conv2d_6/Conv2D","op":"Conv2D","input":["StatefulPartitionedCall/GhostNet/add_1/add","StatefulPartitionedCall/GhostNet/conv2d_6/Conv2D_weights"],"device":"/device:CPU:0","attr":{"explicit_paddings":{"list":{}},"strides":{"list":{"i":["1","1","1","1"]}},"T":{"type":"DT_HALF"},"padding":{"s":"U0FNRQ=="},"dilations":{"list":{"i":["1","1","1","1"]}},"use_cudnn_on_gpu":{"b":true},"data_format":{"s":"TkhXQw=="}}},
          {"name":"StatefulPartitionedCall/GhostNet/batch_normalization_12/FusedBatchNormV3","op":"BiasAdd","input":["StatefulPartitionedCall/GhostNet/conv2d_6/Conv2D","StatefulPartitionedCall/GhostNet/conv2d_6/Conv2D_bn_offset"],"attr":{"data_format":{"s":"TkhXQw=="},"T":{"type":"DT_HALF"}}},
          {"name":"StatefulPartitionedCall/GhostNet/activation_5/Relu","op":"Prelu","input":["StatefulPartitionedCall/GhostNet/batch_normalization_12/FusedBatchNormV3","StatefulPartitionedCall/GhostNet/activation_5/Neg"]},
          {"name":"StatefulPartitionedCall/GhostNet/depthwise_conv2d_6/depthwise","op":"FusedDepthwiseConv2dNative","input":["StatefulPartitionedCall/GhostNet/activation_5/Relu","StatefulPartitionedCall/GhostNet/depthwise_conv2d_6/depthwise_weights","StatefulPartitionedCall/GhostNet/depthwise_conv2d_6/depthwise_bn_offset","StatefulPartitionedCall/GhostNet/activation_6/Neg"],"attr":{"fused_ops":{"list":{"s":["Qmlhc0FkZA==","UHJlbHU="]}},"dilations":{"list":{"i":["1","1","1","1"]}},"data_format":{"s":"TkhXQw=="},"T":{"type":"DT_HALF"},"strides":{"list":{"i":["1","1","1","1"]}},"explicit_paddings":{"list":{}},"num_args":{"i":"2"},"padding":{"s":"U0FNRQ=="}}},
          {"name":"StatefulPartitionedCall/GhostNet/concatenate_4/concat","op":"ConcatV2","input":["StatefulPartitionedCall/GhostNet/activation_5/Relu","StatefulPartitionedCall/GhostNet/depthwise_conv2d_6/depthwise","StatefulPartitionedCall/GhostNet/concatenate_4/concat/axis"],"attr":{"T":{"type":"DT_HALF"},"Tidx":{"type":"DT_INT32"},"N":{"i":"2"}}},
          {"name":"StatefulPartitionedCall/GhostNet/conv2d_7/Conv2D","op":"Conv2D","input":["StatefulPartitionedCall/GhostNet/concatenate_4/concat","StatefulPartitionedCall/GhostNet/conv2d_7/Conv2D_weights"],"device":"/device:CPU:0","attr":{"dilations":{"list":{"i":["1","1","1","1"]}},"padding":{"s":"U0FNRQ=="},"strides":{"list":{"i":["1","1","1","1"]}},"explicit_paddings":{"list":{}},"data_format":{"s":"TkhXQw=="},"T":{"type":"DT_HALF"},"use_cudnn_on_gpu":{"b":true}}},
          {"name":"StatefulPartitionedCall/GhostNet/batch_normalization_14/FusedBatchNormV3","op":"BiasAdd","input":["StatefulPartitionedCall/GhostNet/conv2d_7/Conv2D","StatefulPartitionedCall/GhostNet/conv2d_7/Conv2D_bn_offset"],"attr":{"T":{"type":"DT_HALF"},"data_format":{"s":"TkhXQw=="}}},
          {"name":"StatefulPartitionedCall/GhostNet/depthwise_conv2d_7/depthwise","op":"FusedDepthwiseConv2dNative","input":["StatefulPartitionedCall/GhostNet/batch_normalization_14/FusedBatchNormV3","StatefulPartitionedCall/GhostNet/depthwise_conv2d_7/depthwise_weights","StatefulPartitionedCall/GhostNet/depthwise_conv2d_7/depthwise_bn_offset"],"attr":{"padding":{"s":"U0FNRQ=="},"explicit_paddings":{"list":{}},"T":{"type":"DT_HALF"},"num_args":{"i":"1"},"data_format":{"s":"TkhXQw=="},"dilations":{"list":{"i":["1","1","1","1"]}},"strides":{"list":{"i":["1","1","1","1"]}},"fused_ops":{"list":{"s":["Qmlhc0FkZA=="]}}}},
          {"name":"StatefulPartitionedCall/GhostNet/concatenate_5/concat","op":"ConcatV2","input":["StatefulPartitionedCall/GhostNet/batch_normalization_14/FusedBatchNormV3","StatefulPartitionedCall/GhostNet/depthwise_conv2d_7/depthwise","StatefulPartitionedCall/GhostNet/concatenate_5/concat/axis"],"attr":{"N":{"i":"2"},"T":{"type":"DT_HALF"},"Tidx":{"type":"DT_INT32"}}},
          {"name":"StatefulPartitionedCall/GhostNet/add_2/add","op":"AddV2","input":["StatefulPartitionedCall/GhostNet/add_1/add","StatefulPartitionedCall/GhostNet/concatenate_5/concat"],"attr":{"T":{"type":"DT_HALF"}}},
          {"name":"StatefulPartitionedCall/GhostNet/depthwise_conv2d_11/depthwise","op":"FusedDepthwiseConv2dNative","input":["StatefulPartitionedCall/GhostNet/add_2/add","StatefulPartitionedCall/GhostNet/depthwise_conv2d_11/depthwise_weights","StatefulPartitionedCall/GhostNet/depthwise_conv2d_11/depthwise_bn_offset"],"attr":{"T":{"type":"DT_HALF"},"strides":{"list":{"i":["1","2","2","1"]}},"dilations":{"list":{"i":["1","1","1","1"]}},"num_args":{"i":"1"},"fused_ops":{"list":{"s":["Qmlhc0FkZA=="]}},"explicit_paddings":{"list":{}},"padding":{"s":"U0FNRQ=="},"data_format":{"s":"TkhXQw=="}}},
          {"name":"StatefulPartitionedCall/GhostNet/conv2d_8/Conv2D","op":"Conv2D","input":["StatefulPartitionedCall/GhostNet/add_2/add","StatefulPartitionedCall/GhostNet/conv2d_8/Conv2D_weights"],"device":"/device:CPU:0","attr":{"use_cudnn_on_gpu":{"b":true},"data_format":{"s":"TkhXQw=="},"T":{"type":"DT_HALF"},"explicit_paddings":{"list":{}},"dilations":{"list":{"i":["1","1","1","1"]}},"padding":{"s":"U0FNRQ=="},"strides":{"list":{"i":["1","1","1","1"]}}}},
          {"name":"StatefulPartitionedCall/GhostNet/batch_normalization_16/FusedBatchNormV3","op":"BiasAdd","input":["StatefulPartitionedCall/GhostNet/conv2d_8/Conv2D","StatefulPartitionedCall/GhostNet/conv2d_8/Conv2D_bn_offset"],"attr":{"data_format":{"s":"TkhXQw=="},"T":{"type":"DT_HALF"}}},
          {"name":"StatefulPartitionedCall/GhostNet/conv2d_12/Conv2D","op":"Conv2D","input":["StatefulPartitionedCall/GhostNet/depthwise_conv2d_11/depthwise","StatefulPartitionedCall/GhostNet/conv2d_12/Conv2D_weights"],"device":"/device:CPU:0","attr":{"explicit_paddings":{"list":{}},"T":{"type":"DT_HALF"},"use_cudnn_on_gpu":{"b":true},"dilations":{"list":{"i":["1","1","1","1"]}},"padding":{"s":"VkFMSUQ="},"strides":{"list":{"i":["1","1","1","1"]}},"data_format":{"s":"TkhXQw=="}}},
          {"name":"StatefulPartitionedCall/GhostNet/activation_7/Relu","op":"Prelu","input":["StatefulPartitionedCall/GhostNet/batch_normalization_16/FusedBatchNormV3","StatefulPartitionedCall/GhostNet/activation_7/Neg"]},
          {"name":"StatefulPartitionedCall/GhostNet/batch_normalization_22/FusedBatchNormV3","op":"BiasAdd","input":["StatefulPartitionedCall/GhostNet/conv2d_12/Conv2D","StatefulPartitionedCall/GhostNet/conv2d_12/Conv2D_bn_offset"],"attr":{"data_format":{"s":"TkhXQw=="},"T":{"type":"DT_HALF"}}},
          {"name":"StatefulPartitionedCall/GhostNet/depthwise_conv2d_8/depthwise","op":"FusedDepthwiseConv2dNative","input":["StatefulPartitionedCall/GhostNet/activation_7/Relu","StatefulPartitionedCall/GhostNet/depthwise_conv2d_8/depthwise_weights","StatefulPartitionedCall/GhostNet/depthwise_conv2d_8/depthwise_bn_offset","StatefulPartitionedCall/GhostNet/activation_8/Neg"],"attr":{"num_args":{"i":"2"},"fused_ops":{"list":{"s":["Qmlhc0FkZA==","UHJlbHU="]}},"strides":{"list":{"i":["1","1","1","1"]}},"dilations":{"list":{"i":["1","1","1","1"]}},"data_format":{"s":"TkhXQw=="},"T":{"type":"DT_HALF"},"padding":{"s":"U0FNRQ=="},"explicit_paddings":{"list":{}}}},
          {"name":"StatefulPartitionedCall/GhostNet/concatenate_6/concat","op":"ConcatV2","input":["StatefulPartitionedCall/GhostNet/activation_7/Relu","StatefulPartitionedCall/GhostNet/depthwise_conv2d_8/depthwise","StatefulPartitionedCall/GhostNet/concatenate_6/concat/axis"],"attr":{"T":{"type":"DT_HALF"},"Tidx":{"type":"DT_INT32"},"N":{"i":"2"}}},
          {"name":"StatefulPartitionedCall/GhostNet/depthwise_conv2d_9/depthwise","op":"FusedDepthwiseConv2dNative","input":["StatefulPartitionedCall/GhostNet/concatenate_6/concat","StatefulPartitionedCall/GhostNet/depthwise_conv2d_9/depthwise_weights","StatefulPartitionedCall/GhostNet/depthwise_conv2d_9/depthwise_bn_offset"],"attr":{"T":{"type":"DT_HALF"},"fused_ops":{"list":{"s":["Qmlhc0FkZA=="]}},"padding":{"s":"U0FNRQ=="},"explicit_paddings":{"list":{}},"num_args":{"i":"1"},"dilations":{"list":{"i":["1","1","1","1"]}},"data_format":{"s":"TkhXQw=="},"strides":{"list":{"i":["1","2","2","1"]}}}},
          {"name":"StatefulPartitionedCall/GhostNet/global_average_pooling2d/Mean","op":"Mean","input":["StatefulPartitionedCall/GhostNet/depthwise_conv2d_9/depthwise","StatefulPartitionedCall/GhostNet/global_average_pooling2d/Mean/reduction_indices"],"attr":{"Tidx":{"type":"DT_INT32"},"T":{"type":"DT_HALF"},"keep_dims":{"b":false}}},
          {"name":"StatefulPartitionedCall/GhostNet/reshape/Shape","op":"Shape","input":["StatefulPartitionedCall/GhostNet/global_average_pooling2d/Mean"],"attr":{"T":{"type":"DT_HALF"},"out_type":{"type":"DT_INT32"}}},
          {"name":"StatefulPartitionedCall/GhostNet/reshape/strided_slice","op":"StridedSlice","input":["StatefulPartitionedCall/GhostNet/reshape/Shape","StatefulPartitionedCall/GhostNet/reshape/strided_slice/stack","StatefulPartitionedCall/GhostNet/reshape/strided_slice/stack_1","StatefulPartitionedCall/GhostNet/reshape/strided_slice/stack_2"],"attr":{"T":{"type":"DT_INT32"},"Index":{"type":"DT_INT32"},"end_mask":{"i":"0"},"begin_mask":{"i":"0"},"new_axis_mask":{"i":"0"},"shrink_axis_mask":{"i":"1"},"ellipsis_mask":{"i":"0"}}},
          {"name":"StatefulPartitionedCall/GhostNet/reshape/Reshape/shape","op":"Pack","input":["StatefulPartitionedCall/GhostNet/reshape/strided_slice","StatefulPartitionedCall/GhostNet/reshape/Reshape/shape/1","StatefulPartitionedCall/GhostNet/reshape/Reshape/shape/2","StatefulPartitionedCall/GhostNet/reshape/Reshape/shape/3"],"attr":{"axis":{"i":"0"},"N":{"i":"4"},"T":{"type":"DT_INT32"}}},
          {"name":"StatefulPartitionedCall/GhostNet/reshape/Reshape","op":"Reshape","input":["StatefulPartitionedCall/GhostNet/global_average_pooling2d/Mean","StatefulPartitionedCall/GhostNet/reshape/Reshape/shape"],"attr":{"T":{"type":"DT_HALF"},"Tshape":{"type":"DT_INT32"}}},
          {"name":"StatefulPartitionedCall/GhostNet/conv2d_9/Conv2D","op":"Conv2D","input":["StatefulPartitionedCall/GhostNet/reshape/Reshape","StatefulPartitionedCall/GhostNet/conv2d_9/Conv2D/Cast"],"device":"/device:CPU:0","attr":{"padding":{"s":"VkFMSUQ="},"T":{"type":"DT_HALF"},"explicit_paddings":{"list":{}},"strides":{"list":{"i":["1","1","1","1"]}},"use_cudnn_on_gpu":{"b":true},"dilations":{"list":{"i":["1","1","1","1"]}},"data_format":{"s":"TkhXQw=="}}},
          {"name":"StatefulPartitionedCall/GhostNet/conv2d_9/BiasAdd","op":"BiasAdd","input":["StatefulPartitionedCall/GhostNet/conv2d_9/Conv2D","StatefulPartitionedCall/GhostNet/conv2d_9/BiasAdd/Cast"],"attr":{"T":{"type":"DT_HALF"},"data_format":{"s":"TkhXQw=="}}},
          {"name":"StatefulPartitionedCall/GhostNet/activation_9/Relu","op":"Prelu","input":["StatefulPartitionedCall/GhostNet/conv2d_9/BiasAdd","StatefulPartitionedCall/GhostNet/activation_9/Neg"]},
          {"name":"StatefulPartitionedCall/GhostNet/conv2d_10/Conv2D","op":"Conv2D","input":["StatefulPartitionedCall/GhostNet/activation_9/Relu","StatefulPartitionedCall/GhostNet/conv2d_10/Conv2D/Cast"],"device":"/device:CPU:0","attr":{"dilations":{"list":{"i":["1","1","1","1"]}},"T":{"type":"DT_HALF"},"padding":{"s":"VkFMSUQ="},"data_format":{"s":"TkhXQw=="},"explicit_paddings":{"list":{}},"use_cudnn_on_gpu":{"b":true},"strides":{"list":{"i":["1","1","1","1"]}}}},
          {"name":"StatefulPartitionedCall/GhostNet/conv2d_10/BiasAdd","op":"BiasAdd","input":["StatefulPartitionedCall/GhostNet/conv2d_10/Conv2D","StatefulPartitionedCall/GhostNet/conv2d_10/BiasAdd/Cast"],"attr":{"data_format":{"s":"TkhXQw=="},"T":{"type":"DT_HALF"}}},
          {"name":"StatefulPartitionedCall/GhostNet/activation_10/Mul","op":"Mul","input":["StatefulPartitionedCall/GhostNet/conv2d_10/BiasAdd","StatefulPartitionedCall/GhostNet/activation_10/Const"],"attr":{"T":{"type":"DT_HALF"}}},
          {"name":"StatefulPartitionedCall/GhostNet/activation_10/Add","op":"AddV2","input":["StatefulPartitionedCall/GhostNet/activation_10/Mul","StatefulPartitionedCall/GhostNet/activation_10/Const_1"],"attr":{"T":{"type":"DT_HALF"}}},
          {"name":"StatefulPartitionedCall/GhostNet/activation_10/clip_by_value/Minimum","op":"Minimum","input":["StatefulPartitionedCall/GhostNet/activation_10/Add","StatefulPartitionedCall/GhostNet/activation_10/clip_by_value/Minimum/y"],"attr":{"T":{"type":"DT_HALF"}}},
          {"name":"StatefulPartitionedCall/GhostNet/activation_10/clip_by_value","op":"Maximum","input":["StatefulPartitionedCall/GhostNet/activation_10/clip_by_value/Minimum","StatefulPartitionedCall/GhostNet/activation_10/clip_by_value/y"],"attr":{"T":{"type":"DT_HALF"}}},
          {"name":"StatefulPartitionedCall/GhostNet/multiply/mul","op":"Mul","input":["StatefulPartitionedCall/GhostNet/depthwise_conv2d_9/depthwise","StatefulPartitionedCall/GhostNet/activation_10/clip_by_value"],"attr":{"T":{"type":"DT_HALF"}}},
          {"name":"StatefulPartitionedCall/GhostNet/conv2d_11/Conv2D","op":"Conv2D","input":["StatefulPartitionedCall/GhostNet/multiply/mul","StatefulPartitionedCall/GhostNet/conv2d_11/Conv2D_weights"],"device":"/device:CPU:0","attr":{"T":{"type":"DT_HALF"},"explicit_paddings":{"list":{}},"dilations":{"list":{"i":["1","1","1","1"]}},"strides":{"list":{"i":["1","1","1","1"]}},"padding":{"s":"U0FNRQ=="},"use_cudnn_on_gpu":{"b":true},"data_format":{"s":"TkhXQw=="}}},
          {"name":"StatefulPartitionedCall/GhostNet/batch_normalization_19/FusedBatchNormV3","op":"BiasAdd","input":["StatefulPartitionedCall/GhostNet/conv2d_11/Conv2D","StatefulPartitionedCall/GhostNet/conv2d_11/Conv2D_bn_offset"],"attr":{"T":{"type":"DT_HALF"},"data_format":{"s":"TkhXQw=="}}},
          {"name":"StatefulPartitionedCall/GhostNet/depthwise_conv2d_10/depthwise","op":"FusedDepthwiseConv2dNative","input":["StatefulPartitionedCall/GhostNet/batch_normalization_19/FusedBatchNormV3","StatefulPartitionedCall/GhostNet/depthwise_conv2d_10/depthwise_weights","StatefulPartitionedCall/GhostNet/depthwise_conv2d_10/depthwise_bn_offset"],"attr":{"explicit_paddings":{"list":{}},"data_format":{"s":"TkhXQw=="},"strides":{"list":{"i":["1","1","1","1"]}},"dilations":{"list":{"i":["1","1","1","1"]}},"padding":{"s":"U0FNRQ=="},"T":{"type":"DT_HALF"},"fused_ops":{"list":{"s":["Qmlhc0FkZA=="]}},"num_args":{"i":"1"}}},
          {"name":"StatefulPartitionedCall/GhostNet/concatenate_7/concat","op":"ConcatV2","input":["StatefulPartitionedCall/GhostNet/batch_normalization_19/FusedBatchNormV3","StatefulPartitionedCall/GhostNet/depthwise_conv2d_10/depthwise","StatefulPartitionedCall/GhostNet/concatenate_7/concat/axis"],"attr":{"T":{"type":"DT_HALF"},"Tidx":{"type":"DT_INT32"},"N":{"i":"2"}}},
          {"name":"StatefulPartitionedCall/GhostNet/add_3/add","op":"AddV2","input":["StatefulPartitionedCall/GhostNet/batch_normalization_22/FusedBatchNormV3","StatefulPartitionedCall/GhostNet/concatenate_7/concat"],"attr":{"T":{"type":"DT_HALF"}}},
          {"name":"StatefulPartitionedCall/GhostNet/conv2d_13/Conv2D","op":"Conv2D","input":["StatefulPartitionedCall/GhostNet/add_3/add","StatefulPartitionedCall/GhostNet/conv2d_13/Conv2D_weights"],"device":"/device:CPU:0","attr":{"dilations":{"list":{"i":["1","1","1","1"]}},"strides":{"list":{"i":["1","1","1","1"]}},"padding":{"s":"U0FNRQ=="},"data_format":{"s":"TkhXQw=="},"explicit_paddings":{"list":{}},"T":{"type":"DT_HALF"},"use_cudnn_on_gpu":{"b":true}}},
          {"name":"StatefulPartitionedCall/GhostNet/batch_normalization_23/FusedBatchNormV3","op":"BiasAdd","input":["StatefulPartitionedCall/GhostNet/conv2d_13/Conv2D","StatefulPartitionedCall/GhostNet/conv2d_13/Conv2D_bn_offset"],"attr":{"T":{"type":"DT_HALF"},"data_format":{"s":"TkhXQw=="}}},
          {"name":"StatefulPartitionedCall/GhostNet/activation_11/Relu","op":"Prelu","input":["StatefulPartitionedCall/GhostNet/batch_normalization_23/FusedBatchNormV3","StatefulPartitionedCall/GhostNet/activation_11/Neg"]},
          {"name":"StatefulPartitionedCall/GhostNet/depthwise_conv2d_12/depthwise","op":"FusedDepthwiseConv2dNative","input":["StatefulPartitionedCall/GhostNet/activation_11/Relu","StatefulPartitionedCall/GhostNet/depthwise_conv2d_12/depthwise_weights","StatefulPartitionedCall/GhostNet/depthwise_conv2d_12/depthwise_bn_offset","StatefulPartitionedCall/GhostNet/activation_12/Neg"],"attr":{"fused_ops":{"list":{"s":["Qmlhc0FkZA==","UHJlbHU="]}},"padding":{"s":"U0FNRQ=="},"explicit_paddings":{"list":{}},"data_format":{"s":"TkhXQw=="},"dilations":{"list":{"i":["1","1","1","1"]}},"strides":{"list":{"i":["1","1","1","1"]}},"num_args":{"i":"2"},"T":{"type":"DT_HALF"}}},
          {"name":"StatefulPartitionedCall/GhostNet/concatenate_8/concat","op":"ConcatV2","input":["StatefulPartitionedCall/GhostNet/activation_11/Relu","StatefulPartitionedCall/GhostNet/depthwise_conv2d_12/depthwise","StatefulPartitionedCall/GhostNet/concatenate_8/concat/axis"],"attr":{"Tidx":{"type":"DT_INT32"},"N":{"i":"2"},"T":{"type":"DT_HALF"}}},
          {"name":"StatefulPartitionedCall/GhostNet/global_average_pooling2d_1/Mean","op":"Mean","input":["StatefulPartitionedCall/GhostNet/concatenate_8/concat","StatefulPartitionedCall/GhostNet/global_average_pooling2d_1/Mean/reduction_indices"],"attr":{"T":{"type":"DT_HALF"},"Tidx":{"type":"DT_INT32"},"keep_dims":{"b":false}}},
          {"name":"StatefulPartitionedCall/GhostNet/reshape_1/Shape","op":"Shape","input":["StatefulPartitionedCall/GhostNet/global_average_pooling2d_1/Mean"],"attr":{"out_type":{"type":"DT_INT32"},"T":{"type":"DT_HALF"}}},
          {"name":"StatefulPartitionedCall/GhostNet/reshape_1/strided_slice","op":"StridedSlice","input":["StatefulPartitionedCall/GhostNet/reshape_1/Shape","StatefulPartitionedCall/GhostNet/reshape_1/strided_slice/stack","StatefulPartitionedCall/GhostNet/reshape_1/strided_slice/stack_1","StatefulPartitionedCall/GhostNet/reshape_1/strided_slice/stack_2"],"attr":{"end_mask":{"i":"0"},"new_axis_mask":{"i":"0"},"ellipsis_mask":{"i":"0"},"shrink_axis_mask":{"i":"1"},"Index":{"type":"DT_INT32"},"T":{"type":"DT_INT32"},"begin_mask":{"i":"0"}}},
          {"name":"StatefulPartitionedCall/GhostNet/reshape_1/Reshape/shape","op":"Pack","input":["StatefulPartitionedCall/GhostNet/reshape_1/strided_slice","StatefulPartitionedCall/GhostNet/reshape_1/Reshape/shape/1","StatefulPartitionedCall/GhostNet/reshape_1/Reshape/shape/2","StatefulPartitionedCall/GhostNet/reshape_1/Reshape/shape/3"],"attr":{"T":{"type":"DT_INT32"},"N":{"i":"4"},"axis":{"i":"0"}}},
          {"name":"StatefulPartitionedCall/GhostNet/reshape_1/Reshape","op":"Reshape","input":["StatefulPartitionedCall/GhostNet/global_average_pooling2d_1/Mean","StatefulPartitionedCall/GhostNet/reshape_1/Reshape/shape"],"attr":{"T":{"type":"DT_HALF"},"Tshape":{"type":"DT_INT32"}}},
          {"name":"StatefulPartitionedCall/GhostNet/conv2d_14/Conv2D","op":"Conv2D","input":["StatefulPartitionedCall/GhostNet/reshape_1/Reshape","StatefulPartitionedCall/GhostNet/conv2d_14/Conv2D/Cast"],"device":"/device:CPU:0","attr":{"explicit_paddings":{"list":{}},"data_format":{"s":"TkhXQw=="},"T":{"type":"DT_HALF"},"padding":{"s":"VkFMSUQ="},"use_cudnn_on_gpu":{"b":true},"dilations":{"list":{"i":["1","1","1","1"]}},"strides":{"list":{"i":["1","1","1","1"]}}}},
          {"name":"StatefulPartitionedCall/GhostNet/conv2d_14/BiasAdd","op":"BiasAdd","input":["StatefulPartitionedCall/GhostNet/conv2d_14/Conv2D","StatefulPartitionedCall/GhostNet/conv2d_14/BiasAdd/Cast"],"attr":{"data_format":{"s":"TkhXQw=="},"T":{"type":"DT_HALF"}}},
          {"name":"StatefulPartitionedCall/GhostNet/activation_13/Relu","op":"Prelu","input":["StatefulPartitionedCall/GhostNet/conv2d_14/BiasAdd","StatefulPartitionedCall/GhostNet/activation_13/Neg"]},
          {"name":"StatefulPartitionedCall/GhostNet/conv2d_15/Conv2D","op":"Conv2D","input":["StatefulPartitionedCall/GhostNet/activation_13/Relu","StatefulPartitionedCall/GhostNet/conv2d_15/Conv2D/Cast"],"device":"/device:CPU:0","attr":{"use_cudnn_on_gpu":{"b":true},"T":{"type":"DT_HALF"},"strides":{"list":{"i":["1","1","1","1"]}},"explicit_paddings":{"list":{}},"dilations":{"list":{"i":["1","1","1","1"]}},"padding":{"s":"VkFMSUQ="},"data_format":{"s":"TkhXQw=="}}},
          {"name":"StatefulPartitionedCall/GhostNet/conv2d_15/BiasAdd","op":"BiasAdd","input":["StatefulPartitionedCall/GhostNet/conv2d_15/Conv2D","StatefulPartitionedCall/GhostNet/conv2d_15/BiasAdd/Cast"],"attr":{"T":{"type":"DT_HALF"},"data_format":{"s":"TkhXQw=="}}},
          {"name":"StatefulPartitionedCall/GhostNet/activation_14/Mul","op":"Mul","input":["StatefulPartitionedCall/GhostNet/conv2d_15/BiasAdd","StatefulPartitionedCall/GhostNet/activation_14/Const"],"attr":{"T":{"type":"DT_HALF"}}},
          {"name":"StatefulPartitionedCall/GhostNet/activation_14/Add","op":"AddV2","input":["StatefulPartitionedCall/GhostNet/activation_14/Mul","StatefulPartitionedCall/GhostNet/activation_14/Const_1"],"attr":{"T":{"type":"DT_HALF"}}},
          {"name":"StatefulPartitionedCall/GhostNet/activation_14/clip_by_value/Minimum","op":"Minimum","input":["StatefulPartitionedCall/GhostNet/activation_14/Add","StatefulPartitionedCall/GhostNet/activation_14/clip_by_value/Minimum/y"],"attr":{"T":{"type":"DT_HALF"}}},
          {"name":"StatefulPartitionedCall/GhostNet/activation_14/clip_by_value","op":"Maximum","input":["StatefulPartitionedCall/GhostNet/activation_14/clip_by_value/Minimum","StatefulPartitionedCall/GhostNet/activation_14/clip_by_value/y"],"attr":{"T":{"type":"DT_HALF"}}},
          {"name":"StatefulPartitionedCall/GhostNet/multiply_1/mul","op":"Mul","input":["StatefulPartitionedCall/GhostNet/concatenate_8/concat","StatefulPartitionedCall/GhostNet/activation_14/clip_by_value"],"attr":{"T":{"type":"DT_HALF"}}},
          {"name":"StatefulPartitionedCall/GhostNet/conv2d_16/Conv2D","op":"Conv2D","input":["StatefulPartitionedCall/GhostNet/multiply_1/mul","StatefulPartitionedCall/GhostNet/conv2d_16/Conv2D_weights"],"device":"/device:CPU:0","attr":{"T":{"type":"DT_HALF"},"dilations":{"list":{"i":["1","1","1","1"]}},"padding":{"s":"U0FNRQ=="},"data_format":{"s":"TkhXQw=="},"strides":{"list":{"i":["1","1","1","1"]}},"use_cudnn_on_gpu":{"b":true},"explicit_paddings":{"list":{}}}},
          {"name":"StatefulPartitionedCall/GhostNet/batch_normalization_25/FusedBatchNormV3","op":"BiasAdd","input":["StatefulPartitionedCall/GhostNet/conv2d_16/Conv2D","StatefulPartitionedCall/GhostNet/conv2d_16/Conv2D_bn_offset"],"attr":{"T":{"type":"DT_HALF"},"data_format":{"s":"TkhXQw=="}}},
          {"name":"StatefulPartitionedCall/GhostNet/depthwise_conv2d_13/depthwise","op":"FusedDepthwiseConv2dNative","input":["StatefulPartitionedCall/GhostNet/batch_normalization_25/FusedBatchNormV3","StatefulPartitionedCall/GhostNet/depthwise_conv2d_13/depthwise_weights","StatefulPartitionedCall/GhostNet/depthwise_conv2d_13/depthwise_bn_offset"],"attr":{"padding":{"s":"U0FNRQ=="},"strides":{"list":{"i":["1","1","1","1"]}},"num_args":{"i":"1"},"data_format":{"s":"TkhXQw=="},"explicit_paddings":{"list":{}},"dilations":{"list":{"i":["1","1","1","1"]}},"fused_ops":{"list":{"s":["Qmlhc0FkZA=="]}},"T":{"type":"DT_HALF"}}},
          {"name":"StatefulPartitionedCall/GhostNet/concatenate_9/concat","op":"ConcatV2","input":["StatefulPartitionedCall/GhostNet/batch_normalization_25/FusedBatchNormV3","StatefulPartitionedCall/GhostNet/depthwise_conv2d_13/depthwise","StatefulPartitionedCall/GhostNet/concatenate_9/concat/axis"],"attr":{"T":{"type":"DT_HALF"},"Tidx":{"type":"DT_INT32"},"N":{"i":"2"}}},
          {"name":"StatefulPartitionedCall/GhostNet/add_4/add","op":"AddV2","input":["StatefulPartitionedCall/GhostNet/add_3/add","StatefulPartitionedCall/GhostNet/concatenate_9/concat"],"attr":{"T":{"type":"DT_HALF"}}},
          {"name":"StatefulPartitionedCall/GhostNet/depthwise_conv2d_17/depthwise","op":"FusedDepthwiseConv2dNative","input":["StatefulPartitionedCall/GhostNet/add_4/add","StatefulPartitionedCall/GhostNet/depthwise_conv2d_17/depthwise_weights","StatefulPartitionedCall/GhostNet/depthwise_conv2d_17/depthwise_bn_offset"],"attr":{"padding":{"s":"U0FNRQ=="},"fused_ops":{"list":{"s":["Qmlhc0FkZA=="]}},"explicit_paddings":{"list":{}},"strides":{"list":{"i":["1","2","2","1"]}},"dilations":{"list":{"i":["1","1","1","1"]}},"data_format":{"s":"TkhXQw=="},"T":{"type":"DT_HALF"},"num_args":{"i":"1"}}},
          {"name":"StatefulPartitionedCall/GhostNet/conv2d_17/Conv2D","op":"Conv2D","input":["StatefulPartitionedCall/GhostNet/add_4/add","StatefulPartitionedCall/GhostNet/conv2d_17/Conv2D_weights"],"device":"/device:CPU:0","attr":{"explicit_paddings":{"list":{}},"padding":{"s":"U0FNRQ=="},"use_cudnn_on_gpu":{"b":true},"strides":{"list":{"i":["1","1","1","1"]}},"dilations":{"list":{"i":["1","1","1","1"]}},"T":{"type":"DT_HALF"},"data_format":{"s":"TkhXQw=="}}},
          {"name":"StatefulPartitionedCall/GhostNet/batch_normalization_27/FusedBatchNormV3","op":"BiasAdd","input":["StatefulPartitionedCall/GhostNet/conv2d_17/Conv2D","StatefulPartitionedCall/GhostNet/conv2d_17/Conv2D_bn_offset"],"attr":{"data_format":{"s":"TkhXQw=="},"T":{"type":"DT_HALF"}}},
          {"name":"StatefulPartitionedCall/GhostNet/conv2d_19/Conv2D","op":"Conv2D","input":["StatefulPartitionedCall/GhostNet/depthwise_conv2d_17/depthwise","StatefulPartitionedCall/GhostNet/conv2d_19/Conv2D_weights"],"device":"/device:CPU:0","attr":{"T":{"type":"DT_HALF"},"strides":{"list":{"i":["1","1","1","1"]}},"data_format":{"s":"TkhXQw=="},"use_cudnn_on_gpu":{"b":true},"explicit_paddings":{"list":{}},"dilations":{"list":{"i":["1","1","1","1"]}},"padding":{"s":"VkFMSUQ="}}},
          {"name":"StatefulPartitionedCall/GhostNet/activation_15/Relu","op":"Prelu","input":["StatefulPartitionedCall/GhostNet/batch_normalization_27/FusedBatchNormV3","StatefulPartitionedCall/GhostNet/activation_15/Neg"]},
          {"name":"StatefulPartitionedCall/GhostNet/batch_normalization_33/FusedBatchNormV3","op":"BiasAdd","input":["StatefulPartitionedCall/GhostNet/conv2d_19/Conv2D","StatefulPartitionedCall/GhostNet/conv2d_19/Conv2D_bn_offset"],"attr":{"T":{"type":"DT_HALF"},"data_format":{"s":"TkhXQw=="}}},
          {"name":"StatefulPartitionedCall/GhostNet/depthwise_conv2d_14/depthwise","op":"FusedDepthwiseConv2dNative","input":["StatefulPartitionedCall/GhostNet/activation_15/Relu","StatefulPartitionedCall/GhostNet/depthwise_conv2d_14/depthwise_weights","StatefulPartitionedCall/GhostNet/depthwise_conv2d_14/depthwise_bn_offset","StatefulPartitionedCall/GhostNet/activation_16/Neg"],"attr":{"padding":{"s":"U0FNRQ=="},"strides":{"list":{"i":["1","1","1","1"]}},"explicit_paddings":{"list":{}},"num_args":{"i":"2"},"fused_ops":{"list":{"s":["Qmlhc0FkZA==","UHJlbHU="]}},"data_format":{"s":"TkhXQw=="},"dilations":{"list":{"i":["1","1","1","1"]}},"T":{"type":"DT_HALF"}}},
          {"name":"StatefulPartitionedCall/GhostNet/concatenate_10/concat","op":"ConcatV2","input":["StatefulPartitionedCall/GhostNet/activation_15/Relu","StatefulPartitionedCall/GhostNet/depthwise_conv2d_14/depthwise","StatefulPartitionedCall/GhostNet/concatenate_10/concat/axis"],"attr":{"N":{"i":"2"},"Tidx":{"type":"DT_INT32"},"T":{"type":"DT_HALF"}}},
          {"name":"StatefulPartitionedCall/GhostNet/depthwise_conv2d_15/depthwise","op":"FusedDepthwiseConv2dNative","input":["StatefulPartitionedCall/GhostNet/concatenate_10/concat","StatefulPartitionedCall/GhostNet/depthwise_conv2d_15/depthwise_weights","StatefulPartitionedCall/GhostNet/depthwise_conv2d_15/depthwise_bn_offset"],"attr":{"num_args":{"i":"1"},"fused_ops":{"list":{"s":["Qmlhc0FkZA=="]}},"dilations":{"list":{"i":["1","1","1","1"]}},"data_format":{"s":"TkhXQw=="},"T":{"type":"DT_HALF"},"strides":{"list":{"i":["1","2","2","1"]}},"padding":{"s":"U0FNRQ=="},"explicit_paddings":{"list":{}}}},
          {"name":"StatefulPartitionedCall/GhostNet/conv2d_18/Conv2D","op":"Conv2D","input":["StatefulPartitionedCall/GhostNet/depthwise_conv2d_15/depthwise","StatefulPartitionedCall/GhostNet/conv2d_18/Conv2D_weights"],"device":"/device:CPU:0","attr":{"T":{"type":"DT_HALF"},"dilations":{"list":{"i":["1","1","1","1"]}},"explicit_paddings":{"list":{}},"use_cudnn_on_gpu":{"b":true},"strides":{"list":{"i":["1","1","1","1"]}},"data_format":{"s":"TkhXQw=="},"padding":{"s":"U0FNRQ=="}}},
          {"name":"StatefulPartitionedCall/GhostNet/batch_normalization_30/FusedBatchNormV3","op":"BiasAdd","input":["StatefulPartitionedCall/GhostNet/conv2d_18/Conv2D","StatefulPartitionedCall/GhostNet/conv2d_18/Conv2D_bn_offset"],"attr":{"T":{"type":"DT_HALF"},"data_format":{"s":"TkhXQw=="}}},
          {"name":"StatefulPartitionedCall/GhostNet/depthwise_conv2d_16/depthwise","op":"FusedDepthwiseConv2dNative","input":["StatefulPartitionedCall/GhostNet/batch_normalization_30/FusedBatchNormV3","StatefulPartitionedCall/GhostNet/depthwise_conv2d_16/depthwise_weights","StatefulPartitionedCall/GhostNet/depthwise_conv2d_16/depthwise_bn_offset"],"attr":{"data_format":{"s":"TkhXQw=="},"num_args":{"i":"1"},"T":{"type":"DT_HALF"},"fused_ops":{"list":{"s":["Qmlhc0FkZA=="]}},"explicit_paddings":{"list":{}},"dilations":{"list":{"i":["1","1","1","1"]}},"padding":{"s":"U0FNRQ=="},"strides":{"list":{"i":["1","1","1","1"]}}}},
          {"name":"StatefulPartitionedCall/GhostNet/concatenate_11/concat","op":"ConcatV2","input":["StatefulPartitionedCall/GhostNet/batch_normalization_30/FusedBatchNormV3","StatefulPartitionedCall/GhostNet/depthwise_conv2d_16/depthwise","StatefulPartitionedCall/GhostNet/concatenate_11/concat/axis"],"attr":{"T":{"type":"DT_HALF"},"N":{"i":"2"},"Tidx":{"type":"DT_INT32"}}},
          {"name":"StatefulPartitionedCall/GhostNet/add_5/add","op":"AddV2","input":["StatefulPartitionedCall/GhostNet/batch_normalization_33/FusedBatchNormV3","StatefulPartitionedCall/GhostNet/concatenate_11/concat"],"attr":{"T":{"type":"DT_HALF"}}},
          {"name":"StatefulPartitionedCall/GhostNet/conv2d_20/Conv2D","op":"Conv2D","input":["StatefulPartitionedCall/GhostNet/add_5/add","StatefulPartitionedCall/GhostNet/conv2d_20/Conv2D_weights"],"device":"/device:CPU:0","attr":{"use_cudnn_on_gpu":{"b":true},"T":{"type":"DT_HALF"},"strides":{"list":{"i":["1","1","1","1"]}},"padding":{"s":"U0FNRQ=="},"data_format":{"s":"TkhXQw=="},"dilations":{"list":{"i":["1","1","1","1"]}},"explicit_paddings":{"list":{}}}},
          {"name":"StatefulPartitionedCall/GhostNet/batch_normalization_34/FusedBatchNormV3","op":"BiasAdd","input":["StatefulPartitionedCall/GhostNet/conv2d_20/Conv2D","StatefulPartitionedCall/GhostNet/conv2d_20/Conv2D_bn_offset"],"attr":{"data_format":{"s":"TkhXQw=="},"T":{"type":"DT_HALF"}}},
          {"name":"StatefulPartitionedCall/GhostNet/activation_17/Relu","op":"Prelu","input":["StatefulPartitionedCall/GhostNet/batch_normalization_34/FusedBatchNormV3","StatefulPartitionedCall/GhostNet/activation_17/Neg"]},
          {"name":"StatefulPartitionedCall/GhostNet/depthwise_conv2d_18/depthwise","op":"FusedDepthwiseConv2dNative","input":["StatefulPartitionedCall/GhostNet/activation_17/Relu","StatefulPartitionedCall/GhostNet/depthwise_conv2d_18/depthwise_weights","StatefulPartitionedCall/GhostNet/depthwise_conv2d_18/depthwise_bn_offset","StatefulPartitionedCall/GhostNet/activation_18/Neg"],"attr":{"padding":{"s":"U0FNRQ=="},"dilations":{"list":{"i":["1","1","1","1"]}},"strides":{"list":{"i":["1","1","1","1"]}},"explicit_paddings":{"list":{}},"num_args":{"i":"2"},"fused_ops":{"list":{"s":["Qmlhc0FkZA==","UHJlbHU="]}},"T":{"type":"DT_HALF"},"data_format":{"s":"TkhXQw=="}}},
          {"name":"StatefulPartitionedCall/GhostNet/concatenate_12/concat","op":"ConcatV2","input":["StatefulPartitionedCall/GhostNet/activation_17/Relu","StatefulPartitionedCall/GhostNet/depthwise_conv2d_18/depthwise","StatefulPartitionedCall/GhostNet/concatenate_12/concat/axis"],"attr":{"T":{"type":"DT_HALF"},"N":{"i":"2"},"Tidx":{"type":"DT_INT32"}}},
          {"name":"StatefulPartitionedCall/GhostNet/conv2d_21/Conv2D","op":"Conv2D","input":["StatefulPartitionedCall/GhostNet/concatenate_12/concat","StatefulPartitionedCall/GhostNet/conv2d_21/Conv2D_weights"],"device":"/device:CPU:0","attr":{"data_format":{"s":"TkhXQw=="},"dilations":{"list":{"i":["1","1","1","1"]}},"explicit_paddings":{"list":{}},"padding":{"s":"U0FNRQ=="},"use_cudnn_on_gpu":{"b":true},"T":{"type":"DT_HALF"},"strides":{"list":{"i":["1","1","1","1"]}}}},
          {"name":"StatefulPartitionedCall/GhostNet/batch_normalization_36/FusedBatchNormV3","op":"BiasAdd","input":["StatefulPartitionedCall/GhostNet/conv2d_21/Conv2D","StatefulPartitionedCall/GhostNet/conv2d_21/Conv2D_bn_offset"],"attr":{"data_format":{"s":"TkhXQw=="},"T":{"type":"DT_HALF"}}},
          {"name":"StatefulPartitionedCall/GhostNet/depthwise_conv2d_19/depthwise","op":"FusedDepthwiseConv2dNative","input":["StatefulPartitionedCall/GhostNet/batch_normalization_36/FusedBatchNormV3","StatefulPartitionedCall/GhostNet/depthwise_conv2d_19/depthwise_weights","StatefulPartitionedCall/GhostNet/depthwise_conv2d_19/depthwise_bn_offset"],"attr":{"num_args":{"i":"1"},"strides":{"list":{"i":["1","1","1","1"]}},"T":{"type":"DT_HALF"},"fused_ops":{"list":{"s":["Qmlhc0FkZA=="]}},"dilations":{"list":{"i":["1","1","1","1"]}},"data_format":{"s":"TkhXQw=="},"padding":{"s":"U0FNRQ=="},"explicit_paddings":{"list":{}}}},
          {"name":"StatefulPartitionedCall/GhostNet/concatenate_13/concat","op":"ConcatV2","input":["StatefulPartitionedCall/GhostNet/batch_normalization_36/FusedBatchNormV3","StatefulPartitionedCall/GhostNet/depthwise_conv2d_19/depthwise","StatefulPartitionedCall/GhostNet/concatenate_13/concat/axis"],"attr":{"T":{"type":"DT_HALF"},"N":{"i":"2"},"Tidx":{"type":"DT_INT32"}}},
          {"name":"StatefulPartitionedCall/GhostNet/add_6/add","op":"AddV2","input":["StatefulPartitionedCall/GhostNet/add_5/add","StatefulPartitionedCall/GhostNet/concatenate_13/concat"],"attr":{"T":{"type":"DT_HALF"}}},
          {"name":"StatefulPartitionedCall/GhostNet/conv2d_22/Conv2D","op":"Conv2D","input":["StatefulPartitionedCall/GhostNet/add_6/add","StatefulPartitionedCall/GhostNet/conv2d_22/Conv2D_weights"],"device":"/device:CPU:0","attr":{"data_format":{"s":"TkhXQw=="},"dilations":{"list":{"i":["1","1","1","1"]}},"strides":{"list":{"i":["1","1","1","1"]}},"T":{"type":"DT_HALF"},"use_cudnn_on_gpu":{"b":true},"explicit_paddings":{"list":{}},"padding":{"s":"U0FNRQ=="}}},
          {"name":"StatefulPartitionedCall/GhostNet/batch_normalization_38/FusedBatchNormV3","op":"BiasAdd","input":["StatefulPartitionedCall/GhostNet/conv2d_22/Conv2D","StatefulPartitionedCall/GhostNet/conv2d_22/Conv2D_bn_offset"],"attr":{"data_format":{"s":"TkhXQw=="},"T":{"type":"DT_HALF"}}},
          {"name":"StatefulPartitionedCall/GhostNet/activation_19/Relu","op":"Prelu","input":["StatefulPartitionedCall/GhostNet/batch_normalization_38/FusedBatchNormV3","StatefulPartitionedCall/GhostNet/activation_19/Neg"]},
          {"name":"StatefulPartitionedCall/GhostNet/depthwise_conv2d_20/depthwise","op":"FusedDepthwiseConv2dNative","input":["StatefulPartitionedCall/GhostNet/activation_19/Relu","StatefulPartitionedCall/GhostNet/depthwise_conv2d_20/depthwise_weights","StatefulPartitionedCall/GhostNet/depthwise_conv2d_20/depthwise_bn_offset","StatefulPartitionedCall/GhostNet/activation_20/Neg"],"attr":{"explicit_paddings":{"list":{}},"dilations":{"list":{"i":["1","1","1","1"]}},"num_args":{"i":"2"},"T":{"type":"DT_HALF"},"fused_ops":{"list":{"s":["Qmlhc0FkZA==","UHJlbHU="]}},"padding":{"s":"U0FNRQ=="},"data_format":{"s":"TkhXQw=="},"strides":{"list":{"i":["1","1","1","1"]}}}},
          {"name":"StatefulPartitionedCall/GhostNet/concatenate_14/concat","op":"ConcatV2","input":["StatefulPartitionedCall/GhostNet/activation_19/Relu","StatefulPartitionedCall/GhostNet/depthwise_conv2d_20/depthwise","StatefulPartitionedCall/GhostNet/concatenate_14/concat/axis"],"attr":{"Tidx":{"type":"DT_INT32"},"T":{"type":"DT_HALF"},"N":{"i":"2"}}},
          {"name":"StatefulPartitionedCall/GhostNet/conv2d_23/Conv2D","op":"Conv2D","input":["StatefulPartitionedCall/GhostNet/concatenate_14/concat","StatefulPartitionedCall/GhostNet/conv2d_23/Conv2D_weights"],"device":"/device:CPU:0","attr":{"strides":{"list":{"i":["1","1","1","1"]}},"data_format":{"s":"TkhXQw=="},"dilations":{"list":{"i":["1","1","1","1"]}},"padding":{"s":"U0FNRQ=="},"explicit_paddings":{"list":{}},"T":{"type":"DT_HALF"},"use_cudnn_on_gpu":{"b":true}}},
          {"name":"StatefulPartitionedCall/GhostNet/batch_normalization_40/FusedBatchNormV3","op":"BiasAdd","input":["StatefulPartitionedCall/GhostNet/conv2d_23/Conv2D","StatefulPartitionedCall/GhostNet/conv2d_23/Conv2D_bn_offset"],"attr":{"data_format":{"s":"TkhXQw=="},"T":{"type":"DT_HALF"}}},
          {"name":"StatefulPartitionedCall/GhostNet/depthwise_conv2d_21/depthwise","op":"FusedDepthwiseConv2dNative","input":["StatefulPartitionedCall/GhostNet/batch_normalization_40/FusedBatchNormV3","StatefulPartitionedCall/GhostNet/depthwise_conv2d_21/depthwise_weights","StatefulPartitionedCall/GhostNet/depthwise_conv2d_21/depthwise_bn_offset"],"attr":{"dilations":{"list":{"i":["1","1","1","1"]}},"fused_ops":{"list":{"s":["Qmlhc0FkZA=="]}},"explicit_paddings":{"list":{}},"data_format":{"s":"TkhXQw=="},"num_args":{"i":"1"},"strides":{"list":{"i":["1","1","1","1"]}},"T":{"type":"DT_HALF"},"padding":{"s":"U0FNRQ=="}}},
          {"name":"StatefulPartitionedCall/GhostNet/concatenate_15/concat","op":"ConcatV2","input":["StatefulPartitionedCall/GhostNet/batch_normalization_40/FusedBatchNormV3","StatefulPartitionedCall/GhostNet/depthwise_conv2d_21/depthwise","StatefulPartitionedCall/GhostNet/concatenate_15/concat/axis"],"attr":{"Tidx":{"type":"DT_INT32"},"N":{"i":"2"},"T":{"type":"DT_HALF"}}},
          {"name":"StatefulPartitionedCall/GhostNet/add_7/add","op":"AddV2","input":["StatefulPartitionedCall/GhostNet/add_6/add","StatefulPartitionedCall/GhostNet/concatenate_15/concat"],"attr":{"T":{"type":"DT_HALF"}}},
          {"name":"StatefulPartitionedCall/GhostNet/conv2d_24/Conv2D","op":"Conv2D","input":["StatefulPartitionedCall/GhostNet/add_7/add","StatefulPartitionedCall/GhostNet/conv2d_24/Conv2D_weights"],"device":"/device:CPU:0","attr":{"padding":{"s":"U0FNRQ=="},"T":{"type":"DT_HALF"},"strides":{"list":{"i":["1","1","1","1"]}},"dilations":{"list":{"i":["1","1","1","1"]}},"explicit_paddings":{"list":{}},"use_cudnn_on_gpu":{"b":true},"data_format":{"s":"TkhXQw=="}}},
          {"name":"StatefulPartitionedCall/GhostNet/batch_normalization_42/FusedBatchNormV3","op":"BiasAdd","input":["StatefulPartitionedCall/GhostNet/conv2d_24/Conv2D","StatefulPartitionedCall/GhostNet/conv2d_24/Conv2D_bn_offset"],"attr":{"data_format":{"s":"TkhXQw=="},"T":{"type":"DT_HALF"}}},
          {"name":"StatefulPartitionedCall/GhostNet/activation_21/Relu","op":"Prelu","input":["StatefulPartitionedCall/GhostNet/batch_normalization_42/FusedBatchNormV3","StatefulPartitionedCall/GhostNet/activation_21/Neg"]},
          {"name":"StatefulPartitionedCall/GhostNet/depthwise_conv2d_22/depthwise","op":"FusedDepthwiseConv2dNative","input":["StatefulPartitionedCall/GhostNet/activation_21/Relu","StatefulPartitionedCall/GhostNet/depthwise_conv2d_22/depthwise_weights","StatefulPartitionedCall/GhostNet/depthwise_conv2d_22/depthwise_bn_offset","StatefulPartitionedCall/GhostNet/activation_22/Neg"],"attr":{"dilations":{"list":{"i":["1","1","1","1"]}},"explicit_paddings":{"list":{}},"padding":{"s":"U0FNRQ=="},"T":{"type":"DT_HALF"},"data_format":{"s":"TkhXQw=="},"fused_ops":{"list":{"s":["Qmlhc0FkZA==","UHJlbHU="]}},"num_args":{"i":"2"},"strides":{"list":{"i":["1","1","1","1"]}}}},
          {"name":"StatefulPartitionedCall/GhostNet/concatenate_16/concat","op":"ConcatV2","input":["StatefulPartitionedCall/GhostNet/activation_21/Relu","StatefulPartitionedCall/GhostNet/depthwise_conv2d_22/depthwise","StatefulPartitionedCall/GhostNet/concatenate_16/concat/axis"],"attr":{"N":{"i":"2"},"T":{"type":"DT_HALF"},"Tidx":{"type":"DT_INT32"}}},
          {"name":"StatefulPartitionedCall/GhostNet/conv2d_25/Conv2D","op":"Conv2D","input":["StatefulPartitionedCall/GhostNet/concatenate_16/concat","StatefulPartitionedCall/GhostNet/conv2d_25/Conv2D_weights"],"device":"/device:CPU:0","attr":{"explicit_paddings":{"list":{}},"T":{"type":"DT_HALF"},"strides":{"list":{"i":["1","1","1","1"]}},"padding":{"s":"U0FNRQ=="},"data_format":{"s":"TkhXQw=="},"dilations":{"list":{"i":["1","1","1","1"]}},"use_cudnn_on_gpu":{"b":true}}},
          {"name":"StatefulPartitionedCall/GhostNet/batch_normalization_44/FusedBatchNormV3","op":"BiasAdd","input":["StatefulPartitionedCall/GhostNet/conv2d_25/Conv2D","StatefulPartitionedCall/GhostNet/conv2d_25/Conv2D_bn_offset"],"attr":{"T":{"type":"DT_HALF"},"data_format":{"s":"TkhXQw=="}}},
          {"name":"StatefulPartitionedCall/GhostNet/depthwise_conv2d_23/depthwise","op":"FusedDepthwiseConv2dNative","input":["StatefulPartitionedCall/GhostNet/batch_normalization_44/FusedBatchNormV3","StatefulPartitionedCall/GhostNet/depthwise_conv2d_23/depthwise_weights","StatefulPartitionedCall/GhostNet/depthwise_conv2d_23/depthwise_bn_offset"],"attr":{"data_format":{"s":"TkhXQw=="},"dilations":{"list":{"i":["1","1","1","1"]}},"strides":{"list":{"i":["1","1","1","1"]}},"num_args":{"i":"1"},"explicit_paddings":{"list":{}},"fused_ops":{"list":{"s":["Qmlhc0FkZA=="]}},"padding":{"s":"U0FNRQ=="},"T":{"type":"DT_HALF"}}},
          {"name":"StatefulPartitionedCall/GhostNet/concatenate_17/concat","op":"ConcatV2","input":["StatefulPartitionedCall/GhostNet/batch_normalization_44/FusedBatchNormV3","StatefulPartitionedCall/GhostNet/depthwise_conv2d_23/depthwise","StatefulPartitionedCall/GhostNet/concatenate_17/concat/axis"],"attr":{"Tidx":{"type":"DT_INT32"},"T":{"type":"DT_HALF"},"N":{"i":"2"}}},
          {"name":"StatefulPartitionedCall/GhostNet/add_8/add","op":"AddV2","input":["StatefulPartitionedCall/GhostNet/add_7/add","StatefulPartitionedCall/GhostNet/concatenate_17/concat"],"attr":{"T":{"type":"DT_HALF"}}},
          {"name":"StatefulPartitionedCall/GhostNet/depthwise_conv2d_26/depthwise","op":"FusedDepthwiseConv2dNative","input":["StatefulPartitionedCall/GhostNet/add_8/add","StatefulPartitionedCall/GhostNet/depthwise_conv2d_26/depthwise_weights","StatefulPartitionedCall/GhostNet/depthwise_conv2d_26/depthwise_bn_offset"],"attr":{"num_args":{"i":"1"},"data_format":{"s":"TkhXQw=="},"T":{"type":"DT_HALF"},"fused_ops":{"list":{"s":["Qmlhc0FkZA=="]}},"dilations":{"list":{"i":["1","1","1","1"]}},"padding":{"s":"U0FNRQ=="},"strides":{"list":{"i":["1","1","1","1"]}},"explicit_paddings":{"list":{}}}},
          {"name":"StatefulPartitionedCall/GhostNet/conv2d_26/Conv2D","op":"Conv2D","input":["StatefulPartitionedCall/GhostNet/add_8/add","StatefulPartitionedCall/GhostNet/conv2d_26/Conv2D_weights"],"device":"/device:CPU:0","attr":{"explicit_paddings":{"list":{}},"T":{"type":"DT_HALF"},"strides":{"list":{"i":["1","1","1","1"]}},"use_cudnn_on_gpu":{"b":true},"padding":{"s":"U0FNRQ=="},"dilations":{"list":{"i":["1","1","1","1"]}},"data_format":{"s":"TkhXQw=="}}},
          {"name":"StatefulPartitionedCall/GhostNet/batch_normalization_46/FusedBatchNormV3","op":"BiasAdd","input":["StatefulPartitionedCall/GhostNet/conv2d_26/Conv2D","StatefulPartitionedCall/GhostNet/conv2d_26/Conv2D_bn_offset"],"attr":{"data_format":{"s":"TkhXQw=="},"T":{"type":"DT_HALF"}}},
          {"name":"StatefulPartitionedCall/GhostNet/conv2d_30/Conv2D","op":"Conv2D","input":["StatefulPartitionedCall/GhostNet/depthwise_conv2d_26/depthwise","StatefulPartitionedCall/GhostNet/conv2d_30/Conv2D_weights"],"device":"/device:CPU:0","attr":{"strides":{"list":{"i":["1","1","1","1"]}},"use_cudnn_on_gpu":{"b":true},"T":{"type":"DT_HALF"},"explicit_paddings":{"list":{}},"data_format":{"s":"TkhXQw=="},"dilations":{"list":{"i":["1","1","1","1"]}},"padding":{"s":"VkFMSUQ="}}},
          {"name":"StatefulPartitionedCall/GhostNet/activation_23/Relu","op":"Prelu","input":["StatefulPartitionedCall/GhostNet/batch_normalization_46/FusedBatchNormV3","StatefulPartitionedCall/GhostNet/activation_23/Neg"]},
          {"name":"StatefulPartitionedCall/GhostNet/batch_normalization_51/FusedBatchNormV3","op":"BiasAdd","input":["StatefulPartitionedCall/GhostNet/conv2d_30/Conv2D","StatefulPartitionedCall/GhostNet/conv2d_30/Conv2D_bn_offset"],"attr":{"data_format":{"s":"TkhXQw=="},"T":{"type":"DT_HALF"}}},
          {"name":"StatefulPartitionedCall/GhostNet/depthwise_conv2d_24/depthwise","op":"FusedDepthwiseConv2dNative","input":["StatefulPartitionedCall/GhostNet/activation_23/Relu","StatefulPartitionedCall/GhostNet/depthwise_conv2d_24/depthwise_weights","StatefulPartitionedCall/GhostNet/depthwise_conv2d_24/depthwise_bn_offset","StatefulPartitionedCall/GhostNet/activation_24/Neg"],"attr":{"fused_ops":{"list":{"s":["Qmlhc0FkZA==","UHJlbHU="]}},"padding":{"s":"U0FNRQ=="},"explicit_paddings":{"list":{}},"dilations":{"list":{"i":["1","1","1","1"]}},"data_format":{"s":"TkhXQw=="},"T":{"type":"DT_HALF"},"num_args":{"i":"2"},"strides":{"list":{"i":["1","1","1","1"]}}}},
          {"name":"StatefulPartitionedCall/GhostNet/concatenate_18/concat","op":"ConcatV2","input":["StatefulPartitionedCall/GhostNet/activation_23/Relu","StatefulPartitionedCall/GhostNet/depthwise_conv2d_24/depthwise","StatefulPartitionedCall/GhostNet/concatenate_18/concat/axis"],"attr":{"T":{"type":"DT_HALF"},"Tidx":{"type":"DT_INT32"},"N":{"i":"2"}}},
          {"name":"StatefulPartitionedCall/GhostNet/global_average_pooling2d_2/Mean","op":"Mean","input":["StatefulPartitionedCall/GhostNet/concatenate_18/concat","StatefulPartitionedCall/GhostNet/global_average_pooling2d_2/Mean/reduction_indices"],"attr":{"keep_dims":{"b":false},"Tidx":{"type":"DT_INT32"},"T":{"type":"DT_HALF"}}},
          {"name":"StatefulPartitionedCall/GhostNet/reshape_2/Shape","op":"Shape","input":["StatefulPartitionedCall/GhostNet/global_average_pooling2d_2/Mean"],"attr":{"T":{"type":"DT_HALF"},"out_type":{"type":"DT_INT32"}}},
          {"name":"StatefulPartitionedCall/GhostNet/reshape_2/strided_slice","op":"StridedSlice","input":["StatefulPartitionedCall/GhostNet/reshape_2/Shape","StatefulPartitionedCall/GhostNet/reshape_2/strided_slice/stack","StatefulPartitionedCall/GhostNet/reshape_2/strided_slice/stack_1","StatefulPartitionedCall/GhostNet/reshape_2/strided_slice/stack_2"],"attr":{"Index":{"type":"DT_INT32"},"T":{"type":"DT_INT32"},"end_mask":{"i":"0"},"shrink_axis_mask":{"i":"1"},"ellipsis_mask":{"i":"0"},"begin_mask":{"i":"0"},"new_axis_mask":{"i":"0"}}},
          {"name":"StatefulPartitionedCall/GhostNet/reshape_2/Reshape/shape","op":"Pack","input":["StatefulPartitionedCall/GhostNet/reshape_2/strided_slice","StatefulPartitionedCall/GhostNet/reshape_2/Reshape/shape/1","StatefulPartitionedCall/GhostNet/reshape_2/Reshape/shape/2","StatefulPartitionedCall/GhostNet/reshape_2/Reshape/shape/3"],"attr":{"T":{"type":"DT_INT32"},"axis":{"i":"0"},"N":{"i":"4"}}},
          {"name":"StatefulPartitionedCall/GhostNet/reshape_2/Reshape","op":"Reshape","input":["StatefulPartitionedCall/GhostNet/global_average_pooling2d_2/Mean","StatefulPartitionedCall/GhostNet/reshape_2/Reshape/shape"],"attr":{"T":{"type":"DT_HALF"},"Tshape":{"type":"DT_INT32"}}},
          {"name":"StatefulPartitionedCall/GhostNet/conv2d_27/Conv2D","op":"Conv2D","input":["StatefulPartitionedCall/GhostNet/reshape_2/Reshape","StatefulPartitionedCall/GhostNet/conv2d_27/Conv2D/Cast"],"device":"/device:CPU:0","attr":{"explicit_paddings":{"list":{}},"T":{"type":"DT_HALF"},"use_cudnn_on_gpu":{"b":true},"data_format":{"s":"TkhXQw=="},"dilations":{"list":{"i":["1","1","1","1"]}},"padding":{"s":"VkFMSUQ="},"strides":{"list":{"i":["1","1","1","1"]}}}},
          {"name":"StatefulPartitionedCall/GhostNet/conv2d_27/BiasAdd","op":"BiasAdd","input":["StatefulPartitionedCall/GhostNet/conv2d_27/Conv2D","StatefulPartitionedCall/GhostNet/conv2d_27/BiasAdd/Cast"],"attr":{"data_format":{"s":"TkhXQw=="},"T":{"type":"DT_HALF"}}},
          {"name":"StatefulPartitionedCall/GhostNet/activation_25/Relu","op":"Prelu","input":["StatefulPartitionedCall/GhostNet/conv2d_27/BiasAdd","StatefulPartitionedCall/GhostNet/activation_25/Neg"]},
          {"name":"StatefulPartitionedCall/GhostNet/conv2d_28/Conv2D","op":"Conv2D","input":["StatefulPartitionedCall/GhostNet/activation_25/Relu","StatefulPartitionedCall/GhostNet/conv2d_28/Conv2D/Cast"],"device":"/device:CPU:0","attr":{"dilations":{"list":{"i":["1","1","1","1"]}},"data_format":{"s":"TkhXQw=="},"strides":{"list":{"i":["1","1","1","1"]}},"padding":{"s":"VkFMSUQ="},"T":{"type":"DT_HALF"},"explicit_paddings":{"list":{}},"use_cudnn_on_gpu":{"b":true}}},
          {"name":"StatefulPartitionedCall/GhostNet/conv2d_28/BiasAdd","op":"BiasAdd","input":["StatefulPartitionedCall/GhostNet/conv2d_28/Conv2D","StatefulPartitionedCall/GhostNet/conv2d_28/BiasAdd/Cast"],"attr":{"T":{"type":"DT_HALF"},"data_format":{"s":"TkhXQw=="}}},
          {"name":"StatefulPartitionedCall/GhostNet/activation_26/Mul","op":"Mul","input":["StatefulPartitionedCall/GhostNet/conv2d_28/BiasAdd","StatefulPartitionedCall/GhostNet/activation_26/Const"],"attr":{"T":{"type":"DT_HALF"}}},
          {"name":"StatefulPartitionedCall/GhostNet/activation_26/Add","op":"AddV2","input":["StatefulPartitionedCall/GhostNet/activation_26/Mul","StatefulPartitionedCall/GhostNet/activation_26/Const_1"],"attr":{"T":{"type":"DT_HALF"}}},
          {"name":"StatefulPartitionedCall/GhostNet/activation_26/clip_by_value/Minimum","op":"Minimum","input":["StatefulPartitionedCall/GhostNet/activation_26/Add","StatefulPartitionedCall/GhostNet/activation_26/clip_by_value/Minimum/y"],"attr":{"T":{"type":"DT_HALF"}}},
          {"name":"StatefulPartitionedCall/GhostNet/activation_26/clip_by_value","op":"Maximum","input":["StatefulPartitionedCall/GhostNet/activation_26/clip_by_value/Minimum","StatefulPartitionedCall/GhostNet/activation_26/clip_by_value/y"],"attr":{"T":{"type":"DT_HALF"}}},
          {"name":"StatefulPartitionedCall/GhostNet/multiply_2/mul","op":"Mul","input":["StatefulPartitionedCall/GhostNet/concatenate_18/concat","StatefulPartitionedCall/GhostNet/activation_26/clip_by_value"],"attr":{"T":{"type":"DT_HALF"}}},
          {"name":"StatefulPartitionedCall/GhostNet/conv2d_29/Conv2D","op":"Conv2D","input":["StatefulPartitionedCall/GhostNet/multiply_2/mul","StatefulPartitionedCall/GhostNet/conv2d_29/Conv2D_weights"],"device":"/device:CPU:0","attr":{"data_format":{"s":"TkhXQw=="},"padding":{"s":"U0FNRQ=="},"strides":{"list":{"i":["1","1","1","1"]}},"use_cudnn_on_gpu":{"b":true},"dilations":{"list":{"i":["1","1","1","1"]}},"explicit_paddings":{"list":{}},"T":{"type":"DT_HALF"}}},
          {"name":"StatefulPartitionedCall/GhostNet/batch_normalization_48/FusedBatchNormV3","op":"BiasAdd","input":["StatefulPartitionedCall/GhostNet/conv2d_29/Conv2D","StatefulPartitionedCall/GhostNet/conv2d_29/Conv2D_bn_offset"],"attr":{"data_format":{"s":"TkhXQw=="},"T":{"type":"DT_HALF"}}},
          {"name":"StatefulPartitionedCall/GhostNet/depthwise_conv2d_25/depthwise","op":"FusedDepthwiseConv2dNative","input":["StatefulPartitionedCall/GhostNet/batch_normalization_48/FusedBatchNormV3","StatefulPartitionedCall/GhostNet/depthwise_conv2d_25/depthwise_weights","StatefulPartitionedCall/GhostNet/depthwise_conv2d_25/depthwise_bn_offset"],"attr":{"num_args":{"i":"1"},"fused_ops":{"list":{"s":["Qmlhc0FkZA=="]}},"padding":{"s":"U0FNRQ=="},"data_format":{"s":"TkhXQw=="},"dilations":{"list":{"i":["1","1","1","1"]}},"strides":{"list":{"i":["1","1","1","1"]}},"explicit_paddings":{"list":{}},"T":{"type":"DT_HALF"}}},
          {"name":"StatefulPartitionedCall/GhostNet/concatenate_19/concat","op":"ConcatV2","input":["StatefulPartitionedCall/GhostNet/batch_normalization_48/FusedBatchNormV3","StatefulPartitionedCall/GhostNet/depthwise_conv2d_25/depthwise","StatefulPartitionedCall/GhostNet/concatenate_19/concat/axis"],"attr":{"T":{"type":"DT_HALF"},"Tidx":{"type":"DT_INT32"},"N":{"i":"2"}}},
          {"name":"StatefulPartitionedCall/GhostNet/add_9/add","op":"AddV2","input":["StatefulPartitionedCall/GhostNet/batch_normalization_51/FusedBatchNormV3","StatefulPartitionedCall/GhostNet/concatenate_19/concat"],"attr":{"T":{"type":"DT_HALF"}}},
          {"name":"StatefulPartitionedCall/GhostNet/conv2d_31/Conv2D","op":"Conv2D","input":["StatefulPartitionedCall/GhostNet/add_9/add","StatefulPartitionedCall/GhostNet/conv2d_31/Conv2D_weights"],"device":"/device:CPU:0","attr":{"dilations":{"list":{"i":["1","1","1","1"]}},"padding":{"s":"U0FNRQ=="},"explicit_paddings":{"list":{}},"strides":{"list":{"i":["1","1","1","1"]}},"T":{"type":"DT_HALF"},"use_cudnn_on_gpu":{"b":true},"data_format":{"s":"TkhXQw=="}}},
          {"name":"StatefulPartitionedCall/GhostNet/batch_normalization_52/FusedBatchNormV3","op":"BiasAdd","input":["StatefulPartitionedCall/GhostNet/conv2d_31/Conv2D","StatefulPartitionedCall/GhostNet/conv2d_31/Conv2D_bn_offset"],"attr":{"T":{"type":"DT_HALF"},"data_format":{"s":"TkhXQw=="}}},
          {"name":"StatefulPartitionedCall/GhostNet/activation_27/Relu","op":"Prelu","input":["StatefulPartitionedCall/GhostNet/batch_normalization_52/FusedBatchNormV3","StatefulPartitionedCall/GhostNet/activation_27/Neg"]},
          {"name":"StatefulPartitionedCall/GhostNet/depthwise_conv2d_27/depthwise","op":"FusedDepthwiseConv2dNative","input":["StatefulPartitionedCall/GhostNet/activation_27/Relu","StatefulPartitionedCall/GhostNet/depthwise_conv2d_27/depthwise_weights","StatefulPartitionedCall/GhostNet/depthwise_conv2d_27/depthwise_bn_offset","StatefulPartitionedCall/GhostNet/activation_28/Neg"],"attr":{"data_format":{"s":"TkhXQw=="},"explicit_paddings":{"list":{}},"T":{"type":"DT_HALF"},"num_args":{"i":"2"},"dilations":{"list":{"i":["1","1","1","1"]}},"padding":{"s":"U0FNRQ=="},"fused_ops":{"list":{"s":["Qmlhc0FkZA==","UHJlbHU="]}},"strides":{"list":{"i":["1","1","1","1"]}}}},
          {"name":"StatefulPartitionedCall/GhostNet/concatenate_20/concat","op":"ConcatV2","input":["StatefulPartitionedCall/GhostNet/activation_27/Relu","StatefulPartitionedCall/GhostNet/depthwise_conv2d_27/depthwise","StatefulPartitionedCall/GhostNet/concatenate_20/concat/axis"],"attr":{"Tidx":{"type":"DT_INT32"},"N":{"i":"2"},"T":{"type":"DT_HALF"}}},
          {"name":"StatefulPartitionedCall/GhostNet/global_average_pooling2d_3/Mean","op":"Mean","input":["StatefulPartitionedCall/GhostNet/concatenate_20/concat","StatefulPartitionedCall/GhostNet/global_average_pooling2d_3/Mean/reduction_indices"],"attr":{"Tidx":{"type":"DT_INT32"},"keep_dims":{"b":false},"T":{"type":"DT_HALF"}}},
          {"name":"StatefulPartitionedCall/GhostNet/reshape_3/Shape","op":"Shape","input":["StatefulPartitionedCall/GhostNet/global_average_pooling2d_3/Mean"],"attr":{"T":{"type":"DT_HALF"},"out_type":{"type":"DT_INT32"}}},
          {"name":"StatefulPartitionedCall/GhostNet/reshape_3/strided_slice","op":"StridedSlice","input":["StatefulPartitionedCall/GhostNet/reshape_3/Shape","StatefulPartitionedCall/GhostNet/reshape_3/strided_slice/stack","StatefulPartitionedCall/GhostNet/reshape_3/strided_slice/stack_1","StatefulPartitionedCall/GhostNet/reshape_3/strided_slice/stack_2"],"attr":{"begin_mask":{"i":"0"},"new_axis_mask":{"i":"0"},"T":{"type":"DT_INT32"},"shrink_axis_mask":{"i":"1"},"Index":{"type":"DT_INT32"},"ellipsis_mask":{"i":"0"},"end_mask":{"i":"0"}}},
          {"name":"StatefulPartitionedCall/GhostNet/reshape_3/Reshape/shape","op":"Pack","input":["StatefulPartitionedCall/GhostNet/reshape_3/strided_slice","StatefulPartitionedCall/GhostNet/reshape_3/Reshape/shape/1","StatefulPartitionedCall/GhostNet/reshape_3/Reshape/shape/2","StatefulPartitionedCall/GhostNet/reshape_3/Reshape/shape/3"],"attr":{"N":{"i":"4"},"axis":{"i":"0"},"T":{"type":"DT_INT32"}}},
          {"name":"StatefulPartitionedCall/GhostNet/reshape_3/Reshape","op":"Reshape","input":["StatefulPartitionedCall/GhostNet/global_average_pooling2d_3/Mean","StatefulPartitionedCall/GhostNet/reshape_3/Reshape/shape"],"attr":{"T":{"type":"DT_HALF"},"Tshape":{"type":"DT_INT32"}}},
          {"name":"StatefulPartitionedCall/GhostNet/conv2d_32/Conv2D","op":"Conv2D","input":["StatefulPartitionedCall/GhostNet/reshape_3/Reshape","StatefulPartitionedCall/GhostNet/conv2d_32/Conv2D/Cast"],"device":"/device:CPU:0","attr":{"padding":{"s":"VkFMSUQ="},"dilations":{"list":{"i":["1","1","1","1"]}},"data_format":{"s":"TkhXQw=="},"use_cudnn_on_gpu":{"b":true},"T":{"type":"DT_HALF"},"explicit_paddings":{"list":{}},"strides":{"list":{"i":["1","1","1","1"]}}}},
          {"name":"StatefulPartitionedCall/GhostNet/conv2d_32/BiasAdd","op":"BiasAdd","input":["StatefulPartitionedCall/GhostNet/conv2d_32/Conv2D","StatefulPartitionedCall/GhostNet/conv2d_32/BiasAdd/Cast"],"attr":{"data_format":{"s":"TkhXQw=="},"T":{"type":"DT_HALF"}}},
          {"name":"StatefulPartitionedCall/GhostNet/activation_29/Relu","op":"Prelu","input":["StatefulPartitionedCall/GhostNet/conv2d_32/BiasAdd","StatefulPartitionedCall/GhostNet/activation_29/Neg"]},
          {"name":"StatefulPartitionedCall/GhostNet/conv2d_33/Conv2D","op":"Conv2D","input":["StatefulPartitionedCall/GhostNet/activation_29/Relu","StatefulPartitionedCall/GhostNet/conv2d_33/Conv2D/Cast"],"device":"/device:CPU:0","attr":{"dilations":{"list":{"i":["1","1","1","1"]}},"data_format":{"s":"TkhXQw=="},"padding":{"s":"VkFMSUQ="},"T":{"type":"DT_HALF"},"explicit_paddings":{"list":{}},"use_cudnn_on_gpu":{"b":true},"strides":{"list":{"i":["1","1","1","1"]}}}},
          {"name":"StatefulPartitionedCall/GhostNet/conv2d_33/BiasAdd","op":"BiasAdd","input":["StatefulPartitionedCall/GhostNet/conv2d_33/Conv2D","StatefulPartitionedCall/GhostNet/conv2d_33/BiasAdd/Cast"],"attr":{"data_format":{"s":"TkhXQw=="},"T":{"type":"DT_HALF"}}},
          {"name":"StatefulPartitionedCall/GhostNet/activation_30/Mul","op":"Mul","input":["StatefulPartitionedCall/GhostNet/conv2d_33/BiasAdd","StatefulPartitionedCall/GhostNet/activation_30/Const"],"attr":{"T":{"type":"DT_HALF"}}},
          {"name":"StatefulPartitionedCall/GhostNet/activation_30/Add","op":"AddV2","input":["StatefulPartitionedCall/GhostNet/activation_30/Mul","StatefulPartitionedCall/GhostNet/activation_30/Const_1"],"attr":{"T":{"type":"DT_HALF"}}},
          {"name":"StatefulPartitionedCall/GhostNet/activation_30/clip_by_value/Minimum","op":"Minimum","input":["StatefulPartitionedCall/GhostNet/activation_30/Add","StatefulPartitionedCall/GhostNet/activation_30/clip_by_value/Minimum/y"],"attr":{"T":{"type":"DT_HALF"}}},
          {"name":"StatefulPartitionedCall/GhostNet/activation_30/clip_by_value","op":"Maximum","input":["StatefulPartitionedCall/GhostNet/activation_30/clip_by_value/Minimum","StatefulPartitionedCall/GhostNet/activation_30/clip_by_value/y"],"attr":{"T":{"type":"DT_HALF"}}},
          {"name":"StatefulPartitionedCall/GhostNet/multiply_3/mul","op":"Mul","input":["StatefulPartitionedCall/GhostNet/concatenate_20/concat","StatefulPartitionedCall/GhostNet/activation_30/clip_by_value"],"attr":{"T":{"type":"DT_HALF"}}},
          {"name":"StatefulPartitionedCall/GhostNet/conv2d_34/Conv2D","op":"Conv2D","input":["StatefulPartitionedCall/GhostNet/multiply_3/mul","StatefulPartitionedCall/GhostNet/conv2d_34/Conv2D_weights"],"device":"/device:CPU:0","attr":{"data_format":{"s":"TkhXQw=="},"explicit_paddings":{"list":{}},"T":{"type":"DT_HALF"},"use_cudnn_on_gpu":{"b":true},"padding":{"s":"U0FNRQ=="},"strides":{"list":{"i":["1","1","1","1"]}},"dilations":{"list":{"i":["1","1","1","1"]}}}},
          {"name":"StatefulPartitionedCall/GhostNet/batch_normalization_54/FusedBatchNormV3","op":"BiasAdd","input":["StatefulPartitionedCall/GhostNet/conv2d_34/Conv2D","StatefulPartitionedCall/GhostNet/conv2d_34/Conv2D_bn_offset"],"attr":{"T":{"type":"DT_HALF"},"data_format":{"s":"TkhXQw=="}}},
          {"name":"StatefulPartitionedCall/GhostNet/depthwise_conv2d_28/depthwise","op":"FusedDepthwiseConv2dNative","input":["StatefulPartitionedCall/GhostNet/batch_normalization_54/FusedBatchNormV3","StatefulPartitionedCall/GhostNet/depthwise_conv2d_28/depthwise_weights","StatefulPartitionedCall/GhostNet/depthwise_conv2d_28/depthwise_bn_offset"],"attr":{"T":{"type":"DT_HALF"},"num_args":{"i":"1"},"fused_ops":{"list":{"s":["Qmlhc0FkZA=="]}},"data_format":{"s":"TkhXQw=="},"padding":{"s":"U0FNRQ=="},"dilations":{"list":{"i":["1","1","1","1"]}},"explicit_paddings":{"list":{}},"strides":{"list":{"i":["1","1","1","1"]}}}},
          {"name":"StatefulPartitionedCall/GhostNet/concatenate_21/concat","op":"ConcatV2","input":["StatefulPartitionedCall/GhostNet/batch_normalization_54/FusedBatchNormV3","StatefulPartitionedCall/GhostNet/depthwise_conv2d_28/depthwise","StatefulPartitionedCall/GhostNet/concatenate_21/concat/axis"],"attr":{"N":{"i":"2"},"Tidx":{"type":"DT_INT32"},"T":{"type":"DT_HALF"}}},
          {"name":"StatefulPartitionedCall/GhostNet/add_10/add","op":"AddV2","input":["StatefulPartitionedCall/GhostNet/add_9/add","StatefulPartitionedCall/GhostNet/concatenate_21/concat"],"attr":{"T":{"type":"DT_HALF"}}},
          {"name":"StatefulPartitionedCall/GhostNet/depthwise_conv2d_32/depthwise","op":"FusedDepthwiseConv2dNative","input":["StatefulPartitionedCall/GhostNet/add_10/add","StatefulPartitionedCall/GhostNet/depthwise_conv2d_32/depthwise_weights","StatefulPartitionedCall/GhostNet/depthwise_conv2d_32/depthwise_bn_offset"],"attr":{"T":{"type":"DT_HALF"},"dilations":{"list":{"i":["1","1","1","1"]}},"data_format":{"s":"TkhXQw=="},"num_args":{"i":"1"},"strides":{"list":{"i":["1","2","2","1"]}},"padding":{"s":"U0FNRQ=="},"explicit_paddings":{"list":{}},"fused_ops":{"list":{"s":["Qmlhc0FkZA=="]}}}},
          {"name":"StatefulPartitionedCall/GhostNet/conv2d_35/Conv2D","op":"Conv2D","input":["StatefulPartitionedCall/GhostNet/add_10/add","StatefulPartitionedCall/GhostNet/conv2d_35/Conv2D_weights"],"device":"/device:CPU:0","attr":{"padding":{"s":"U0FNRQ=="},"explicit_paddings":{"list":{}},"strides":{"list":{"i":["1","1","1","1"]}},"T":{"type":"DT_HALF"},"use_cudnn_on_gpu":{"b":true},"dilations":{"list":{"i":["1","1","1","1"]}},"data_format":{"s":"TkhXQw=="}}},
          {"name":"StatefulPartitionedCall/GhostNet/batch_normalization_56/FusedBatchNormV3","op":"BiasAdd","input":["StatefulPartitionedCall/GhostNet/conv2d_35/Conv2D","StatefulPartitionedCall/GhostNet/conv2d_35/Conv2D_bn_offset"],"attr":{"data_format":{"s":"TkhXQw=="},"T":{"type":"DT_HALF"}}},
          {"name":"StatefulPartitionedCall/GhostNet/conv2d_39/Conv2D","op":"Conv2D","input":["StatefulPartitionedCall/GhostNet/depthwise_conv2d_32/depthwise","StatefulPartitionedCall/GhostNet/conv2d_39/Conv2D_weights"],"device":"/device:CPU:0","attr":{"dilations":{"list":{"i":["1","1","1","1"]}},"use_cudnn_on_gpu":{"b":true},"T":{"type":"DT_HALF"},"explicit_pa…
,{"name":"StatefulPartitionedCall/GhostNet/activation_25/Neg","shape":[1,1,156],"dtype":"float32","quantization":{"dtype":"float16","original_dtype":"float32"}},{"name":"StatefulPartitionedCall/GhostNet/activation_24/Neg","shape":[1,1,312],"dtype":"float32","quantization":{"dtype":"float16","original_dtype":"float32"}},{"name":"StatefulPartitionedCall/GhostNet/activation_23/Neg","shape":[1,1,312],"dtype":"float32","quantization":{"dtype":"float16","original_dtype":"float32"}},{"name":"StatefulPartitionedCall/GhostNet/activation_22/Neg","shape":[1,1,120],"dtype":"float32","quantization":{"dtype":"float16","original_dtype":"float32"}},{"name":"StatefulPartitionedCall/GhostNet/activation_21/Neg","shape":[1,1,120],"dtype":"float32","quantization":{"dtype":"float16","original_dtype":"float32"}},{"name":"StatefulPartitionedCall/GhostNet/activation_20/Neg","shape":[1,1,120],"dtype":"float32","quantization":{"dtype":"float16","original_dtype":"float32"}},{"name":"StatefulPartitionedCall/GhostNet/activation_19/Neg","shape":[1,1,120],"dtype":"float32","quantization":{"dtype":"float16","original_dtype":"float32"}},{"name":"StatefulPartitionedCall/GhostNet/activation_18/Neg","shape":[1,1,130],"dtype":"float32","quantization":{"dtype":"float16","original_dtype":"float32"}},{"name":"StatefulPartitionedCall/GhostNet/activation_17/Neg","shape":[1,1,130],"dtype":"float32","quantization":{"dtype":"float16","original_dtype":"float32"}},{"name":"StatefulPartitionedCall/GhostNet/activation_16/Neg","shape":[1,1,156],"dtype":"float32","quantization":{"dtype":"float16","original_dtype":"float32"}},{"name":"StatefulPartitionedCall/GhostNet/activation_15/Neg","shape":[1,1,156],"dtype":"float32","quantization":{"dtype":"float16","original_dtype":"float32"}},{"name":"StatefulPartitionedCall/GhostNet/activation_13/Neg","shape":[1,1,40],"dtype":"float32","quantization":{"dtype":"float16","original_dtype":"float32"}},{"name":"StatefulPartitionedCall/GhostNet/activation_12/Neg","shape":[1,1,78],"dtype":"float32","quantization":{"dtype":"float16","original_dtype":"float32"}},{"name":"StatefulPartitionedCall/GhostNet/activation_11/Neg","shape":[1,1,78],"dtype":"float32","quantization":{"dtype":"float16","original_dtype":"float32"}},{"name":"StatefulPartitionedCall/GhostNet/activation_9/Neg","shape":[1,1,24],"dtype":"float32","quantization":{"dtype":"float16","original_dtype":"float32"}},{"name":"StatefulPartitionedCall/GhostNet/activation_8/Neg","shape":[1,1,46],"dtype":"float32","quantization":{"dtype":"float16","original_dtype":"float32"}},{"name":"StatefulPartitionedCall/GhostNet/activation_7/Neg","shape":[1,1,46],"dtype":"float32","quantization":{"dtype":"float16","original_dtype":"float32"}},{"name":"StatefulPartitionedCall/GhostNet/activation_6/Neg","shape":[1,1,46],"dtype":"float32","quantization":{"dtype":"float16","original_dtype":"float32"}},{"name":"StatefulPartitionedCall/GhostNet/activation_5/Neg","shape":[1,1,46],"dtype":"float32","quantization":{"dtype":"float16","original_dtype":"float32"}},{"name":"StatefulPartitionedCall/GhostNet/activation_4/Neg","shape":[1,1,32],"dtype":"float32","quantization":{"dtype":"float16","original_dtype":"float32"}},{"name":"StatefulPartitionedCall/GhostNet/activation_3/Neg","shape":[1,1,32],"dtype":"float32","quantization":{"dtype":"float16","original_dtype":"float32"}},{"name":"StatefulPartitionedCall/GhostNet/activation_2/Neg","shape":[1,1,10],"dtype":"float32","quantization":{"dtype":"float16","original_dtype":"float32"}},{"name":"StatefulPartitionedCall/GhostNet/activation_1/Neg","shape":[1,1,10],"dtype":"float32","quantization":{"dtype":"float16","original_dtype":"float32"}},{"name":"StatefulPartitionedCall/GhostNet/activation/Neg","shape":[1,1,20],"dtype":"float32","quantization":{"dtype":"float16","original_dtype":"float32"}},{"name":"StatefulPartitionedCall/GhostNet/concatenate/concat/axis","shape":[],"dtype":"int32"},{"name":"StatefulPartitionedCall/GhostNet/concatenate_1/concat/axis","shape":[],"dtype":"int32"},{"name":"StatefulPartitionedCall/GhostNet/concatenate_2/concat/axis","shape":[],"dtype":"int32"},{"name":"StatefulPartitionedCall/GhostNet/concatenate_3/concat/axis","shape":[],"dtype":"int32"},{"name":"StatefulPartitionedCall/GhostNet/concatenate_4/concat/axis","shape":[],"dtype":"int32"},{"name":"StatefulPartitionedCall/GhostNet/concatenate_5/concat/axis","shape":[],"dtype":"int32"},{"name":"StatefulPartitionedCall/GhostNet/concatenate_6/concat/axis","shape":[],"dtype":"int32"},{"name":"StatefulPartitionedCall/GhostNet/global_average_pooling2d/Mean/reduction_indices","shape":[2],"dtype":"int32"},{"name":"StatefulPartitionedCall/GhostNet/reshape/strided_slice/stack","shape":[1],"dtype":"int32"},{"name":"StatefulPartitionedCall/GhostNet/reshape/strided_slice/stack_1","shape":[1],"dtype":"int32"},{"name":"StatefulPartitionedCall/GhostNet/reshape/strided_slice/stack_2","shape":[1],"dtype":"int32"},{"name":"StatefulPartitionedCall/GhostNet/reshape/Reshape/shape/1","shape":[],"dtype":"int32"},{"name":"StatefulPartitionedCall/GhostNet/reshape/Reshape/shape/2","shape":[],"dtype":"int32"},{"name":"StatefulPartitionedCall/GhostNet/reshape/Reshape/shape/3","shape":[],"dtype":"int32"},{"name":"StatefulPartitionedCall/GhostNet/conv2d_9/Conv2D/Cast","shape":[1,1,92,24],"dtype":"float32","quantization":{"dtype":"float16","original_dtype":"float32"}},{"name":"StatefulPartitionedCall/GhostNet/conv2d_9/BiasAdd/Cast","shape":[24],"dtype":"float32","quantization":{"dtype":"float16","original_dtype":"float32"}},{"name":"StatefulPartitionedCall/GhostNet/conv2d_10/Conv2D/Cast","shape":[1,1,24,92],"dtype":"float32","quantization":{"dtype":"float16","original_dtype":"float32"}},{"name":"StatefulPartitionedCall/GhostNet/conv2d_10/BiasAdd/Cast","shape":[92],"dtype":"float32","quantization":{"dtype":"float16","original_dtype":"float32"}},{"name":"StatefulPartitionedCall/GhostNet/activation_10/Const","shape":[],"dtype":"float32","quantization":{"dtype":"float16","original_dtype":"float32"}},{"name":"StatefulPartitionedCall/GhostNet/activation_10/Const_1","shape":[],"dtype":"float32","quantization":{"dtype":"float16","original_dtype":"float32"}},{"name":"StatefulPartitionedCall/GhostNet/activation_10/clip_by_value/Minimum/y","shape":[],"dtype":"float32","quantization":{"dtype":"float16","original_dtype":"float32"}},{"name":"StatefulPartitionedCall/GhostNet/activation_10/clip_by_value/y","shape":[],"dtype":"float32","quantization":{"dtype":"float16","original_dtype":"float32"}},{"name":"StatefulPartitionedCall/GhostNet/concatenate_7/concat/axis","shape":[],"dtype":"int32"},{"name":"StatefulPartitionedCall/GhostNet/concatenate_8/concat/axis","shape":[],"dtype":"int32"},{"name":"StatefulPartitionedCall/GhostNet/global_average_pooling2d_1/Mean/reduction_indices","shape":[2],"dtype":"int32"},{"name":"StatefulPartitionedCall/GhostNet/reshape_1/strided_slice/stack","shape":[1],"dtype":"int32"},{"name":"StatefulPartitionedCall/GhostNet/reshape_1/strided_slice/stack_1","shape":[1],"dtype":"int32"},{"name":"StatefulPartitionedCall/GhostNet/reshape_1/strided_slice/stack_2","shape":[1],"dtype":"int32"},{"name":"StatefulPartitionedCall/GhostNet/reshape_1/Reshape/shape/1","shape":[],"dtype":"int32"},{"name":"StatefulPartitionedCall/GhostNet/reshape_1/Reshape/shape/2","shape":[],"dtype":"int32"},{"name":"StatefulPartitionedCall/GhostNet/reshape_1/Reshape/shape/3","shape":[],"dtype":"int32"},{"name":"StatefulPartitionedCall/GhostNet/conv2d_14/Conv2D/Cast","shape":[1,1,156,40],"dtype":"float32","quantization":{"dtype":"float16","original_dtype":"float32"}},{"name":"StatefulPartitionedCall/GhostNet/conv2d_14/BiasAdd/Cast","shape":[40],"dtype":"float32","quantization":{"dtype":"float16","original_dtype":"float32"}},{"name":"StatefulPartitionedCall/GhostNet/conv2d_15/Conv2D/Cast","shape":[1,1,40,156],"dtype":"float32","quantization":{"dtype":"float16","original_dtype":"float32"}},{"name":"StatefulPartitionedCall/GhostNet/conv2d_15/BiasAdd/Cast","shape":[156],"dtype":"float32","quantization":{"dtype":"float16","original_dtype":"float32"}},{"name":"StatefulPartitionedCall/GhostNet/activation_14/Const","shape":[],"dtype":"float32","quantization":{"dtype":"float16","original_dtype":"float32"}},{"name":"StatefulPartitionedCall/GhostNet/activation_14/Const_1","shape":[],"dtype":"float32","quantization":{"dtype":"float16","original_dtype":"float32"}},{"name":"StatefulPartitionedCall/GhostNet/activation_14/clip_by_value/Minimum/y","shape":[],"dtype":"float32","quantization":{"dtype":"float16","original_dtype":"float32"}},{"name":"StatefulPartitionedCall/GhostNet/activation_14/clip_by_value/y","shape":[],"dtype":"float32","quantization":{"dtype":"float16","original_dtype":"float32"}},{"name":"StatefulPartitionedCall/GhostNet/concatenate_9/concat/axis","shape":[],"dtype":"int32"},{"name":"StatefulPartitionedCall/GhostNet/concatenate_10/concat/axis","shape":[],"dtype":"int32"},{"name":"StatefulPartitionedCall/GhostNet/concatenate_11/concat/axis","shape":[],"dtype":"int32"},{"name":"StatefulPartitionedCall/GhostNet/concatenate_12/concat/axis","shape":[],"dtype":"int32"},{"name":"StatefulPartitionedCall/GhostNet/concatenate_13/concat/axis","shape":[],"dtype":"int32"},{"name":"StatefulPartitionedCall/GhostNet/concatenate_14/concat/axis","shape":[],"dtype":"int32"},{"name":"StatefulPartitionedCall/GhostNet/concatenate_15/concat/axis","shape":[],"dtype":"int32"},{"name":"StatefulPartitionedCall/GhostNet/concatenate_16/concat/axis","shape":[],"dtype":"int32"},{"name":"StatefulPartitionedCall/GhostNet/concatenate_17/concat/axis","shape":[],"dtype":"int32"},{"name":"StatefulPartitionedCall/GhostNet/concatenate_18/concat/axis","shape":[],"dtype":"int32"},{"name":"StatefulPartitionedCall/GhostNet/global_average_pooling2d_2/Mean/reduction_indices","shape":[2],"dtype":"int32"},{"name":"StatefulPartitionedCall/GhostNet/reshape_2/strided_slice/stack","shape":[1],"dtype":"int32"},{"name":"StatefulPartitionedCall/GhostNet/reshape_2/strided_slice/stack_1","shape":[1],"dtype":"int32"},{"name":"StatefulPartitionedCall/GhostNet/reshape_2/strided_slice/stack_2","shape":[1],"dtype":"int32"},{"name":"StatefulPartitionedCall/GhostNet/reshape_2/Reshape/shape/1","shape":[],"dtype":"int32"},{"name":"StatefulPartitionedCall/GhostNet/reshape_2/Reshape/shape/2","shape":[],"dtype":"int32"},{"name":"StatefulPartitionedCall/GhostNet/reshape_2/Reshape/shape/3","shape":[],"dtype":"int32"},{"name":"StatefulPartitionedCall/GhostNet/conv2d_27/Conv2D/Cast","shape":[1,1,624,156],"dtype":"float32","quantization":{"dtype":"float16","original_dtype":"float32"}},{"name":"StatefulPartitionedCall/GhostNet/conv2d_27/BiasAdd/Cast","shape":[156],"dtype":"float32","quantization":{"dtype":"float16","original_dtype":"float32"}},{"name":"StatefulPartitionedCall/GhostNet/conv2d_28/Conv2D/Cast","shape":[1,1,156,624],"dtype":"float32","quantization":{"dtype":"float16","original_dtype":"float32"}},{"name":"StatefulPartitionedCall/GhostNet/conv2d_28/BiasAdd/Cast","shape":[624],"dtype":"float32","quantization":{"dtype":"float16","original_dtype":"float32"}},{"name":"StatefulPartitionedCall/GhostNet/activation_26/Const","shape":[],"dtype":"float32","quantization":{"dtype":"float16","original_dtype":"float32"}},{"name":"StatefulPartitionedCall/GhostNet/activation_26/Const_1","shape":[],"dtype":"float32","quantization":{"dtype":"float16","original_dtype":"float32"}},{"name":"StatefulPartitionedCall/GhostNet/activation_26/clip_by_value/Minimum/y","shape":[],"dtype":"float32","quantization":{"dtype":"float16","original_dtype":"float32"}},{"name":"StatefulPartitionedCall/GhostNet/activation_26/clip_by_value/y","shape":[],"dtype":"float32","quantization":{"dtype":"float16","original_dtype":"float32"}},{"name":"StatefulPartitionedCall/GhostNet/concatenate_19/concat/axis","shape":[],"dtype":"int32"},{"name":"StatefulPartitionedCall/GhostNet/concatenate_20/concat/axis","shape":[],"dtype":"int32"},{"name":"StatefulPartitionedCall/GhostNet/global_average_pooling2d_3/Mean/reduction_indices","shape":[2],"dtype":"int32"},{"name":"StatefulPartitionedCall/GhostNet/reshape_3/strided_slice/stack","shape":[1],"dtype":"int32"},{"name":"StatefulPartitionedCall/GhostNet/reshape_3/strided_slice/stack_1","shape":[1],"dtype":"int32"},{"name":"StatefulPartitionedCall/GhostNet/reshape_3/strided_slice/stack_2","shape":[1],"dtype":"int32"},{"name":"StatefulPartitionedCall/GhostNet/reshape_3/Reshape/shape/1","shape":[],"dtype":"int32"},{"name":"StatefulPartitionedCall/GhostNet/reshape_3/Reshape/shape/2","shape":[],"dtype":"int32"},{"name":"StatefulPartitionedCall/GhostNet/reshape_3/Reshape/shape/3","shape":[],"dtype":"int32"},{"name":"StatefulPartitionedCall/GhostNet/conv2d_32/Conv2D/Cast","shape":[1,1,872,220],"dtype":"float32","quantization":{"dtype":"float16","original_dtype":"float32"}},{"name":"StatefulPartitionedCall/GhostNet/conv2d_32/BiasAdd/Cast","shape":[220],"dtype":"float32","quantization":{"dtype":"float16","original_dtype":"float32"}},{"name":"StatefulPartitionedCall/GhostNet/conv2d_33/Conv2D/Cast","shape":[1,1,220,872],"dtype":"float32","quantization":{"dtype":"float16","original_dtype":"float32"}},{"name":"StatefulPartitionedCall/GhostNet/conv2d_33/BiasAdd/Cast","shape":[872],"dtype":"float32","quantization":{"dtype":"float16","original_dtype":"float32"}},{"name":"StatefulPartitionedCall/GhostNet/activation_30/Const","shape":[],"dtype":"float32","quantization":{"dtype":"float16","original_dtype":"float32"}},{"name":"StatefulPartitionedCall/GhostNet/activation_30/Const_1","shape":[],"dtype":"float32","quantization":{"dtype":"float16","original_dtype":"float32"}},{"name":"StatefulPartitionedCall/GhostNet/activation_30/clip_by_value/Minimum/y","shape":[],"dtype":"float32","quantization":{"dtype":"float16","original_dtype":"float32"}},{"name":"StatefulPartitionedCall/GhostNet/activation_30/clip_by_value/y","shape":[],"dtype":"float32","quantization":{"dtype":"float16","original_dtype":"float32"}},{"name":"StatefulPartitionedCall/GhostNet/concatenate_21/concat/axis","shape":[],"dtype":"int32"},{"name":"StatefulPartitionedCall/GhostNet/concatenate_22/concat/axis","shape":[],"dtype":"int32"},{"name":"StatefulPartitionedCall/GhostNet/global_average_pooling2d_4/Mean/reduction_indices","shape":[2],"dtype":"int32"},{"name":"StatefulPartitionedCall/GhostNet/reshape_4/strided_slice/stack","shape":[1],"dtype":"int32"},{"name":"StatefulPartitionedCall/GhostNet/reshape_4/strided_slice/stack_1","shape":[1],"dtype":"int32"},{"name":"StatefulPartitionedCall/GhostNet/reshape_4/strided_slice/stack_2","shape":[1],"dtype":"int32"},{"name":"StatefulPartitionedCall/GhostNet/reshape_4/Reshape/shape/1","shape":[],"dtype":"int32"},{"name":"StatefulPartitionedCall/GhostNet/reshape_4/Reshape/shape/2","shape":[],"dtype":"int32"},{"name":"StatefulPartitionedCall/GhostNet/reshape_4/Reshape/shape/3","shape":[],"dtype":"int32"},{"name":"StatefulPartitionedCall/GhostNet/conv2d_36/Conv2D/Cast","shape":[1,1,872,220],"dtype":"float32","quantization":{"dtype":"float16","original_dtype":"float32"}},{"name":"StatefulPartitionedCall/GhostNet/conv2d_36/BiasAdd/Cast","shape":[220],"dtype":"float32","quantization":{"dtype":"float16","original_dtype":"float32"}},{"name":"StatefulPartitionedCall/GhostNet/conv2d_37/Conv2D/Cast","shape":[1,1,220,872],"dtype":"float32","quantization":{"dtype":"float16","original_dtype":"float32"}},{"name":"StatefulPartitionedCall/GhostNet/conv2d_37/BiasAdd/Cast","shape":[872],"dtype":"float32","quantization":{"dtype":"float16","original_dtype":"float32"}},{"name":"StatefulPartitionedCall/GhostNet/activation_34/Const","shape":[],"dtype":"float32","quantization":{"dtype":"float16","original_dtype":"float32"}},{"name":"StatefulPartitionedCall/GhostNet/activation_34/Const_1","shape":[],"dtype":"float32","quantization":{"dtype":"float16","original_dtype":"float32"}},{"name":"StatefulPartitionedCall/GhostNet/activation_34/clip_by_value/Minimum/y","shape":[],"dtype":"float32","quantization":{"dtype":"float16","original_dtype":"float32"}},{"name":"StatefulPartitionedCall/GhostNet/activation_34/clip_by_value/y","shape":[],"dtype":"float32","quantization":{"dtype":"float16","original_dtype":"float32"}},{"name":"StatefulPartitionedCall/GhostNet/concatenate_23/concat/axis","shape":[],"dtype":"int32"},{"name":"StatefulPartitionedCall/GhostNet/concatenate_24/concat/axis","shape":[],"dtype":"int32"},{"name":"StatefulPartitionedCall/GhostNet/concatenate_25/concat/axis","shape":[],"dtype":"int32"},{"name":"StatefulPartitionedCall/GhostNet/concatenate_26/concat/axis","shape":[],"dtype":"int32"},{"name":"StatefulPartitionedCall/GhostNet/global_average_pooling2d_5/Mean/reduction_indices","shape":[2],"dtype":"int32"},{"name":"StatefulPartitionedCall/GhostNet/reshape_5/strided_slice/stack","shape":[1],"dtype":"int32"},{"name":"StatefulPartitionedCall/GhostNet/reshape_5/strided_slice/stack_1","shape":[1],"dtype":"int32"},{"name":"StatefulPartitionedCall/GhostNet/reshape_5/strided_slice/stack_2","shape":[1],"dtype":"int32"},{"name":"StatefulPartitionedCall/GhostNet/reshape_5/Reshape/shape/1","shape":[],"dtype":"int32"},{"name":"StatefulPartitionedCall/GhostNet/reshape_5/Reshape/shape/2","shape":[],"dtype":"int32"},{"name":"StatefulPartitionedCall/GhostNet/reshape_5/Reshape/shape/3","shape":[],"dtype":"int32"},{"name":"StatefulPartitionedCall/GhostNet/conv2d_43/Conv2D/Cast","shape":[1,1,1248,312],"dtype":"float32","quantization":{"dtype":"float16","original_dtype":"float32"}},{"name":"StatefulPartitionedCall/GhostNet/conv2d_43/BiasAdd/Cast","shape":[312],"dtype":"float32","quantization":{"dtype":"float16","original_dtype":"float32"}},{"name":"StatefulPartitionedCall/GhostNet/conv2d_44/Conv2D/Cast","shape":[1,1,312,1248],"dtype":"float32","quantization":{"dtype":"float16","original_dtype":"float32"}},{"name":"StatefulPartitionedCall/GhostNet/conv2d_44/BiasAdd/Cast","shape":[1248],"dtype":"float32","quantization":{"dtype":"float16","original_dtype":"float32"}},{"name":"StatefulPartitionedCall/GhostNet/activation_40/Const","shape":[],"dtype":"float32","quantization":{"dtype":"float16","original_dtype":"float32"}},{"name":"StatefulPartitionedCall/GhostNet/activation_40/Const_1","shape":[],"dtype":"float32","quantization":{"dtype":"float16","original_dtype":"float32"}},{"name":"StatefulPartitionedCall/GhostNet/activation_40/clip_by_value/Minimum/y","shape":[],"dtype":"float32","quantization":{"dtype":"float16","original_dtype":"float32"}},{"name":"StatefulPartitionedCall/GhostNet/activation_40/clip_by_value/y","shape":[],"dtype":"float32","quantization":{"dtype":"float16","original_dtype":"float32"}},{"name":"StatefulPartitionedCall/GhostNet/concatenate_27/concat/axis","shape":[],"dtype":"int32"},{"name":"StatefulPartitionedCall/GhostNet/concatenate_28/concat/axis","shape":[],"dtype":"int32"},{"name":"StatefulPartitionedCall/GhostNet/concatenate_29/concat/axis","shape":[],"dtype":"int32"},{"name":"StatefulPartitionedCall/GhostNet/concatenate_30/concat/axis","shape":[],"dtype":"int32"},{"name":"StatefulPartitionedCall/GhostNet/global_average_pooling2d_6/Mean/reduction_indices","shape":[2],"dtype":"int32"},{"name":"StatefulPartitionedCall/GhostNet/reshape_6/strided_slice/stack","shape":[1],"dtype":"int32"},{"name":"StatefulPartitionedCall/GhostNet/reshape_6/strided_slice/stack_1","shape":[1],"dtype":"int32"},{"name":"StatefulPartitionedCall/GhostNet/reshape_6/strided_slice/stack_2","shape":[1],"dtype":"int32"},{"name":"StatefulPartitionedCall/GhostNet/reshape_6/Reshape/shape/1","shape":[],"dtype":"int32"},{"name":"StatefulPartitionedCall/GhostNet/reshape_6/Reshape/shape/2","shape":[],"dtype":"int32"},{"name":"StatefulPartitionedCall/GhostNet/reshape_6/Reshape/shape/3","shape":[],"dtype":"int32"},{"name":"StatefulPartitionedCall/GhostNet/conv2d_49/Conv2D/Cast","shape":[1,1,664,168],"dtype":"float32","quantization":{"dtype":"float16","original_dtype":"float32"}},{"name":"StatefulPartitionedCall/GhostNet/conv2d_49/BiasAdd/Cast","shape":[168],"dtype":"float32","quantization":{"dtype":"float16","original_dtype":"float32"}},{"name":"StatefulPartitionedCall/GhostNet/conv2d_50/Conv2D/Cast","shape":[1,1,168,664],"dtype":"float32","quantization":{"dtype":"float16","original_dtype":"float32"}},{"name":"StatefulPartitionedCall/GhostNet/conv2d_50/BiasAdd/Cast","shape":[664],"dtype":"float32","quantization":{"dtype":"float16","original_dtype":"float32"}},{"name":"StatefulPartitionedCall/GhostNet/activation_46/Const","shape":[],"dtype":"float32","quantization":{"dtype":"float16","original_dtype":"float32"}},{"name":"StatefulPartitionedCall/GhostNet/activation_46/Const_1","shape":[],"dtype":"float32","quantization":{"dtype":"float16","original_dtype":"float32"}},{"name":"StatefulPartitionedCall/GhostNet/activation_46/clip_by_value/Minimum/y","shape":[],"dtype":"float32","quantization":{"dtype":"float16","original_dtype":"float32"}},{"name":"StatefulPartitionedCall/GhostNet/activation_46/clip_by_value/y","shape":[],"dtype":"float32","quantization":{"dtype":"float16","original_dtype":"float32"}},{"name":"StatefulPartitionedCall/GhostNet/concatenate_31/concat/axis","shape":[],"dtype":"int32"},{"name":"StatefulPartitionedCall/GhostNet/conv2d_53/Conv2D/Cast","shape":[1,1,664,512],"dtype":"float32","quantization":{"dtype":"float16","original_dtype":"float32"}},{"name":"StatefulPartitionedCall/GhostNet/conv2d_53/BiasAdd/Cast","shape":[512],"dtype":"float32","quantization":{"dtype":"float16","original_dtype":"float32"}},{"name":"StatefulPartitionedCall/GhostNet/flatten/Const","shape":[2],"dtype":"int32"},{"name":"StatefulPartitionedCall/GhostNet/batch_normalization_81/batchnorm/mul","shape":[512],"dtype":"float32","quantization":{"dtype":"float16","original_dtype":"float32"}},{"name":"StatefulPartitionedCall/GhostNet/batch_normalization_81/batchnorm/sub","shape":[512],"dtype":"float32","quantization":{"dtype":"float16","original_dtype":"float32"}},{"name":"StatefulPartitionedCall/GhostNet/conv2d/Conv2D_weights","shape":[3,3,3,20],"dtype":"float32","quantization":{"dtype":"float16","original_dtype":"float32"}},{"name":"StatefulPartitionedCall/GhostNet/conv2d/Conv2D_bn_offset","shape":[20],"dtype":"float32","quantization":{"dtype":"float16","original_dtype":"float32"}},{"name":"StatefulPartitionedCall/GhostNet/conv2d_1/Conv2D_weights","shape":[1,1,20,10],"dtype":"float32","quantization":{"dtype":"float16","original_dtype":"float32"}},{"name":"StatefulPartitionedCall/GhostNet/conv2d_1/Conv2D_bn_offset","shape":[10],"dtype":"float32","quantization":{"dtype":"float16","original_dtype":"float32"}},{"name":"StatefulPartitionedCall/GhostNet/depthwise_conv2d/depthwise_weights","shape":[3,3,10,1],"dtype":"float32","quantization":{"dtype":"float16","original_dtype":"float32"}},{"name":"StatefulPartitionedCall/GhostNet/depthwise_conv2d/depthwise_bn_offset","shape":[10],"dtype":"float32","quantization":{"dtype":"float16","original_dtype":"float32"}},{"name":"StatefulPartitionedCall/GhostNet/conv2d_2/Conv2D_weights","shape":[1,1,20,10],"dtype":"float32","quantization":{"dtype":"float16","original_dtype":"float32"}},{"name":"StatefulPartitionedCall/GhostNet/conv2d_2/Conv2D_bn_offset","shape":[10],"dtype":"float32","quantization":{"dtype":"float16","original_dtype":"float32"}},{"name":"StatefulPartitionedCall/GhostNet/depthwise_conv2d_1/depthwise_weights","shape":[3,3,10,1],"dtype":"float32","quantization":{"dtype":"float16","original_dtype":"float32"}},{"name":"StatefulPartitionedCall/GhostNet/depthwise_conv2d_1/depthwise_bn_offset","shape":[10],"dtype":"float32","quantization":{"dtype":"float16","original_dtype":"float32"}},{"name":"StatefulPartitionedCall/GhostNet/depthwise_conv2d_5/depthwise_weights","shape":[3,3,20,1],"dtype":"float32","quantization":{"dtype":"float16","original_dtype":"float32"}},{"name":"StatefulPartitionedCall/GhostNet/depthwise_conv2d_5/depthwise_bn_offset","shape":[20],"dtype":"float32","quantization":{"dtype":"float16","original_dtype":"float32"}},{"name":"StatefulPartitionedCall/GhostNet/conv2d_3/Conv2D_weights","shape":[1,1,20,32],"dtype":"float32","quantization":{"dtype":"float16","original_dtype":"float32"}},{"name":"StatefulPartitionedCall/GhostNet/conv2d_3/Conv2D_bn_offset","shape":[32],"dtype":"float32","quantization":{"dtype":"float16","original_dtype":"float32"}},{"name":"StatefulPartitionedCall/GhostNet/conv2d_5/Conv2D_weights","shape":[1,1,20,32],"dtype":"float32","quantization":{"dtype":"float16","original_dtype":"float32"}},{"name":"StatefulPartitionedCall/GhostNet/conv2d_5/Conv2D_bn_offset","shape":[32],"dtype":"float32","quantization":{"dtype":"float16","original_dtype":"float32"}},{"name":"StatefulPartitionedCall/GhostNet/depthwise_conv2d_2/depthwise_weights","shape":[3,3,32,1],"dtype":"float32","quantization":{"dtype":"float16","original_dtype":"float32"}},{"name":"StatefulPartitionedCall/GhostNet/depthwise_conv2d_2/depthwise_bn_offset","shape":[32],"dtype":"float32","quantization":{"dtype":"float16","original_dtype":"float32"}},{"name":"StatefulPartitionedCall/GhostNet/depthwise_conv2d_3/depthwise_weights","shape":[3,3,64,1],"dtype":"float32","quantization":{"dtype":"float16","original_dtype":"float32"}},{"name":"StatefulPartitionedCall/GhostNet/depthwise_conv2d_3/depthwise_bn_offset","shape":[64],"dtype":"float32","quantization":{"dtype":"float16","original_dtype":"float32"}},{"name":"StatefulPartitionedCall/GhostNet/conv2d_4/Conv2D_weights","shape":[1,1,64,16],"dtype":"float32","quantization":{"dtype":"float16","original_dtype":"float32"}},{"name":"StatefulPartitionedCall/GhostNet/conv2d_4/Conv2D_bn_offset","shape":[16],"dtype":"float32","quantization":{"dtype":"float16","original_dtype":"float32"}},{"name":"StatefulPartitionedCall/GhostNet/depthwise_conv2d_4/depthwise_weights","shape":[3,3,16,1],"dtype":"float32","quantization":{"dtype":"float16","original_dtype":"float32"}},{"name":"StatefulPartitionedCall/GhostNet/depthwise_conv2d_4/depthwise_bn_offset","shape":[16],"dtype":"float32","quantization":{"dtype":"float16","original_dtype":"float32"}},{"name":"StatefulPartitionedCall/GhostNet/conv2d_6/Conv2D_weights","shape":[1,1,32,46],"dtype":"float32","quantization":{"dtype":"float16","original_dtype":"float32"}},{"name":"StatefulPartitionedCall/GhostNet/conv2d_6/Conv2D_bn_offset","shape":[46],"dtype":"float32","quantization":{"dtype":"float16","original_dtype":"float32"}},{"name":"StatefulPartitionedCall/GhostNet/depthwise_conv2d_6/depthwise_weights","shape":[3,3,46,1],"dtype":"float32","quantization":{"dtype":"float16","original_dtype":"float32"}},{"name":"StatefulPartitionedCall/GhostNet/depthwise_conv2d_6/depthwise_bn_offset","shape":[46],"dtype":"float32","quantization":{"dtype":"float16","original_dtype":"float32"}},{"name":"StatefulPartitionedCall/GhostNet/conv2d_7/Conv2D_weights","shape":[1,1,92,16],"dtype":"float32","quantization":{"dtype":"float16","original_dtype":"float32"}},{"name":"StatefulPartitionedCall/GhostNet/conv2d_7/Conv2D_bn_offset","shape":[16],"dtype":"float32","quantization":{"dtype":"float16","original_dtype":"float32"}},{"name":"StatefulPartitionedCall/GhostNet/depthwise_conv2d_7/depthwise_weights","shape":[3,3,16,1],"dtype":"float32","quantization":{"dtype":"float16","original_dtype":"float32"}},{"name":"StatefulPartitionedCall/GhostNet/depthwise_conv2d_7/depthwise_bn_offset","shape":[16],"dtype":"float32","quantization":{"dtype":"float16","original_dtype":"float32"}},{"name":"StatefulPartitionedCall/GhostNet/depthwise_conv2d_11/depthwise_weights","shape":[5,5,32,1],"dtype":"float32","quantization":{"dtype":"float16","original_dtype":"float32"}},{"name":"StatefulPartitionedCall/GhostNet/depthwise_conv2d_11/depthwise_bn_offset","shape":[32],"dtype":"float32","quantization":{"dtype":"float16","original_dtype":"float32"}},{"name":"StatefulPartitionedCall/GhostNet/conv2d_8/Conv2D_weights","shape":[1,1,32,46],"dtype":"float32","quantization":{"dtype":"float16","original_dtype":"float32"}},{"name":"StatefulPartitionedCall/GhostNet/conv2d_8/Conv2D_bn_offset","shape":[46],"dtype":"float32","quantization":{"dtype":"float16","original_dtype":"float32"}},{"name":"StatefulPartitionedCall/GhostNet/conv2d_12/Conv2D_weights","shape":[1,1,32,52],"dtype":"float32","quantization":{"dtype":"float16","original_dtype":"float32"}},{"name":"StatefulPartitionedCall/GhostNet/conv2d_12/Conv2D_bn_offset","shape":[52],"dtype":"float32","quantization":{"dtype":"float16","original_dtype":"float32"}},{"name":"StatefulPartitionedCall/GhostNet/depthwise_conv2d_8/depthwise_weights","shape":[3,3,46,1],"dtype":"float32","quantization":{"dtype":"float16","original_dtype":"float32"}},{"name":"StatefulPartitionedCall/GhostNet/depthwise_conv2d_8/depthwise_bn_offset","shape":[46],"dtype":"float32","quantization":{"dtype":"float16","original_dtype":"float32"}},{"name":"StatefulPartitionedCall/GhostNet/depthwise_conv2d_9/depthwise_weights","shape":[5,5,92,1],"dtype":"float32","quantization":{"dtype":"float16","original_dtype":"float32"}},{"name":"StatefulPartitionedCall/GhostNet/depthwise_conv2d_9/depthwise_bn_offset","shape":[92],"dtype":"float32","quantization":{"dtype":"float16","original_dtype":"float32"}},{"name":"StatefulPartitionedCall/GhostNet/conv2d_11/Conv2D_weights","shape":[1,1,92,26],"dtype":"float32","quantization":{"dtype":"float16","original_dtype":"float32"}},{"name":"StatefulPartitionedCall/GhostNet/conv2d_11/Conv2D_bn_offset","shape":[26],"dtype":"float32","quantization":{"dtype":"float16","original_dtype":"float32"}},{"name":"StatefulPartitionedCall/GhostNet/depthwise_conv2d_10/depthwise_weights","shape":[3,3,26,1],"dtype":"float32","quantization":{"dtype":"float16","original_dtype":"float32"}},{"name":"StatefulPartitionedCall/GhostNet/depthwise_conv2d_10/depthwise_bn_offset","shape":[26],"dtype":"float32","quantization":{"dtype":"float16","original_dtype":"float32"}},{"name":"StatefulPartitionedCall/GhostNet/conv2d_13/Conv2D_weights","shape":[1,1,52,78],"dtype":"float32","quantization":{"dtype":"float16","original_dtype":"float32"}},{"name":"StatefulPartitionedCall/GhostNet/conv2d_13/Conv2D_bn_offset","shape":[78],"dtype":"float32","quantization":{"dtype":"float16","original_dtype":"float32"}},{"name":"StatefulPartitionedCall/GhostNet/depthwise_conv2d_12/depthwise_weights","shape":[3,3,78,1],"dtype":"float32","quantization":{"dtype":"float16","original_dtype":"float32"}},{"name":"StatefulPartitionedCall/GhostNet/depthwise_conv2d_12/depthwise_bn_offset","shape":[78],"dtype":"float32","quantization":{"dtype":"float16","original_dtype":"float32"}},{"name":"StatefulPartitionedCall/GhostNet/conv2d_16/Conv2D_weights","shape":[1,1,156,26],"dtype":"float32","quantization":{"dtype":"float16","original_dtype":"float32"}},{"name":"StatefulPartitionedCall/GhostNet/conv2d_16/Conv2D_bn_offset","shape":[26],"dtype":"float32","quantization":{"dtype":"float16","original_dtype":"float32"}},{"name":"StatefulPartitionedCall/GhostNet/depthwise_conv2d_13/depthwise_weights","shape":[3,3,26,1],"dtype":"float32","quantization":{"dtype":"float16","original_dtype":"float32"}},{"name":"StatefulPartitionedCall/GhostNet/depthwise_conv2d_13/depthwise_bn_offset","shape":[26],"dtype":"float32","quantization":{"dtype":"float16","original_dtype":"float32"}},{"name":"StatefulPartitionedCall/GhostNet/depthwise_conv2d_17/depthwise_weights","shape":[3,3,52,1],"dtype":"float32","quantization":{"dtype":"float16","original_dtype":"float32"}},{"name":"StatefulPartitionedCall/GhostNet/depthwise_conv2d_17/depthwise_bn_offset","shape":[52],"dtype":"float32","quantization":{"dtype":"float16","original_dtype":"float32"}},{"name":"StatefulPartitionedCall/GhostNet/conv2d_17/Conv2D_weights","shape":[1,1,52,156],"dtype":"float32","quantization":{"dtype":"float16","original_dtype":"float32"}},{"name":"StatefulPartitionedCall/GhostNet/conv2d_17/Conv2D_bn_offset","shape":[156],"dtype":"float32","quantization":{"dtype":"float16","original_dtype":"float32"}},{"name":"StatefulPartitionedCall/GhostNet/conv2d_19/Conv2D_weights","shape":[1,1,52,104],"dtype":"float32","quantization":{"dtype":"float16","original_dtype":"float32"}},{"name":"StatefulPartitionedCall/GhostNet/conv2d_19/Conv2D_bn_offset","shape":[104],"dtype":"float32","quantization":{"dtype":"float16","original_dtype":"float32"}},{"name":"StatefulPartitionedCall/GhostNet/depthwise_conv2d_14/depthwise_weights","shape":[3,3,156,1],"dtype":"float32","quantization":{"dtype":"float16","original_dtype":"float32"}},{"name":"StatefulPartitionedCall/GhostNet/depthwise_conv2d_14/depthwise_bn_offset","shape":[156],"dtype":"float32","quantization":{"dtype":"float16","original_dtype":"float32"}},{"name":"StatefulPartitionedCall/GhostNet/depthwise_conv2d_15/depthwise_weights","shape":[3,3,312,1],"dtype":"float32","quantization":{"dtype":"float16","original_dtype":"float32"}},{"name":"StatefulPartitionedCall/GhostNet/depthwise_conv2d_15/depthwise_bn_offset","shape":[312],"dtype":"float32","quantization":{"dtype":"float16","original_dtype":"float32"}},{"name":"StatefulPartitionedCall/GhostNet/conv2d_18/Conv2D_weights","shape":[1,1,312,52],"dtype":"float32","quantization":{"dtype":"float16","original_dtype":"float32"}},{"name":"StatefulPartitionedCall/GhostNet/conv2d_18/Conv2D_bn_offset","shape":[52],"dtype":"float32","quantization":{"dtype":"float16","original_dtype":"float32"}},{"name":"StatefulPartitionedCall/GhostNet/depthwise_conv2d_16/depthwise_weights","shape":[3,3,52,1],"dtype":"float32","quantization":{"dtype":"float16","original_dtype":"float32"}},{"name":"StatefulPartitionedCall/GhostNet/depthwise_conv2d_16/depthwise_bn_offset","shape":[52],"dtype":"float32","quantization":{"dtype":"float16","original_dtype":"float32"}},{"name":"StatefulPartitionedCall/GhostNet/conv2d_20/Conv2D_weights","shape":[1,1,104,130],"dtype":"float32","quantization":{"dtype":"float16","original_dtype":"float32"}},{"name":"StatefulPartitionedCall/GhostNet/conv2d_20/Conv2D_bn_offset","shape":[130],"dtype":"float32","quantization":{"dtype":"float16","original_dtype":"float32"}},{"name":"StatefulPartitionedCall/GhostNet/depthwise_conv2d_18/depthwise_weights","shape":[3,3,130,1],"dtype":"float32","quantization":{"dtype":"float16","original_dtype":"float32"}},{"name":"StatefulPartitionedCall/GhostNet/depthwise_conv2d_18/depthwise_bn_offset","shape":[130],"dtype":"float32","quantization":{"dtype":"float16","original_dtype":"float32"}},{"name":"StatefulPartitionedCall/GhostNet/conv2d_21/Conv2D_weights","shape":[1,1,260,52],"dtype":"float32","quantization":{"dtype":"float16","original_dtype":"float32"}},{"name":"StatefulPartitionedCall/GhostNet/conv2d_21/Conv2D_bn_offset","shape":[52],"dtype":"float32","quantization":{"dtype":"float16","original_dtype":"float32"}},{"name":"StatefulPartitionedCall/GhostNet/depthwise_conv2d_19/depthwise_weights","shape":[3,3,52,1],"dtype":"float32","quantization":{"dtype":"float16","original_dtype":"float32"}},{"name":"StatefulPartitionedCall/GhostNet/depthwise_conv2d_19/depthwise_bn_offset","shape":[52],"dtype":"float32","quantization":{"dtype":"float16","original_dtype":"float32"}},{"name":"StatefulPartitionedCall/GhostNet/conv2d_22/Conv2D_weights","shape":[1,1,104,120],"dtype":"float32","quantization":{"dtype":"float16","original_dtype":"float32"}},{"name":"StatefulPartitionedCall/GhostNet/conv2d_22/Conv2D_bn_offset","shape":[120],"dtype":"float32","quantization":{"dtype":"float16","original_dtype":"float32"}},{"name":"StatefulPartitionedCall/GhostNet/depthwise_conv2d_20/depthwise_weights","shape":[3,3,120,1],"dtype":"float32","quantization":{"dtype":"float16","original_dtype":"float32"}},{"name":"StatefulPartitionedCall/GhostNet/depthwise_conv2d_20/depthwise_bn_offset","shape":[120],"dtype":"float32","quantization":{"dtype":"float16","original_dtype":"float32"}},{"name":"StatefulPartitionedCall/GhostNet/conv2d_23/Conv2D_weights","shape":[1,1,240,52],"dtype":"float32","quantization":{"dtype":"float16","original_dtype":"float32"}},{"name":"StatefulPartitionedCall/GhostNet/conv2d_23/Conv2D_bn_offset","shape":[52],"dtype":"float32","quantization":{"dtype":"float16","original_dtype":"float32"}},{"name":"StatefulPartitionedCall/GhostNet/depthwise_conv2d_21/depthwise_weights","shape":[3,3,52,1],"dtype":"float32","quantization":{"dtype":"float16","original_dtype":"float32"}},{"name":"StatefulPartitionedCall/GhostNet/depthwise_conv2d_21/depthwise_bn_offset","shape":[52],"dtype":"float32","quantization":{"dtype":"float16","original_dtype":"float32"}},{"name":"StatefulPartitionedCall/GhostNet/conv2d_24/Conv2D_weights","shape":[1,1,104,120],"dtype":"float32","quantization":{"dtype":"float16","original_dtype":"float32"}},{"name":"StatefulPartitionedCall/GhostNet/conv2d_24/Conv2D_bn_offset","shape":[120],"dtype":"float32","quantization":{"dtype":"float16","original_dtype":"float32"}},{"name":"StatefulPartitionedCall/GhostNet/depthwise_conv2d_22/depthwise_weights","shape":[3,3,120,1],"dtype":"float32","quantization":{"dtype":"float16","original_dtype":"float32"}},{"name":"StatefulPartitionedCall/GhostNet/depthwise_conv2d_22/depthwise_bn_offset","shape":[120],"dtype":"float32","quantization":{"dtype":"float16","original_dtype":"float32"}},{"name":"StatefulPartitionedCall/GhostNet/conv2d_25/Conv2D_weights","shape":[1,1,240,52],"dtype":"float32","quantization":{"dtype":"float16","original_dtype":"float32"}},{"name":"StatefulPartitionedCall/GhostNet/conv2d_25/Conv2D_bn_offset","shape":[52],"dtype":"float32","quantization":{"dtype":"float16","original_dtype":"float32"}},{"name":"StatefulPartitionedCall/GhostNet/depthwise_conv2d_23/depthwise_weights","shape":[3,3,52,1],"dtype":"float32","quantization":{"dtype":"float16","original_dtype":"float32"}},{"name":"StatefulPartitionedCall/GhostNet/depthwise_conv2d_23/depthwise_bn_offset","shape":[52],"dtype":"float32","quantization":{"dtype":"float16","original_dtype":"float32"}},{"name":"StatefulPartitionedCall/GhostNet/depthwise_conv2d_26/depthwise_weights","shape":[3,3,104,1],"dtype":"float32","quantization":{"dtype":"float16","original_dtype":"float32"}},{"name":"StatefulPartitionedCall/GhostNet/depthwise_conv2d_26/depthwise_bn_offset","shape":[104],"dtype":"float32","quantization":{"dtype":"float16","original_dtype":"float32"}},{"name":"StatefulPartitionedCall/GhostNet/conv2d_26/Conv2D_weights","shape":[1,1,104,312],"dtype":"float32","quantization":{"dtype":"float16","original_dtype":"float32"}},{"name":"StatefulPartitionedCall/GhostNet/conv2d_26/Conv2D_bn_offset","shape":[312],"dtype":"float32","quantization":{"dtype":"float16","original_dtype":"float32"}},{"name":"StatefulPartitionedCall/GhostNet/conv2d_30/Conv2D_weights","shape":[1,1,104,144],"dtype":"float32","quantization":{"dtype":"float16","original_dtype":"float32"}},{"name":"StatefulPartitionedCall/GhostNet/conv2d_30/Conv2D_bn_offset","shape":[144],"dtype":"float32","quantization":{"dtype":"float16","original_dtype":"float32"}},{"name":"StatefulPartitionedCall/GhostNet/depthwise_conv2d_24/depthwise_weights","shape":[3,3,312,1],"dtype":"float32","quantization":{"dtype":"float16","original_dtype":"float32"}},{"name":"StatefulPartitionedCall/GhostNet/depthwise_conv2d_24/depthwise_bn_offset","shape":[312],"dtype":"float32","quantization":{"dtype":"float16","original_dtype":"float32"}},{"name":"StatefulPartitionedCall/GhostNet/conv2d_29/Conv2D_weights","shape":[1,1,624,72],"dtype":"float32","quantization":{"dtype":"float16","original_dtype":"float32"}},{"name":"StatefulPartitionedCall/GhostNet/conv2d_29/Conv2D_bn_offset","shape":[72],"dtype":"float32","quantization":{"dtype":"float16","original_dtype":"float32"}},{"name":"StatefulPartitionedCall/GhostNet/depthwise_conv2d_25/depthwise_weights","shape":[3,3,72,1],"dtype":"float32","quantization":{"dtype":"float16","original_dtype":"float32"}},{"name":"StatefulPartitionedCall/GhostNet/depthwise_conv2d_25/depthwise_bn_offset","shape":[72],"dtype":"float32","quantization":{"dtype":"float16","original_dtype":"float32"}},{"name":"StatefulPartitionedCall/GhostNet/conv2d_31/Conv2D_weights","shape":[1,1,144,436],"dtype":"float32","quantization":{"dtype":"float16","original_dtype":"float32"}},{"name":"StatefulPartitionedCall/GhostNet/conv2d_31/Conv2D_bn_offset","shape":[436],"dtype":"float32","quantization":{"dtype":"float16","original_dtype":"float32"}},{"name":"StatefulPartitionedCall/GhostNet/depthwise_conv2d_27/depthwise_weights","shape":[3,3,436,1],"dtype":"float32","quantization":{"dtype":"float16","original_dtype":"float32"}},{"name":"StatefulPartitionedCall/GhostNet/depthwise_conv2d_27/depthwise_bn_offset","shape":[436],"dtype":"float32","quantization":{"dtype":"float16","original_dtype":"float32"}},{"name":"StatefulPartitionedCall/GhostNet/conv2d_34/Conv2D_weights","shape":[1,1,872,72],"dtype":"float32","quantization":{"dtype":"float16","original_dtype":"float32"}},{"name":"StatefulPartitionedCall/GhostNet/conv2d_34/Conv2D_bn_offset","shape":[72],"dtype":"float32","quantization":{"dtype":"float16","original_dtype":"float32"}},{"name":"StatefulPartitionedCall/GhostNet/depthwise_conv2d_28/depthwise_weights","shape":[3,3,72,1],"dtype":"float32","quantization":{"dtype":"float16","original_dtype":"float32"}},{"name":"StatefulPartitionedCall/GhostNet/depthwise_conv2d_28/depthwise_bn_offset","shape":[72],"dtype":"float32","quantization":{"dtype":"float16","original_dtype":"float32"}},{"name":"StatefulPartitionedCall/GhostNet/depthwise_conv2d_32/depthwise_weights","shape":[5,5,144,1],"dtype":"float32","quantization":{"dtype":"float16","original_dtype":"float32"}},{"name":"StatefulPartitionedCall/GhostNet/depthwise_conv2d_32/depthwise_bn_offset","shape":[144],"dtype":"float32","quantization":{"dtype":"float16","original_dtype":"float32"}},{"name":"StatefulPartitionedCall/GhostNet/conv2d_35/Conv2D_weights","shape":[1,1,144,436],"dtype":"float32","quantization":{"dtype":"float16","original_dtype":"float32"}},{"name":"StatefulPartitionedCall/GhostNet/conv2d_35/Conv2D_bn_offset","shape":[436],"dtype":"float32","quantization":{"dtype":"float16","original_dtype":"float32"}},{"name":"StatefulPartitionedCall/GhostNet/conv2d_39/Conv2D_weights","shape":[1,1,144,208],"dtype":"float32","quantization":{"dtype":"float16","original_dtype":"float32"}},{"name":"StatefulPartitionedCall/GhostNet/conv2d_39/Conv2D_bn_offset","shape":[208],"dtype":"float32","quantization":{"dtype":"float16","original_dtype":"float32"}},{"name":"StatefulPartitionedCall/GhostNet/depthwise_conv2d_29/depthwise_weights","shape":[3,3,436,1],"dtype":"float32","quantization":{"dtype":"float16","original_dtype":"float32"}},{"name":"StatefulPartitionedCall/GhostNet/depthwise_conv2d_29/depthwise_bn_offset","shape":[436],"dtype":"float32","quantization":{"dtype":"float16","original_dtype":"float32"}},{"name":"StatefulPartitionedCall/GhostNet/depthwise_conv2d_30/depthwise_weights","shape":[5,5,872,1],"dtype":"float32","quantization":{"dtype":"float16","original_dtype":"float32"}},{"name":"StatefulPartitionedCall/GhostNet/depthwise_conv2d_30/depthwise_bn_offset","shape":[872],"dtype":"float32","quantization":{"dtype":"float16","original_dtype":"float32"}},{"name":"StatefulPartitionedCall/GhostNet/conv2d_38/Conv2D_weights","shape":[1,1,872,104],"dtype":"float32","quantization":{"dtype":"float16","original_dtype":"float32"}},{"name":"StatefulPartitionedCall/GhostNet/conv2d_38/Conv2D_bn_offset","shape":[104],"dtype":"float32","quantization":{"dtype":"float16","original_dtype":"float32"}},{"name":"StatefulPartitionedCall/GhostNet/depthwise_conv2d_31/depthwise_weights","shape":[3,3,104,1],"dtype":"float32","quantization":{"dtype":"float16","original_dtype":"float32"}},{"name":"StatefulPartitionedCall/GhostNet/depthwise_conv2d_31/depthwise_bn_offset","shape":[104],"dtype":"float32","quantization":{"dtype":"float16","original_dtype":"float32"}},{"name":"StatefulPartitionedCall/GhostNet/conv2d_40/Conv2D_weights","shape":[1,1,208,624],"dtype":"float32","quantization":{"dtype":"float16","original_dtype":"float32"}},{"name":"StatefulPartitionedCall/GhostNet/conv2d_40/Conv2D_bn_offset","shape":[624],"dtype":"float32","quantization":{"dtype":"float16","original_dtype":"float32"}},{"name":"StatefulPartitionedCall/GhostNet/depthwise_conv2d_33/depthwise_weights","shape":[3,3,624,1],"dtype":"float32","quantization":{"dtype":"float16","original_dtype":"float32"}},{"name":"StatefulPartitionedCall/GhostNet/depthwise_conv2d_33/depthwise_bn_offset","shape":[624],"dtype":"float32","quantization":{"dtype":"float16","original_dtype":"float32"}},{"name":"StatefulPartitionedCall/GhostNet/conv2d_41/Conv2D_weights","shape":[1,1,1248,104],"dtype":"float32","quantization":{"dtype":"float16","original_dtype":"float32"}},{"name":"StatefulPartitionedCall/GhostNet/conv2d_41/Conv2D_bn_offset","shape":[104],"dtype":"float32","quantization":{"dtype":"float16","original_dtype":"float32"}},{"name":"StatefulPartitionedCall/GhostNet/depthwise_conv2d_34/depthwise_weights","shape":[3,3,104,1],"dtype":"float32","quantization":{"dtype":"float16","original_dtype":"float32"}},{"name":"StatefulPartitionedCall/GhostNet/depthwise_conv2d_34/depthwise_bn_offset","shape":[104],"dtype":"float32","quantization":{"dtype":"float16","original_dtype":"float32"}},{"name":"StatefulPartitionedCall/GhostNet/conv2d_42/Conv2D_weights","shape":[1,1,208,624],"dtype":"float32","quantization":{"dtype":"float16","original_dtype":"float32"}},{"name":"StatefulPartitionedCall/GhostNet/conv2d_42/Conv2D_bn_offset","shape":[624],"dtype":"float32","quantization":{"dtype":"float16","original_dtype":"float32"}},{"name":"StatefulPartitionedCall/GhostNet/depthwise_conv2d_35/depthwise_weights","shape":[3,3,624,1],"dtype":"float32","quantization":{"dtype":"float16","original_dtype":"float32"}},{"name":"StatefulPartitionedCall/GhostNet/depthwise_conv2d_35/depthwise_bn_offset","shape":[624],"dtype":"float32","quantization":{"dtype":"float16","original_dtype":"float32"}},{"name":"StatefulPartitionedCall/GhostNet/conv2d_45/Conv2D_weights","shape":[1,1,1248,104],"dtype":"float32","quantization":{"dtype":"float16","original_dtype":"float32"}},{"name":"StatefulPartitionedCall/GhostNet/conv2d_45/Conv2D_bn_offset","shape":[104],"dtype":"float32","quantization":{"dtype":"float16","original_dtype":"float32"}},{"name":"StatefulPartitionedCall/GhostNet/depthwise_conv2d_36/depthwise_weights","shape":[3,3,104,1],"dtype":"float32","quantization":{"dtype":"float16","original_dtype":"float32"}},{"name":"StatefulPartitionedCall/GhostNet/depthwise_conv2d_36/depthwise_bn_offset","shape":[104],"dtype":"float32","quantization":{"dtype":"float16","original_dtype":"float32"}},{"name":"StatefulPartitionedCall/GhostNet/conv2d_46/Conv2D_weights","shape":[1,1,208,624],"dtype":"float32","quantization":{"dtype":"float16","original_dtype":"float32"}},{"name":"StatefulPartitionedCall/GhostNet/conv2d_46/Conv2D_bn_offset","shape":[624],"dtype":"float32","quantization":{"dtype":"float16","original_dtype":"float32"}},{"name":"StatefulPartitionedCall/GhostNet/depthwise_conv2d_37/depthwise_weights","shape":[3,3,624,1],"dtype":"float32","quantization":{"dtype":"float16","original_dtype":"float32"}},{"name":"StatefulPartitionedCall/GhostNet/depthwise_conv2d_37/depthwise_bn_offset","shape":[624],"dtype":"float32","quantization":{"dtype":"float16","original_dtype":"float32"}},{"name":"StatefulPartitionedCall/GhostNet/conv2d_47/Conv2D_weights","shape":[1,1,1248,104],"dtype":"float32","quantization":{"dtype":"float16","original_dtype":"float32"}},{"name":"StatefulPartitionedCall/GhostNet/conv2d_47/Conv2D_bn_offset","shape":[104],"dtype":"float32","quantization":{"dtype":"float16","original_dtype":"float32"}},{"name":"StatefulPartitionedCall/GhostNet/depthwise_conv2d_38/depthwise_weights","shape":[3,3,104,1],"dtype":"float32","quantization":{"dtype":"float16","original_dtype":"float32"}},{"name":"StatefulPartitionedCall/GhostNet/depthwise_conv2d_38/depthwise_bn_offset","shape":[104],"dtype":"float32","quantization":{"dtype":"float16","original_dtype":"float32"}},{"name":"StatefulPartitionedCall/GhostNet/conv2d_48/Conv2D_weights","shape":[1,1,208,332],"dtype":"float32","quantization":{"dtype":"float16","original_dtype":"float32"}},{"name":"StatefulPartitionedCall/GhostNet/conv2d_48/Conv2D_bn_offset","shape":[332],"dtype":"float32","quantization":{"dtype":"float16","original_dtype":"float32"}},{"name":"StatefulPartitionedCall/GhostNet/depthwise_conv2d_39/depthwise_weights","shape":[3,3,332,1],"dtype":"float32","quantization":{"dtype":"float16","original_dtype":"float32"}},{"name":"StatefulPartitionedCall/GhostNet/depthwise_conv2d_39/depthwise_bn_offset","shape":[332],"dtype":"float32","quantization":{"dtype":"float16","original_dtype":"float32"}},{"name":"StatefulPartitionedCall/GhostNet/conv2d_51/Conv2D_weights","shape":[1,1,664,104],"dtype":"float32","quantization":{"dtype":"float16","original_dtype":"float32"}},{"name":"StatefulPartitionedCall/GhostNet/conv2d_51/Conv2D_bn_offset","shape":[104],"dtype":"float32","quantization":{"dtype":"float16","original_dtype":"float32"}},{"name":"StatefulPartitionedCall/GhostNet/depthwise_conv2d_40/depthwise_weights","shape":[3,3,104,1],"dtype":"float32","quantization":{"dtype":"float16","original_dtype":"float32"}},{"name":"StatefulPartitionedCall/GhostNet/depthwise_conv2d_40/depthwise_bn_offset","shape":[104],"dtype":"float32","quantization":{"dtype":"float16","original_dtype":"float32"}},{"name":"StatefulPartitionedCall/GhostNet/conv2d_52/Conv2D_weights","shape":[1,1,208,664],"dtype":"float32","quantization":{"dtype":"float16","original_dtype":"float32"}},{"name":"StatefulPartitionedCall/GhostNet/conv2d_52/Conv2D_bn_offset","shape":[664],"dtype":"float32","quantization":{"dtype":"float16","original_dtype":"float32"}},{"name":"StatefulPartitionedCall/GhostNet/depthwise_conv2d_41/depthwise_weights","shape":[7,7,664,1],"dtype":"float32","quantization":{"dtype":"float16","original_dtype":"float32"}},{"name":"StatefulPartitionedCall/GhostNet/depthwise_conv2d_41/depthwise_bn_offset","shape":[664],"dtype":"float32","quantization":{"dtype":"float16","original_dtype":"float32"}}]
      }
  ]
}