{
  "format": "graph-model",
  "generatedBy": "2.9.1",
  "convertedBy": "TensorFlow.js Converter v3.18.0",
  "signature":
  {
      "inputs":
      {
          "input_1": {"name":"input_1:0","dtype":"DT_FLOAT","tensorShape":{"dim":[{"size":"-1"},{"size":"112"},{"size":"112"},{"size":"3"}]}}
      },
      "outputs":
      {
          "embedding": {"name":"Identity:0","dtype":"DT_FLOAT","tensorShape":{"dim":[{"size":"-1"},{"size":"512"}]}}
      }
  },
  "modelTopology":
  {
      "node":
      [
          {"name":"StatefulPartitionedCall/model/tf.math.reduce_mean/Mean/reduction_indices","op":"Const","attr":{"value":{"tensor":{"dtype":"DT_INT32","tensorShape":{"dim":[{"size":"2"}]}}},"dtype":{"type":"DT_INT32"}}},
          {"name":"StatefulPartitionedCall/model/conv2d_11/Conv2D/Cast","op":"Const","attr":{"value":{"tensor":{"dtype":"DT_HALF","tensorShape":{"dim":[{"size":"1"},{"size":"1"},{"size":"192"},{"size":"12"}]}}},"dtype":{"type":"DT_HALF"}}},
          {"name":"StatefulPartitionedCall/model/conv2d_11/BiasAdd/Cast","op":"Const","attr":{"dtype":{"type":"DT_HALF"},"value":{"tensor":{"dtype":"DT_HALF","tensorShape":{"dim":[{"size":"12"}]}}}}},
          {"name":"StatefulPartitionedCall/model/conv2d_12/Conv2D/Cast","op":"Const","attr":{"value":{"tensor":{"dtype":"DT_HALF","tensorShape":{"dim":[{"size":"1"},{"size":"1"},{"size":"12"},{"size":"192"}]}}},"dtype":{"type":"DT_HALF"}}},
          {"name":"StatefulPartitionedCall/model/conv2d_12/BiasAdd/Cast","op":"Const","attr":{"dtype":{"type":"DT_HALF"},"value":{"tensor":{"dtype":"DT_HALF","tensorShape":{"dim":[{"size":"192"}]}}}}},
          {"name":"StatefulPartitionedCall/model/tf.math.reduce_mean_1/Mean/reduction_indices","op":"Const","attr":{"value":{"tensor":{"dtype":"DT_INT32","tensorShape":{"dim":[{"size":"2"}]}}},"dtype":{"type":"DT_INT32"}}},
          {"name":"StatefulPartitionedCall/model/conv2d_15/Conv2D/Cast","op":"Const","attr":{"dtype":{"type":"DT_HALF"},"value":{"tensor":{"dtype":"DT_HALF","tensorShape":{"dim":[{"size":"1"},{"size":"1"},{"size":"384"},{"size":"24"}]}}}}},
          {"name":"StatefulPartitionedCall/model/conv2d_15/BiasAdd/Cast","op":"Const","attr":{"dtype":{"type":"DT_HALF"},"value":{"tensor":{"dtype":"DT_HALF","tensorShape":{"dim":[{"size":"24"}]}}}}},
          {"name":"StatefulPartitionedCall/model/conv2d_16/Conv2D/Cast","op":"Const","attr":{"value":{"tensor":{"dtype":"DT_HALF","tensorShape":{"dim":[{"size":"1"},{"size":"1"},{"size":"24"},{"size":"384"}]}}},"dtype":{"type":"DT_HALF"}}},
          {"name":"StatefulPartitionedCall/model/conv2d_16/BiasAdd/Cast","op":"Const","attr":{"dtype":{"type":"DT_HALF"},"value":{"tensor":{"dtype":"DT_HALF","tensorShape":{"dim":[{"size":"384"}]}}}}},
          {"name":"StatefulPartitionedCall/model/tf.math.reduce_mean_2/Mean/reduction_indices","op":"Const","attr":{"dtype":{"type":"DT_INT32"},"value":{"tensor":{"dtype":"DT_INT32","tensorShape":{"dim":[{"size":"2"}]}}}}},
          {"name":"StatefulPartitionedCall/model/conv2d_19/Conv2D/Cast","op":"Const","attr":{"dtype":{"type":"DT_HALF"},"value":{"tensor":{"dtype":"DT_HALF","tensorShape":{"dim":[{"size":"1"},{"size":"1"},{"size":"384"},{"size":"24"}]}}}}},
          {"name":"StatefulPartitionedCall/model/conv2d_19/BiasAdd/Cast","op":"Const","attr":{"value":{"tensor":{"dtype":"DT_HALF","tensorShape":{"dim":[{"size":"24"}]}}},"dtype":{"type":"DT_HALF"}}},
          {"name":"StatefulPartitionedCall/model/conv2d_20/Conv2D/Cast","op":"Const","attr":{"dtype":{"type":"DT_HALF"},"value":{"tensor":{"dtype":"DT_HALF","tensorShape":{"dim":[{"size":"1"},{"size":"1"},{"size":"24"},{"size":"384"}]}}}}},
          {"name":"StatefulPartitionedCall/model/conv2d_20/BiasAdd/Cast","op":"Const","attr":{"value":{"tensor":{"dtype":"DT_HALF","tensorShape":{"dim":[{"size":"384"}]}}},"dtype":{"type":"DT_HALF"}}},
          {"name":"StatefulPartitionedCall/model/tf.math.reduce_mean_3/Mean/reduction_indices","op":"Const","attr":{"dtype":{"type":"DT_INT32"},"value":{"tensor":{"dtype":"DT_INT32","tensorShape":{"dim":[{"size":"2"}]}}}}},
          {"name":"StatefulPartitionedCall/model/conv2d_23/Conv2D/Cast","op":"Const","attr":{"value":{"tensor":{"dtype":"DT_HALF","tensorShape":{"dim":[{"size":"1"},{"size":"1"},{"size":"576"},{"size":"24"}]}}},"dtype":{"type":"DT_HALF"}}},
          {"name":"StatefulPartitionedCall/model/conv2d_23/BiasAdd/Cast","op":"Const","attr":{"dtype":{"type":"DT_HALF"},"value":{"tensor":{"dtype":"DT_HALF","tensorShape":{"dim":[{"size":"24"}]}}}}},
          {"name":"StatefulPartitionedCall/model/conv2d_24/Conv2D/Cast","op":"Const","attr":{"dtype":{"type":"DT_HALF"},"value":{"tensor":{"dtype":"DT_HALF","tensorShape":{"dim":[{"size":"1"},{"size":"1"},{"size":"24"},{"size":"576"}]}}}}},
          {"name":"StatefulPartitionedCall/model/conv2d_24/BiasAdd/Cast","op":"Const","attr":{"value":{"tensor":{"dtype":"DT_HALF","tensorShape":{"dim":[{"size":"576"}]}}},"dtype":{"type":"DT_HALF"}}},
          {"name":"StatefulPartitionedCall/model/tf.math.reduce_mean_4/Mean/reduction_indices","op":"Const","attr":{"dtype":{"type":"DT_INT32"},"value":{"tensor":{"dtype":"DT_INT32","tensorShape":{"dim":[{"size":"2"}]}}}}},
          {"name":"StatefulPartitionedCall/model/conv2d_27/Conv2D/Cast","op":"Const","attr":{"dtype":{"type":"DT_HALF"},"value":{"tensor":{"dtype":"DT_HALF","tensorShape":{"dim":[{"size":"1"},{"size":"1"},{"size":"672"},{"size":"28"}]}}}}},
          {"name":"StatefulPartitionedCall/model/conv2d_27/BiasAdd/Cast","op":"Const","attr":{"value":{"tensor":{"dtype":"DT_HALF","tensorShape":{"dim":[{"size":"28"}]}}},"dtype":{"type":"DT_HALF"}}},
          {"name":"StatefulPartitionedCall/model/conv2d_28/Conv2D/Cast","op":"Const","attr":{"dtype":{"type":"DT_HALF"},"value":{"tensor":{"dtype":"DT_HALF","tensorShape":{"dim":[{"size":"1"},{"size":"1"},{"size":"28"},{"size":"672"}]}}}}},
          {"name":"StatefulPartitionedCall/model/conv2d_28/BiasAdd/Cast","op":"Const","attr":{"value":{"tensor":{"dtype":"DT_HALF","tensorShape":{"dim":[{"size":"672"}]}}},"dtype":{"type":"DT_HALF"}}},
          {"name":"StatefulPartitionedCall/model/tf.math.reduce_mean_5/Mean/reduction_indices","op":"Const","attr":{"dtype":{"type":"DT_INT32"},"value":{"tensor":{"dtype":"DT_INT32","tensorShape":{"dim":[{"size":"2"}]}}}}},
          {"name":"StatefulPartitionedCall/model/conv2d_31/Conv2D/Cast","op":"Const","attr":{"dtype":{"type":"DT_HALF"},"value":{"tensor":{"dtype":"DT_HALF","tensorShape":{"dim":[{"size":"1"},{"size":"1"},{"size":"672"},{"size":"28"}]}}}}},
          {"name":"StatefulPartitionedCall/model/conv2d_31/BiasAdd/Cast","op":"Const","attr":{"value":{"tensor":{"dtype":"DT_HALF","tensorShape":{"dim":[{"size":"28"}]}}},"dtype":{"type":"DT_HALF"}}},
          {"name":"StatefulPartitionedCall/model/conv2d_32/Conv2D/Cast","op":"Const","attr":{"dtype":{"type":"DT_HALF"},"value":{"tensor":{"dtype":"DT_HALF","tensorShape":{"dim":[{"size":"1"},{"size":"1"},{"size":"28"},{"size":"672"}]}}}}},
          {"name":"StatefulPartitionedCall/model/conv2d_32/BiasAdd/Cast","op":"Const","attr":{"value":{"tensor":{"dtype":"DT_HALF","tensorShape":{"dim":[{"size":"672"}]}}},"dtype":{"type":"DT_HALF"}}},
          {"name":"StatefulPartitionedCall/model/tf.math.reduce_mean_6/Mean/reduction_indices","op":"Const","attr":{"value":{"tensor":{"dtype":"DT_INT32","tensorShape":{"dim":[{"size":"2"}]}}},"dtype":{"type":"DT_INT32"}}},
          {"name":"StatefulPartitionedCall/model/conv2d_35/Conv2D/Cast","op":"Const","attr":{"dtype":{"type":"DT_HALF"},"value":{"tensor":{"dtype":"DT_HALF","tensorShape":{"dim":[{"size":"1"},{"size":"1"},{"size":"672"},{"size":"28"}]}}}}},
          {"name":"StatefulPartitionedCall/model/conv2d_35/BiasAdd/Cast","op":"Const","attr":{"dtype":{"type":"DT_HALF"},"value":{"tensor":{"dtype":"DT_HALF","tensorShape":{"dim":[{"size":"28"}]}}}}},
          {"name":"StatefulPartitionedCall/model/conv2d_36/Conv2D/Cast","op":"Const","attr":{"value":{"tensor":{"dtype":"DT_HALF","tensorShape":{"dim":[{"size":"1"},{"size":"1"},{"size":"28"},{"size":"672"}]}}},"dtype":{"type":"DT_HALF"}}},
          {"name":"StatefulPartitionedCall/model/conv2d_36/BiasAdd/Cast","op":"Const","attr":{"value":{"tensor":{"dtype":"DT_HALF","tensorShape":{"dim":[{"size":"672"}]}}},"dtype":{"type":"DT_HALF"}}},
          {"name":"StatefulPartitionedCall/model/tf.math.reduce_mean_7/Mean/reduction_indices","op":"Const","attr":{"value":{"tensor":{"dtype":"DT_INT32","tensorShape":{"dim":[{"size":"2"}]}}},"dtype":{"type":"DT_INT32"}}},
          {"name":"StatefulPartitionedCall/model/conv2d_39/Conv2D/Cast","op":"Const","attr":{"value":{"tensor":{"dtype":"DT_HALF","tensorShape":{"dim":[{"size":"1"},{"size":"1"},{"size":"672"},{"size":"28"}]}}},"dtype":{"type":"DT_HALF"}}},
          {"name":"StatefulPartitionedCall/model/conv2d_39/BiasAdd/Cast","op":"Const","attr":{"dtype":{"type":"DT_HALF"},"value":{"tensor":{"dtype":"DT_HALF","tensorShape":{"dim":[{"size":"28"}]}}}}},
          {"name":"StatefulPartitionedCall/model/conv2d_40/Conv2D/Cast","op":"Const","attr":{"value":{"tensor":{"dtype":"DT_HALF","tensorShape":{"dim":[{"size":"1"},{"size":"1"},{"size":"28"},{"size":"672"}]}}},"dtype":{"type":"DT_HALF"}}},
          {"name":"StatefulPartitionedCall/model/conv2d_40/BiasAdd/Cast","op":"Const","attr":{"dtype":{"type":"DT_HALF"},"value":{"tensor":{"dtype":"DT_HALF","tensorShape":{"dim":[{"size":"672"}]}}}}},
          {"name":"StatefulPartitionedCall/model/tf.math.reduce_mean_8/Mean/reduction_indices","op":"Const","attr":{"dtype":{"type":"DT_INT32"},"value":{"tensor":{"dtype":"DT_INT32","tensorShape":{"dim":[{"size":"2"}]}}}}},
          {"name":"StatefulPartitionedCall/model/conv2d_43/Conv2D/Cast","op":"Const","attr":{"value":{"tensor":{"dtype":"DT_HALF","tensorShape":{"dim":[{"size":"1"},{"size":"1"},{"size":"672"},{"size":"28"}]}}},"dtype":{"type":"DT_HALF"}}},
          {"name":"StatefulPartitionedCall/model/conv2d_43/BiasAdd/Cast","op":"Const","attr":{"dtype":{"type":"DT_HALF"},"value":{"tensor":{"dtype":"DT_HALF","tensorShape":{"dim":[{"size":"28"}]}}}}},
          {"name":"StatefulPartitionedCall/model/conv2d_44/Conv2D/Cast","op":"Const","attr":{"dtype":{"type":"DT_HALF"},"value":{"tensor":{"dtype":"DT_HALF","tensorShape":{"dim":[{"size":"1"},{"size":"1"},{"size":"28"},{"size":"672"}]}}}}},
          {"name":"StatefulPartitionedCall/model/conv2d_44/BiasAdd/Cast","op":"Const","attr":{"value":{"tensor":{"dtype":"DT_HALF","tensorShape":{"dim":[{"size":"672"}]}}},"dtype":{"type":"DT_HALF"}}},
          {"name":"StatefulPartitionedCall/model/tf.math.reduce_mean_9/Mean/reduction_indices","op":"Const","attr":{"dtype":{"type":"DT_INT32"},"value":{"tensor":{"dtype":"DT_INT32","tensorShape":{"dim":[{"size":"2"}]}}}}},
          {"name":"StatefulPartitionedCall/model/conv2d_47/Conv2D/Cast","op":"Const","attr":{"dtype":{"type":"DT_HALF"},"value":{"tensor":{"dtype":"DT_HALF","tensorShape":{"dim":[{"size":"1"},{"size":"1"},{"size":"1152"},{"size":"48"}]}}}}},
          {"name":"StatefulPartitionedCall/model/conv2d_47/BiasAdd/Cast","op":"Const","attr":{"dtype":{"type":"DT_HALF"},"value":{"tensor":{"dtype":"DT_HALF","tensorShape":{"dim":[{"size":"48"}]}}}}},
          {"name":"StatefulPartitionedCall/model/conv2d_48/Conv2D/Cast","op":"Const","attr":{"dtype":{"type":"DT_HALF"},"value":{"tensor":{"dtype":"DT_HALF","tensorShape":{"dim":[{"size":"1"},{"size":"1"},{"size":"48"},{"size":"1152"}]}}}}},
          {"name":"StatefulPartitionedCall/model/conv2d_48/BiasAdd/Cast","op":"Const","attr":{"dtype":{"type":"DT_HALF"},"value":{"tensor":{"dtype":"DT_HALF","tensorShape":{"dim":[{"size":"1152"}]}}}}},
          {"name":"StatefulPartitionedCall/model/tf.math.reduce_mean_10/Mean/reduction_indices","op":"Const","attr":{"value":{"tensor":{"dtype":"DT_INT32","tensorShape":{"dim":[{"size":"2"}]}}},"dtype":{"type":"DT_INT32"}}},
          {"name":"StatefulPartitionedCall/model/conv2d_51/Conv2D/Cast","op":"Const","attr":{"dtype":{"type":"DT_HALF"},"value":{"tensor":{"dtype":"DT_HALF","tensorShape":{"dim":[{"size":"1"},{"size":"1"},{"size":"1152"},{"size":"48"}]}}}}},
          {"name":"StatefulPartitionedCall/model/conv2d_51/BiasAdd/Cast","op":"Const","attr":{"dtype":{"type":"DT_HALF"},"value":{"tensor":{"dtype":"DT_HALF","tensorShape":{"dim":[{"size":"48"}]}}}}},
          {"name":"StatefulPartitionedCall/model/conv2d_52/Conv2D/Cast","op":"Const","attr":{"value":{"tensor":{"dtype":"DT_HALF","tensorShape":{"dim":[{"size":"1"},{"size":"1"},{"size":"48"},{"size":"1152"}]}}},"dtype":{"type":"DT_HALF"}}},
          {"name":"StatefulPartitionedCall/model/conv2d_52/BiasAdd/Cast","op":"Const","attr":{"dtype":{"type":"DT_HALF"},"value":{"tensor":{"dtype":"DT_HALF","tensorShape":{"dim":[{"size":"1152"}]}}}}},
          {"name":"StatefulPartitionedCall/model/tf.math.reduce_mean_11/Mean/reduction_indices","op":"Const","attr":{"dtype":{"type":"DT_INT32"},"value":{"tensor":{"dtype":"DT_INT32","tensorShape":{"dim":[{"size":"2"}]}}}}},
          {"name":"StatefulPartitionedCall/model/conv2d_55/Conv2D/Cast","op":"Const","attr":{"value":{"tensor":{"dtype":"DT_HALF","tensorShape":{"dim":[{"size":"1"},{"size":"1"},{"size":"1152"},{"size":"48"}]}}},"dtype":{"type":"DT_HALF"}}},
          {"name":"StatefulPartitionedCall/model/conv2d_55/BiasAdd/Cast","op":"Const","attr":{"dtype":{"type":"DT_HALF"},"value":{"tensor":{"dtype":"DT_HALF","tensorShape":{"dim":[{"size":"48"}]}}}}},
          {"name":"StatefulPartitionedCall/model/conv2d_56/Conv2D/Cast","op":"Const","attr":{"dtype":{"type":"DT_HALF"},"value":{"tensor":{"dtype":"DT_HALF","tensorShape":{"dim":[{"size":"1"},{"size":"1"},{"size":"48"},{"size":"1152"}]}}}}},
          {"name":"StatefulPartitionedCall/model/conv2d_56/BiasAdd/Cast","op":"Const","attr":{"value":{"tensor":{"dtype":"DT_HALF","tensorShape":{"dim":[{"size":"1152"}]}}},"dtype":{"type":"DT_HALF"}}},
          {"name":"StatefulPartitionedCall/model/tf.math.reduce_mean_12/Mean/reduction_indices","op":"Const","attr":{"value":{"tensor":{"dtype":"DT_INT32","tensorShape":{"dim":[{"size":"2"}]}}},"dtype":{"type":"DT_INT32"}}},
          {"name":"StatefulPartitionedCall/model/conv2d_59/Conv2D/Cast","op":"Const","attr":{"value":{"tensor":{"dtype":"DT_HALF","tensorShape":{"dim":[{"size":"1"},{"size":"1"},{"size":"1152"},{"size":"48"}]}}},"dtype":{"type":"DT_HALF"}}},
          {"name":"StatefulPartitionedCall/model/conv2d_59/BiasAdd/Cast","op":"Const","attr":{"value":{"tensor":{"dtype":"DT_HALF","tensorShape":{"dim":[{"size":"48"}]}}},"dtype":{"type":"DT_HALF"}}},
          {"name":"StatefulPartitionedCall/model/conv2d_60/Conv2D/Cast","op":"Const","attr":{"value":{"tensor":{"dtype":"DT_HALF","tensorShape":{"dim":[{"size":"1"},{"size":"1"},{"size":"48"},{"size":"1152"}]}}},"dtype":{"type":"DT_HALF"}}},
          {"name":"StatefulPartitionedCall/model/conv2d_60/BiasAdd/Cast","op":"Const","attr":{"dtype":{"type":"DT_HALF"},"value":{"tensor":{"dtype":"DT_HALF","tensorShape":{"dim":[{"size":"1152"}]}}}}},
          {"name":"StatefulPartitionedCall/model/tf.math.reduce_mean_13/Mean/reduction_indices","op":"Const","attr":{"dtype":{"type":"DT_INT32"},"value":{"tensor":{"dtype":"DT_INT32","tensorShape":{"dim":[{"size":"2"}]}}}}},
          {"name":"StatefulPartitionedCall/model/conv2d_63/Conv2D/Cast","op":"Const","attr":{"value":{"tensor":{"dtype":"DT_HALF","tensorShape":{"dim":[{"size":"1"},{"size":"1"},{"size":"1152"},{"size":"48"}]}}},"dtype":{"type":"DT_HALF"}}},
          {"name":"StatefulPartitionedCall/model/conv2d_63/BiasAdd/Cast","op":"Const","attr":{"dtype":{"type":"DT_HALF"},"value":{"tensor":{"dtype":"DT_HALF","tensorShape":{"dim":[{"size":"48"}]}}}}},
          {"name":"StatefulPartitionedCall/model/conv2d_64/Conv2D/Cast","op":"Const","attr":{"dtype":{"type":"DT_HALF"},"value":{"tensor":{"dtype":"DT_HALF","tensorShape":{"dim":[{"size":"1"},{"size":"1"},{"size":"48"},{"size":"1152"}]}}}}},
          {"name":"StatefulPartitionedCall/model/conv2d_64/BiasAdd/Cast","op":"Const","attr":{"value":{"tensor":{"dtype":"DT_HALF","tensorShape":{"dim":[{"size":"1152"}]}}},"dtype":{"type":"DT_HALF"}}},
          {"name":"StatefulPartitionedCall/model/tf.math.reduce_mean_14/Mean/reduction_indices","op":"Const","attr":{"value":{"tensor":{"dtype":"DT_INT32","tensorShape":{"dim":[{"size":"2"}]}}},"dtype":{"type":"DT_INT32"}}},
          {"name":"StatefulPartitionedCall/model/conv2d_67/Conv2D/Cast","op":"Const","attr":{"value":{"tensor":{"dtype":"DT_HALF","tensorShape":{"dim":[{"size":"1"},{"size":"1"},{"size":"1152"},{"size":"48"}]}}},"dtype":{"type":"DT_HALF"}}},
          {"name":"StatefulPartitionedCall/model/conv2d_67/BiasAdd/Cast","op":"Const","attr":{"dtype":{"type":"DT_HALF"},"value":{"tensor":{"dtype":"DT_HALF","tensorShape":{"dim":[{"size":"48"}]}}}}},
          {"name":"StatefulPartitionedCall/model/conv2d_68/Conv2D/Cast","op":"Const","attr":{"dtype":{"type":"DT_HALF"},"value":{"tensor":{"dtype":"DT_HALF","tensorShape":{"dim":[{"size":"1"},{"size":"1"},{"size":"48"},{"size":"1152"}]}}}}},
          {"name":"StatefulPartitionedCall/model/conv2d_68/BiasAdd/Cast","op":"Const","attr":{"dtype":{"type":"DT_HALF"},"value":{"tensor":{"dtype":"DT_HALF","tensorShape":{"dim":[{"size":"1152"}]}}}}},
          {"name":"StatefulPartitionedCall/model/tf.math.reduce_mean_15/Mean/reduction_indices","op":"Const","attr":{"value":{"tensor":{"dtype":"DT_INT32","tensorShape":{"dim":[{"size":"2"}]}}},"dtype":{"type":"DT_INT32"}}},
          {"name":"StatefulPartitionedCall/model/conv2d_71/Conv2D/Cast","op":"Const","attr":{"dtype":{"type":"DT_HALF"},"value":{"tensor":{"dtype":"DT_HALF","tensorShape":{"dim":[{"size":"1"},{"size":"1"},{"size":"1152"},{"size":"48"}]}}}}},
          {"name":"StatefulPartitionedCall/model/conv2d_71/BiasAdd/Cast","op":"Const","attr":{"value":{"tensor":{"dtype":"DT_HALF","tensorShape":{"dim":[{"size":"48"}]}}},"dtype":{"type":"DT_HALF"}}},
          {"name":"StatefulPartitionedCall/model/conv2d_72/Conv2D/Cast","op":"Const","attr":{"dtype":{"type":"DT_HALF"},"value":{"tensor":{"dtype":"DT_HALF","tensorShape":{"dim":[{"size":"1"},{"size":"1"},{"size":"48"},{"size":"1152"}]}}}}},
          {"name":"StatefulPartitionedCall/model/conv2d_72/BiasAdd/Cast","op":"Const","attr":{"value":{"tensor":{"dtype":"DT_HALF","tensorShape":{"dim":[{"size":"1152"}]}}},"dtype":{"type":"DT_HALF"}}},
          {"name":"StatefulPartitionedCall/model/GDC_conv/Conv2D/Cast","op":"Const","attr":{"dtype":{"type":"DT_HALF"},"value":{"tensor":{"dtype":"DT_HALF","tensorShape":{"dim":[{"size":"1"},{"size":"1"},{"size":"1280"},{"size":"512"}]}}}}},
          {"name":"StatefulPartitionedCall/model/GDC_flatten/Const","op":"Const","attr":{"value":{"tensor":{"dtype":"DT_INT32","tensorShape":{"dim":[{"size":"2"}]}}},"dtype":{"type":"DT_INT32"}}},
          {"name":"StatefulPartitionedCall/model/pre_embedding/batchnorm/mul","op":"Const","attr":{"dtype":{"type":"DT_FLOAT"},"value":{"tensor":{"dtype":"DT_FLOAT","tensorShape":{"dim":[{"size":"512"}]}}}}},
          {"name":"StatefulPartitionedCall/model/pre_embedding/batchnorm/sub","op":"Const","attr":{"dtype":{"type":"DT_FLOAT"},"value":{"tensor":{"dtype":"DT_FLOAT","tensorShape":{"dim":[{"size":"512"}]}}}}},
          {"name":"input_1","op":"Placeholder","attr":{"dtype":{"type":"DT_FLOAT"},"shape":{"shape":{"dim":[{"size":"-1"},{"size":"112"},{"size":"112"},{"size":"3"}]}}}},
          {"name":"StatefulPartitionedCall/model/conv2d/Conv2D_weights","op":"Const","attr":{"dtype":{"type":"DT_HALF"},"value":{"tensor":{"dtype":"DT_HALF","tensorShape":{"dim":[{"size":"3"},{"size":"3"},{"size":"3"},{"size":"32"}]}}}}},
          {"name":"StatefulPartitionedCall/model/conv2d/Conv2D_bn_offset","op":"Const","attr":{"value":{"tensor":{"dtype":"DT_FLOAT","tensorShape":{"dim":[{"size":"32"}]}}},"dtype":{"type":"DT_FLOAT"}}},
          {"name":"StatefulPartitionedCall/model/conv2d_1/Conv2D_weights","op":"Const","attr":{"value":{"tensor":{"dtype":"DT_HALF","tensorShape":{"dim":[{"size":"3"},{"size":"3"},{"size":"32"},{"size":"16"}]}}},"dtype":{"type":"DT_HALF"}}},
          {"name":"StatefulPartitionedCall/model/conv2d_1/Conv2D_bn_offset","op":"Const","attr":{"value":{"tensor":{"dtype":"DT_FLOAT","tensorShape":{"dim":[{"size":"16"}]}}},"dtype":{"type":"DT_FLOAT"}}},
          {"name":"StatefulPartitionedCall/model/conv2d_2/Conv2D_weights","op":"Const","attr":{"dtype":{"type":"DT_HALF"},"value":{"tensor":{"dtype":"DT_HALF","tensorShape":{"dim":[{"size":"3"},{"size":"3"},{"size":"16"},{"size":"64"}]}}}}},
          {"name":"StatefulPartitionedCall/model/conv2d_2/Conv2D_bn_offset","op":"Const","attr":{"value":{"tensor":{"dtype":"DT_FLOAT","tensorShape":{"dim":[{"size":"64"}]}}},"dtype":{"type":"DT_FLOAT"}}},
          {"name":"StatefulPartitionedCall/model/conv2d_3/Conv2D_weights","op":"Const","attr":{"dtype":{"type":"DT_HALF"},"value":{"tensor":{"dtype":"DT_HALF","tensorShape":{"dim":[{"size":"1"},{"size":"1"},{"size":"64"},{"size":"32"}]}}}}},
          {"name":"StatefulPartitionedCall/model/conv2d_3/Conv2D_bn_offset","op":"Const","attr":{"value":{"tensor":{"dtype":"DT_FLOAT","tensorShape":{"dim":[{"size":"32"}]}}},"dtype":{"type":"DT_FLOAT"}}},
          {"name":"StatefulPartitionedCall/model/conv2d_4/Conv2D_weights","op":"Const","attr":{"value":{"tensor":{"dtype":"DT_HALF","tensorShape":{"dim":[{"size":"3"},{"size":"3"},{"size":"32"},{"size":"128"}]}}},"dtype":{"type":"DT_HALF"}}},
          {"name":"StatefulPartitionedCall/model/conv2d_4/Conv2D_bn_offset","op":"Const","attr":{"value":{"tensor":{"dtype":"DT_FLOAT","tensorShape":{"dim":[{"size":"128"}]}}},"dtype":{"type":"DT_FLOAT"}}},
          {"name":"StatefulPartitionedCall/model/conv2d_5/Conv2D_weights","op":"Const","attr":{"value":{"tensor":{"dtype":"DT_HALF","tensorShape":{"dim":[{"size":"1"},{"size":"1"},{"size":"128"},{"size":"32"}]}}},"dtype":{"type":"DT_HALF"}}},
          {"name":"StatefulPartitionedCall/model/conv2d_5/Conv2D_bn_offset","op":"Const","attr":{"value":{"tensor":{"dtype":"DT_FLOAT","tensorShape":{"dim":[{"size":"32"}]}}},"dtype":{"type":"DT_FLOAT"}}},
          {"name":"StatefulPartitionedCall/model/conv2d_6/Conv2D_weights","op":"Const","attr":{"dtype":{"type":"DT_HALF"},"value":{"tensor":{"dtype":"DT_HALF","tensorShape":{"dim":[{"size":"3"},{"size":"3"},{"size":"32"},{"size":"128"}]}}}}},
          {"name":"StatefulPartitionedCall/model/conv2d_6/Conv2D_bn_offset","op":"Const","attr":{"value":{"tensor":{"dtype":"DT_FLOAT","tensorShape":{"dim":[{"size":"128"}]}}},"dtype":{"type":"DT_FLOAT"}}},
          {"name":"StatefulPartitionedCall/model/conv2d_7/Conv2D_weights","op":"Const","attr":{"value":{"tensor":{"dtype":"DT_HALF","tensorShape":{"dim":[{"size":"1"},{"size":"1"},{"size":"128"},{"size":"48"}]}}},"dtype":{"type":"DT_HALF"}}},
          {"name":"StatefulPartitionedCall/model/conv2d_7/Conv2D_bn_offset","op":"Const","attr":{"value":{"tensor":{"dtype":"DT_FLOAT","tensorShape":{"dim":[{"size":"48"}]}}},"dtype":{"type":"DT_FLOAT"}}},
          {"name":"StatefulPartitionedCall/model/conv2d_8/Conv2D_weights","op":"Const","attr":{"dtype":{"type":"DT_HALF"},"value":{"tensor":{"dtype":"DT_HALF","tensorShape":{"dim":[{"size":"3"},{"size":"3"},{"size":"48"},{"size":"192"}]}}}}},
          {"name":"StatefulPartitionedCall/model/conv2d_8/Conv2D_bn_offset","op":"Const","attr":{"value":{"tensor":{"dtype":"DT_FLOAT","tensorShape":{"dim":[{"size":"192"}]}}},"dtype":{"type":"DT_FLOAT"}}},
          {"name":"StatefulPartitionedCall/model/conv2d_9/Conv2D_weights","op":"Const","attr":{"dtype":{"type":"DT_HALF"},"value":{"tensor":{"dtype":"DT_HALF","tensorShape":{"dim":[{"size":"1"},{"size":"1"},{"size":"192"},{"size":"48"}]}}}}},
          {"name":"StatefulPartitionedCall/model/conv2d_9/Conv2D_bn_offset","op":"Const","attr":{"dtype":{"type":"DT_FLOAT"},"value":{"tensor":{"dtype":"DT_FLOAT","tensorShape":{"dim":[{"size":"48"}]}}}}},
          {"name":"StatefulPartitionedCall/model/conv2d_10/Conv2D_weights","op":"Const","attr":{"value":{"tensor":{"dtype":"DT_HALF","tensorShape":{"dim":[{"size":"1"},{"size":"1"},{"size":"48"},{"size":"192"}]}}},"dtype":{"type":"DT_HALF"}}},
          {"name":"StatefulPartitionedCall/model/conv2d_10/Conv2D_bn_offset","op":"Const","attr":{"value":{"tensor":{"dtype":"DT_FLOAT","tensorShape":{"dim":[{"size":"192"}]}}},"dtype":{"type":"DT_FLOAT"}}},
          {"name":"StatefulPartitionedCall/model/depthwise_conv2d/depthwise_weights","op":"Const","attr":{"dtype":{"type":"DT_HALF"},"value":{"tensor":{"dtype":"DT_HALF","tensorShape":{"dim":[{"size":"3"},{"size":"3"},{"size":"192"},{"size":"1"}]}}}}},
          {"name":"StatefulPartitionedCall/model/depthwise_conv2d/depthwise_bn_offset","op":"Const","attr":{"value":{"tensor":{"dtype":"DT_FLOAT","tensorShape":{"dim":[{"size":"192"}]}}},"dtype":{"type":"DT_FLOAT"}}},
          {"name":"StatefulPartitionedCall/model/conv2d_13/Conv2D_weights","op":"Const","attr":{"dtype":{"type":"DT_HALF"},"value":{"tensor":{"dtype":"DT_HALF","tensorShape":{"dim":[{"size":"1"},{"size":"1"},{"size":"192"},{"size":"96"}]}}}}},
          {"name":"StatefulPartitionedCall/model/conv2d_13/Conv2D_bn_offset","op":"Const","attr":{"value":{"tensor":{"dtype":"DT_FLOAT","tensorShape":{"dim":[{"size":"96"}]}}},"dtype":{"type":"DT_FLOAT"}}},
          {"name":"StatefulPartitionedCall/model/conv2d_14/Conv2D_weights","op":"Const","attr":{"dtype":{"type":"DT_HALF"},"value":{"tensor":{"dtype":"DT_HALF","tensorShape":{"dim":[{"size":"1"},{"size":"1"},{"size":"96"},{"size":"384"}]}}}}},
          {"name":"StatefulPartitionedCall/model/conv2d_14/Conv2D_bn_offset","op":"Const","attr":{"value":{"tensor":{"dtype":"DT_FLOAT","tensorShape":{"dim":[{"size":"384"}]}}},"dtype":{"type":"DT_FLOAT"}}},
          {"name":"StatefulPartitionedCall/model/depthwise_conv2d_1/depthwise_weights","op":"Const","attr":{"value":{"tensor":{"dtype":"DT_HALF","tensorShape":{"dim":[{"size":"3"},{"size":"3"},{"size":"384"},{"size":"1"}]}}},"dtype":{"type":"DT_HALF"}}},
          {"name":"StatefulPartitionedCall/model/depthwise_conv2d_1/depthwise_bn_offset","op":"Const","attr":{"value":{"tensor":{"dtype":"DT_FLOAT","tensorShape":{"dim":[{"size":"384"}]}}},"dtype":{"type":"DT_FLOAT"}}},
          {"name":"StatefulPartitionedCall/model/conv2d_17/Conv2D_weights","op":"Const","attr":{"value":{"tensor":{"dtype":"DT_HALF","tensorShape":{"dim":[{"size":"1"},{"size":"1"},{"size":"384"},{"size":"96"}]}}},"dtype":{"type":"DT_HALF"}}},
          {"name":"StatefulPartitionedCall/model/conv2d_17/Conv2D_bn_offset","op":"Const","attr":{"value":{"tensor":{"dtype":"DT_FLOAT","tensorShape":{"dim":[{"size":"96"}]}}},"dtype":{"type":"DT_FLOAT"}}},
          {"name":"StatefulPartitionedCall/model/conv2d_18/Conv2D_weights","op":"Const","attr":{"dtype":{"type":"DT_HALF"},"value":{"tensor":{"dtype":"DT_HALF","tensorShape":{"dim":[{"size":"1"},{"size":"1"},{"size":"96"},{"size":"384"}]}}}}},
          {"name":"StatefulPartitionedCall/model/conv2d_18/Conv2D_bn_offset","op":"Const","attr":{"dtype":{"type":"DT_FLOAT"},"value":{"tensor":{"dtype":"DT_FLOAT","tensorShape":{"dim":[{"size":"384"}]}}}}},
          {"name":"StatefulPartitionedCall/model/depthwise_conv2d_2/depthwise_weights","op":"Const","attr":{"dtype":{"type":"DT_HALF"},"value":{"tensor":{"dtype":"DT_HALF","tensorShape":{"dim":[{"size":"3"},{"size":"3"},{"size":"384"},{"size":"1"}]}}}}},
          {"name":"StatefulPartitionedCall/model/depthwise_conv2d_2/depthwise_bn_offset","op":"Const","attr":{"dtype":{"type":"DT_FLOAT"},"value":{"tensor":{"dtype":"DT_FLOAT","tensorShape":{"dim":[{"size":"384"}]}}}}},
          {"name":"StatefulPartitionedCall/model/conv2d_21/Conv2D_weights","op":"Const","attr":{"value":{"tensor":{"dtype":"DT_HALF","tensorShape":{"dim":[{"size":"1"},{"size":"1"},{"size":"384"},{"size":"96"}]}}},"dtype":{"type":"DT_HALF"}}},
          {"name":"StatefulPartitionedCall/model/conv2d_21/Conv2D_bn_offset","op":"Const","attr":{"value":{"tensor":{"dtype":"DT_FLOAT","tensorShape":{"dim":[{"size":"96"}]}}},"dtype":{"type":"DT_FLOAT"}}},
          {"name":"StatefulPartitionedCall/model/conv2d_22/Conv2D_weights","op":"Const","attr":{"dtype":{"type":"DT_HALF"},"value":{"tensor":{"dtype":"DT_HALF","tensorShape":{"dim":[{"size":"1"},{"size":"1"},{"size":"96"},{"size":"576"}]}}}}},
          {"name":"StatefulPartitionedCall/model/conv2d_22/Conv2D_bn_offset","op":"Const","attr":{"value":{"tensor":{"dtype":"DT_FLOAT","tensorShape":{"dim":[{"size":"576"}]}}},"dtype":{"type":"DT_FLOAT"}}},
          {"name":"StatefulPartitionedCall/model/depthwise_conv2d_3/depthwise_weights","op":"Const","attr":{"value":{"tensor":{"dtype":"DT_HALF","tensorShape":{"dim":[{"size":"3"},{"size":"3"},{"size":"576"},{"size":"1"}]}}},"dtype":{"type":"DT_HALF"}}},
          {"name":"StatefulPartitionedCall/model/depthwise_conv2d_3/depthwise_bn_offset","op":"Const","attr":{"value":{"tensor":{"dtype":"DT_FLOAT","tensorShape":{"dim":[{"size":"576"}]}}},"dtype":{"type":"DT_FLOAT"}}},
          {"name":"StatefulPartitionedCall/model/conv2d_25/Conv2D_weights","op":"Const","attr":{"value":{"tensor":{"dtype":"DT_HALF","tensorShape":{"dim":[{"size":"1"},{"size":"1"},{"size":"576"},{"size":"112"}]}}},"dtype":{"type":"DT_HALF"}}},
          {"name":"StatefulPartitionedCall/model/conv2d_25/Conv2D_bn_offset","op":"Const","attr":{"dtype":{"type":"DT_FLOAT"},"value":{"tensor":{"dtype":"DT_FLOAT","tensorShape":{"dim":[{"size":"112"}]}}}}},
          {"name":"StatefulPartitionedCall/model/conv2d_26/Conv2D_weights","op":"Const","attr":{"dtype":{"type":"DT_HALF"},"value":{"tensor":{"dtype":"DT_HALF","tensorShape":{"dim":[{"size":"1"},{"size":"1"},{"size":"112"},{"size":"672"}]}}}}},
          {"name":"StatefulPartitionedCall/model/conv2d_26/Conv2D_bn_offset","op":"Const","attr":{"dtype":{"type":"DT_FLOAT"},"value":{"tensor":{"dtype":"DT_FLOAT","tensorShape":{"dim":[{"size":"672"}]}}}}},
          {"name":"StatefulPartitionedCall/model/depthwise_conv2d_4/depthwise_weights","op":"Const","attr":{"dtype":{"type":"DT_HALF"},"value":{"tensor":{"dtype":"DT_HALF","tensorShape":{"dim":[{"size":"3"},{"size":"3"},{"size":"672"},{"size":"1"}]}}}}},
          {"name":"StatefulPartitionedCall/model/depthwise_conv2d_4/depthwise_bn_offset","op":"Const","attr":{"value":{"tensor":{"dtype":"DT_FLOAT","tensorShape":{"dim":[{"size":"672"}]}}},"dtype":{"type":"DT_FLOAT"}}},
          {"name":"StatefulPartitionedCall/model/conv2d_29/Conv2D_weights","op":"Const","attr":{"value":{"tensor":{"dtype":"DT_HALF","tensorShape":{"dim":[{"size":"1"},{"size":"1"},{"size":"672"},{"size":"112"}]}}},"dtype":{"type":"DT_HALF"}}},
          {"name":"StatefulPartitionedCall/model/conv2d_29/Conv2D_bn_offset","op":"Const","attr":{"value":{"tensor":{"dtype":"DT_FLOAT","tensorShape":{"dim":[{"size":"112"}]}}},"dtype":{"type":"DT_FLOAT"}}},
          {"name":"StatefulPartitionedCall/model/conv2d_30/Conv2D_weights","op":"Const","attr":{"dtype":{"type":"DT_HALF"},"value":{"tensor":{"dtype":"DT_HALF","tensorShape":{"dim":[{"size":"1"},{"size":"1"},{"size":"112"},{"size":"672"}]}}}}},
          {"name":"StatefulPartitionedCall/model/conv2d_30/Conv2D_bn_offset","op":"Const","attr":{"value":{"tensor":{"dtype":"DT_FLOAT","tensorShape":{"dim":[{"size":"672"}]}}},"dtype":{"type":"DT_FLOAT"}}},
          {"name":"StatefulPartitionedCall/model/depthwise_conv2d_5/depthwise_weights","op":"Const","attr":{"value":{"tensor":{"dtype":"DT_HALF","tensorShape":{"dim":[{"size":"3"},{"size":"3"},{"size":"672"},{"size":"1"}]}}},"dtype":{"type":"DT_HALF"}}},
          {"name":"StatefulPartitionedCall/model/depthwise_conv2d_5/depthwise_bn_offset","op":"Const","attr":{"dtype":{"type":"DT_FLOAT"},"value":{"tensor":{"dtype":"DT_FLOAT","tensorShape":{"dim":[{"size":"672"}]}}}}},
          {"name":"StatefulPartitionedCall/model/conv2d_33/Conv2D_weights","op":"Const","attr":{"dtype":{"type":"DT_HALF"},"value":{"tensor":{"dtype":"DT_HALF","tensorShape":{"dim":[{"size":"1"},{"size":"1"},{"size":"672"},{"size":"112"}]}}}}},
          {"name":"StatefulPartitionedCall/model/conv2d_33/Conv2D_bn_offset","op":"Const","attr":{"dtype":{"type":"DT_FLOAT"},"value":{"tensor":{"dtype":"DT_FLOAT","tensorShape":{"dim":[{"size":"112"}]}}}}},
          {"name":"StatefulPartitionedCall/model/conv2d_34/Conv2D_weights","op":"Const","attr":{"value":{"tensor":{"dtype":"DT_HALF","tensorShape":{"dim":[{"size":"1"},{"size":"1"},{"size":"112"},{"size":"672"}]}}},"dtype":{"type":"DT_HALF"}}},
          {"name":"StatefulPartitionedCall/model/conv2d_34/Conv2D_bn_offset","op":"Const","attr":{"dtype":{"type":"DT_FLOAT"},"value":{"tensor":{"dtype":"DT_FLOAT","tensorShape":{"dim":[{"size":"672"}]}}}}},
          {"name":"StatefulPartitionedCall/model/depthwise_conv2d_6/depthwise_weights","op":"Const","attr":{"dtype":{"type":"DT_HALF"},"value":{"tensor":{"dtype":"DT_HALF","tensorShape":{"dim":[{"size":"3"},{"size":"3"},{"size":"672"},{"size":"1"}]}}}}},
          {"name":"StatefulPartitionedCall/model/depthwise_conv2d_6/depthwise_bn_offset","op":"Const","attr":{"dtype":{"type":"DT_FLOAT"},"value":{"tensor":{"dtype":"DT_FLOAT","tensorShape":{"dim":[{"size":"672"}]}}}}},
          {"name":"StatefulPartitionedCall/model/conv2d_37/Conv2D_weights","op":"Const","attr":{"value":{"tensor":{"dtype":"DT_HALF","tensorShape":{"dim":[{"size":"1"},{"size":"1"},{"size":"672"},{"size":"112"}]}}},"dtype":{"type":"DT_HALF"}}},
          {"name":"StatefulPartitionedCall/model/conv2d_37/Conv2D_bn_offset","op":"Const","attr":{"value":{"tensor":{"dtype":"DT_FLOAT","tensorShape":{"dim":[{"size":"112"}]}}},"dtype":{"type":"DT_FLOAT"}}},
          {"name":"StatefulPartitionedCall/model/conv2d_38/Conv2D_weights","op":"Const","attr":{"dtype":{"type":"DT_HALF"},"value":{"tensor":{"dtype":"DT_HALF","tensorShape":{"dim":[{"size":"1"},{"size":"1"},{"size":"112"},{"size":"672"}]}}}}},
          {"name":"StatefulPartitionedCall/model/conv2d_38/Conv2D_bn_offset","op":"Const","attr":{"dtype":{"type":"DT_FLOAT"},"value":{"tensor":{"dtype":"DT_FLOAT","tensorShape":{"dim":[{"size":"672"}]}}}}},
          {"name":"StatefulPartitionedCall/model/depthwise_conv2d_7/depthwise_weights","op":"Const","attr":{"value":{"tensor":{"dtype":"DT_HALF","tensorShape":{"dim":[{"size":"3"},{"size":"3"},{"size":"672"},{"size":"1"}]}}},"dtype":{"type":"DT_HALF"}}},
          {"name":"StatefulPartitionedCall/model/depthwise_conv2d_7/depthwise_bn_offset","op":"Const","attr":{"dtype":{"type":"DT_FLOAT"},"value":{"tensor":{"dtype":"DT_FLOAT","tensorShape":{"dim":[{"size":"672"}]}}}}},
          {"name":"StatefulPartitionedCall/model/conv2d_41/Conv2D_weights","op":"Const","attr":{"dtype":{"type":"DT_HALF"},"value":{"tensor":{"dtype":"DT_HALF","tensorShape":{"dim":[{"size":"1"},{"size":"1"},{"size":"672"},{"size":"112"}]}}}}},
          {"name":"StatefulPartitionedCall/model/conv2d_41/Conv2D_bn_offset","op":"Const","attr":{"value":{"tensor":{"dtype":"DT_FLOAT","tensorShape":{"dim":[{"size":"112"}]}}},"dtype":{"type":"DT_FLOAT"}}},
          {"name":"StatefulPartitionedCall/model/conv2d_42/Conv2D_weights","op":"Const","attr":{"dtype":{"type":"DT_HALF"},"value":{"tensor":{"dtype":"DT_HALF","tensorShape":{"dim":[{"size":"1"},{"size":"1"},{"size":"112"},{"size":"672"}]}}}}},
          {"name":"StatefulPartitionedCall/model/conv2d_42/Conv2D_bn_offset","op":"Const","attr":{"value":{"tensor":{"dtype":"DT_FLOAT","tensorShape":{"dim":[{"size":"672"}]}}},"dtype":{"type":"DT_FLOAT"}}},
          {"name":"StatefulPartitionedCall/model/depthwise_conv2d_8/depthwise_weights","op":"Const","attr":{"value":{"tensor":{"dtype":"DT_HALF","tensorShape":{"dim":[{"size":"3"},{"size":"3"},{"size":"672"},{"size":"1"}]}}},"dtype":{"type":"DT_HALF"}}},
          {"name":"StatefulPartitionedCall/model/depthwise_conv2d_8/depthwise_bn_offset","op":"Const","attr":{"dtype":{"type":"DT_FLOAT"},"value":{"tensor":{"dtype":"DT_FLOAT","tensorShape":{"dim":[{"size":"672"}]}}}}},
          {"name":"StatefulPartitionedCall/model/conv2d_45/Conv2D_weights","op":"Const","attr":{"dtype":{"type":"DT_HALF"},"value":{"tensor":{"dtype":"DT_HALF","tensorShape":{"dim":[{"size":"1"},{"size":"1"},{"size":"672"},{"size":"192"}]}}}}},
          {"name":"StatefulPartitionedCall/model/conv2d_45/Conv2D_bn_offset","op":"Const","attr":{"value":{"tensor":{"dtype":"DT_FLOAT","tensorShape":{"dim":[{"size":"192"}]}}},"dtype":{"type":"DT_FLOAT"}}},
          {"name":"StatefulPartitionedCall/model/conv2d_46/Conv2D_weights","op":"Const","attr":{"dtype":{"type":"DT_HALF"},"value":{"tensor":{"dtype":"DT_HALF","tensorShape":{"dim":[{"size":"1"},{"size":"1"},{"size":"192"},{"size":"1152"}]}}}}},
          {"name":"StatefulPartitionedCall/model/conv2d_46/Conv2D_bn_offset","op":"Const","attr":{"dtype":{"type":"DT_FLOAT"},"value":{"tensor":{"dtype":"DT_FLOAT","tensorShape":{"dim":[{"size":"1152"}]}}}}},
          {"name":"StatefulPartitionedCall/model/depthwise_conv2d_9/depthwise_weights","op":"Const","attr":{"dtype":{"type":"DT_HALF"},"value":{"tensor":{"dtype":"DT_HALF","tensorShape":{"dim":[{"size":"3"},{"size":"3"},{"size":"1152"},{"size":"1"}]}}}}},
          {"name":"StatefulPartitionedCall/model/depthwise_conv2d_9/depthwise_bn_offset","op":"Const","attr":{"dtype":{"type":"DT_FLOAT"},"value":{"tensor":{"dtype":"DT_FLOAT","tensorShape":{"dim":[{"size":"1152"}]}}}}},
          {"name":"StatefulPartitionedCall/model/conv2d_49/Conv2D_weights","op":"Const","attr":{"dtype":{"type":"DT_HALF"},"value":{"tensor":{"dtype":"DT_HALF","tensorShape":{"dim":[{"size":"1"},{"size":"1"},{"size":"1152"},{"size":"192"}]}}}}},
          {"name":"StatefulPartitionedCall/model/conv2d_49/Conv2D_bn_offset","op":"Const","attr":{"dtype":{"type":"DT_FLOAT"},"value":{"tensor":{"dtype":"DT_FLOAT","tensorShape":{"dim":[{"size":"192"}]}}}}},
          {"name":"StatefulPartitionedCall/model/conv2d_50/Conv2D_weights","op":"Const","attr":{"value":{"tensor":{"dtype":"DT_HALF","tensorShape":{"dim":[{"size":"1"},{"size":"1"},{"size":"192"},{"size":"1152"}]}}},"dtype":{"type":"DT_HALF"}}},
          {"name":"StatefulPartitionedCall/model/conv2d_50/Conv2D_bn_offset","op":"Const","attr":{"dtype":{"type":"DT_FLOAT"},"value":{"tensor":{"dtype":"DT_FLOAT","tensorShape":{"dim":[{"size":"1152"}]}}}}},
          {"name":"StatefulPartitionedCall/model/depthwise_conv2d_10/depthwise_weights","op":"Const","attr":{"value":{"tensor":{"dtype":"DT_HALF","tensorShape":{"dim":[{"size":"3"},{"size":"3"},{"size":"1152"},{"size":"1"}]}}},"dtype":{"type":"DT_HALF"}}},
          {"name":"StatefulPartitionedCall/model/depthwise_conv2d_10/depthwise_bn_offset","op":"Const","attr":{"dtype":{"type":"DT_FLOAT"},"value":{"tensor":{"dtype":"DT_FLOAT","tensorShape":{"dim":[{"size":"1152"}]}}}}},
          {"name":"StatefulPartitionedCall/model/conv2d_53/Conv2D_weights","op":"Const","attr":{"value":{"tensor":{"dtype":"DT_HALF","tensorShape":{"dim":[{"size":"1"},{"size":"1"},{"size":"1152"},{"size":"192"}]}}},"dtype":{"type":"DT_HALF"}}},
          {"name":"StatefulPartitionedCall/model/conv2d_53/Conv2D_bn_offset","op":"Const","attr":{"value":{"tensor":{"dtype":"DT_FLOAT","tensorShape":{"dim":[{"size":"192"}]}}},"dtype":{"type":"DT_FLOAT"}}},
          {"name":"StatefulPartitionedCall/model/conv2d_54/Conv2D_weights","op":"Const","attr":{"dtype":{"type":"DT_HALF"},"value":{"tensor":{"dtype":"DT_HALF","tensorShape":{"dim":[{"size":"1"},{"size":"1"},{"size":"192"},{"size":"1152"}]}}}}},
          {"name":"StatefulPartitionedCall/model/conv2d_54/Conv2D_bn_offset","op":"Const","attr":{"dtype":{"type":"DT_FLOAT"},"value":{"tensor":{"dtype":"DT_FLOAT","tensorShape":{"dim":[{"size":"1152"}]}}}}},
          {"name":"StatefulPartitionedCall/model/depthwise_conv2d_11/depthwise_weights","op":"Const","attr":{"dtype":{"type":"DT_HALF"},"value":{"tensor":{"dtype":"DT_HALF","tensorShape":{"dim":[{"size":"3"},{"size":"3"},{"size":"1152"},{"size":"1"}]}}}}},
          {"name":"StatefulPartitionedCall/model/depthwise_conv2d_11/depthwise_bn_offset","op":"Const","attr":{"dtype":{"type":"DT_FLOAT"},"value":{"tensor":{"dtype":"DT_FLOAT","tensorShape":{"dim":[{"size":"1152"}]}}}}},
          {"name":"StatefulPartitionedCall/model/conv2d_57/Conv2D_weights","op":"Const","attr":{"value":{"tensor":{"dtype":"DT_HALF","tensorShape":{"dim":[{"size":"1"},{"size":"1"},{"size":"1152"},{"size":"192"}]}}},"dtype":{"type":"DT_HALF"}}},
          {"name":"StatefulPartitionedCall/model/conv2d_57/Conv2D_bn_offset","op":"Const","attr":{"dtype":{"type":"DT_FLOAT"},"value":{"tensor":{"dtype":"DT_FLOAT","tensorShape":{"dim":[{"size":"192"}]}}}}},
          {"name":"StatefulPartitionedCall/model/conv2d_58/Conv2D_weights","op":"Const","attr":{"dtype":{"type":"DT_HALF"},"value":{"tensor":{"dtype":"DT_HALF","tensorShape":{"dim":[{"size":"1"},{"size":"1"},{"size":"192"},{"size":"1152"}]}}}}},
          {"name":"StatefulPartitionedCall/model/conv2d_58/Conv2D_bn_offset","op":"Const","attr":{"dtype":{"type":"DT_FLOAT"},"value":{"tensor":{"dtype":"DT_FLOAT","tensorShape":{"dim":[{"size":"1152"}]}}}}},
          {"name":"StatefulPartitionedCall/model/depthwise_conv2d_12/depthwise_weights","op":"Const","attr":{"value":{"tensor":{"dtype":"DT_HALF","tensorShape":{"dim":[{"size":"3"},{"size":"3"},{"size":"1152"},{"size":"1"}]}}},"dtype":{"type":"DT_HALF"}}},
          {"name":"StatefulPartitionedCall/model/depthwise_conv2d_12/depthwise_bn_offset","op":"Const","attr":{"dtype":{"type":"DT_FLOAT"},"value":{"tensor":{"dtype":"DT_FLOAT","tensorShape":{"dim":[{"size":"1152"}]}}}}},
          {"name":"StatefulPartitionedCall/model/conv2d_61/Conv2D_weights","op":"Const","attr":{"dtype":{"type":"DT_HALF"},"value":{"tensor":{"dtype":"DT_HALF","tensorShape":{"dim":[{"size":"1"},{"size":"1"},{"size":"1152"},{"size":"192"}]}}}}},
          {"name":"StatefulPartitionedCall/model/conv2d_61/Conv2D_bn_offset","op":"Const","attr":{"dtype":{"type":"DT_FLOAT"},"value":{"tensor":{"dtype":"DT_FLOAT","tensorShape":{"dim":[{"size":"192"}]}}}}},
          {"name":"StatefulPartitionedCall/model/conv2d_62/Conv2D_weights","op":"Const","attr":{"value":{"tensor":{"dtype":"DT_HALF","tensorShape":{"dim":[{"size":"1"},{"size":"1"},{"size":"192"},{"size":"1152"}]}}},"dtype":{"type":"DT_HALF"}}},
          {"name":"StatefulPartitionedCall/model/conv2d_62/Conv2D_bn_offset","op":"Const","attr":{"dtype":{"type":"DT_FLOAT"},"value":{"tensor":{"dtype":"DT_FLOAT","tensorShape":{"dim":[{"size":"1152"}]}}}}},
          {"name":"StatefulPartitionedCall/model/depthwise_conv2d_13/depthwise_weights","op":"Const","attr":{"dtype":{"type":"DT_HALF"},"value":{"tensor":{"dtype":"DT_HALF","tensorShape":{"dim":[{"size":"3"},{"size":"3"},{"size":"1152"},{"size":"1"}]}}}}},
          {"name":"StatefulPartitionedCall/model/depthwise_conv2d_13/depthwise_bn_offset","op":"Const","attr":{"dtype":{"type":"DT_FLOAT"},"value":{"tensor":{"dtype":"DT_FLOAT","tensorShape":{"dim":[{"size":"1152"}]}}}}},
          {"name":"StatefulPartitionedCall/model/conv2d_65/Conv2D_weights","op":"Const","attr":{"dtype":{"type":"DT_HALF"},"value":{"tensor":{"dtype":"DT_HALF","tensorShape":{"dim":[{"size":"1"},{"size":"1"},{"size":"1152"},{"size":"192"}]}}}}},
          {"name":"StatefulPartitionedCall/model/conv2d_65/Conv2D_bn_offset","op":"Const","attr":{"dtype":{"type":"DT_FLOAT"},"value":{"tensor":{"dtype":"DT_FLOAT","tensorShape":{"dim":[{"size":"192"}]}}}}},
          {"name":"StatefulPartitionedCall/model/conv2d_66/Conv2D_weights","op":"Const","attr":{"value":{"tensor":{"dtype":"DT_HALF","tensorShape":{"dim":[{"size":"1"},{"size":"1"},{"size":"192"},{"size":"1152"}]}}},"dtype":{"type":"DT_HALF"}}},
          {"name":"StatefulPartitionedCall/model/conv2d_66/Conv2D_bn_offset","op":"Const","attr":{"dtype":{"type":"DT_FLOAT"},"value":{"tensor":{"dtype":"DT_FLOAT","tensorShape":{"dim":[{"size":"1152"}]}}}}},
          {"name":"StatefulPartitionedCall/model/depthwise_conv2d_14/depthwise_weights","op":"Const","attr":{"value":{"tensor":{"dtype":"DT_HALF","tensorShape":{"dim":[{"size":"3"},{"size":"3"},{"size":"1152"},{"size":"1"}]}}},"dtype":{"type":"DT_HALF"}}},
          {"name":"StatefulPartitionedCall/model/depthwise_conv2d_14/depthwise_bn_offset","op":"Const","attr":{"dtype":{"type":"DT_FLOAT"},"value":{"tensor":{"dtype":"DT_FLOAT","tensorShape":{"dim":[{"size":"1152"}]}}}}},
          {"name":"StatefulPartitionedCall/model/conv2d_69/Conv2D_weights","op":"Const","attr":{"value":{"tensor":{"dtype":"DT_HALF","tensorShape":{"dim":[{"size":"1"},{"size":"1"},{"size":"1152"},{"size":"192"}]}}},"dtype":{"type":"DT_HALF"}}},
          {"name":"StatefulPartitionedCall/model/conv2d_69/Conv2D_bn_offset","op":"Const","attr":{"value":{"tensor":{"dtype":"DT_FLOAT","tensorShape":{"dim":[{"size":"192"}]}}},"dtype":{"type":"DT_FLOAT"}}},
          {"name":"StatefulPartitionedCall/model/conv2d_70/Conv2D_weights","op":"Const","attr":{"dtype":{"type":"DT_HALF"},"value":{"tensor":{"dtype":"DT_HALF","tensorShape":{"dim":[{"size":"1"},{"size":"1"},{"size":"192"},{"size":"1152"}]}}}}},
          {"name":"StatefulPartitionedCall/model/conv2d_70/Conv2D_bn_offset","op":"Const","attr":{"dtype":{"type":"DT_FLOAT"},"value":{"tensor":{"dtype":"DT_FLOAT","tensorShape":{"dim":[{"size":"1152"}]}}}}},
          {"name":"StatefulPartitionedCall/model/depthwise_conv2d_15/depthwise_weights","op":"Const","attr":{"dtype":{"type":"DT_HALF"},"value":{"tensor":{"dtype":"DT_HALF","tensorShape":{"dim":[{"size":"3"},{"size":"3"},{"size":"1152"},{"size":"1"}]}}}}},
          {"name":"StatefulPartitionedCall/model/depthwise_conv2d_15/depthwise_bn_offset","op":"Const","attr":{"value":{"tensor":{"dtype":"DT_FLOAT","tensorShape":{"dim":[{"size":"1152"}]}}},"dtype":{"type":"DT_FLOAT"}}},
          {"name":"StatefulPartitionedCall/model/conv2d_73/Conv2D_weights","op":"Const","attr":{"dtype":{"type":"DT_HALF"},"value":{"tensor":{"dtype":"DT_HALF","tensorShape":{"dim":[{"size":"1"},{"size":"1"},{"size":"1152"},{"size":"192"}]}}}}},
          {"name":"StatefulPartitionedCall/model/conv2d_73/Conv2D_bn_offset","op":"Const","attr":{"value":{"tensor":{"dtype":"DT_FLOAT","tensorShape":{"dim":[{"size":"192"}]}}},"dtype":{"type":"DT_FLOAT"}}},
          {"name":"StatefulPartitionedCall/model/conv2d_74/Conv2D_weights","op":"Const","attr":{"dtype":{"type":"DT_HALF"},"value":{"tensor":{"dtype":"DT_HALF","tensorShape":{"dim":[{"size":"1"},{"size":"1"},{"size":"192"},{"size":"1280"}]}}}}},
          {"name":"StatefulPartitionedCall/model/conv2d_74/Conv2D_bn_offset","op":"Const","attr":{"value":{"tensor":{"dtype":"DT_FLOAT","tensorShape":{"dim":[{"size":"1280"}]}}},"dtype":{"type":"DT_FLOAT"}}},
          {"name":"StatefulPartitionedCall/model/GDC_dw/depthwise_weights","op":"Const","attr":{"value":{"tensor":{"dtype":"DT_HALF","tensorShape":{"dim":[{"size":"4"},{"size":"4"},{"size":"1280"},{"size":"1"}]}}},"dtype":{"type":"DT_HALF"}}},
          {"name":"StatefulPartitionedCall/model/GDC_dw/depthwise_bn_offset","op":"Const","attr":{"value":{"tensor":{"dtype":"DT_FLOAT","tensorShape":{"dim":[{"size":"1280"}]}}},"dtype":{"type":"DT_FLOAT"}}},
          {"name":"StatefulPartitionedCall/model/conv2d/Cast","op":"Cast","input":["input_1"],"attr":{"Truncate":{"b":false},"DstT":{"type":"DT_HALF"},"SrcT":{"type":"DT_FLOAT"}}},
          {"name":"StatefulPartitionedCall/model/conv2d/Conv2D","op":"Conv2D","input":["StatefulPartitionedCall/model/conv2d/Cast","StatefulPartitionedCall/model/conv2d/Conv2D_weights"],"device":"/device:CPU:0","attr":{"T":{"type":"DT_HALF"},"explicit_paddings":{"list":{}},"strides":{"list":{"i":["1","2","2","1"]}},"padding":{"s":"U0FNRQ=="},"data_format":{"s":"TkhXQw=="},"use_cudnn_on_gpu":{"b":true},"dilations":{"list":{"i":["1","1","1","1"]}}}},
          {"name":"StatefulPartitionedCall/model/batch_normalization/FusedBatchNormV3","op":"BiasAdd","input":["StatefulPartitionedCall/model/conv2d/Conv2D","StatefulPartitionedCall/model/conv2d/Conv2D_bn_offset"],"attr":{"data_format":{"s":"TkhXQw=="},"T":{"type":"DT_HALF"}}},
          {"name":"StatefulPartitionedCall/model/activation/Sigmoid","op":"Sigmoid","input":["StatefulPartitionedCall/model/batch_normalization/FusedBatchNormV3"],"attr":{"T":{"type":"DT_HALF"}}},
          {"name":"StatefulPartitionedCall/model/activation/mul_1","op":"Mul","input":["StatefulPartitionedCall/model/batch_normalization/FusedBatchNormV3","StatefulPartitionedCall/model/activation/Sigmoid"],"attr":{"T":{"type":"DT_HALF"}}},
          {"name":"StatefulPartitionedCall/model/conv2d_1/Conv2D","op":"Conv2D","input":["StatefulPartitionedCall/model/activation/mul_1","StatefulPartitionedCall/model/conv2d_1/Conv2D_weights"],"device":"/device:CPU:0","attr":{"padding":{"s":"U0FNRQ=="},"T":{"type":"DT_HALF"},"strides":{"list":{"i":["1","1","1","1"]}},"explicit_paddings":{"list":{}},"dilations":{"list":{"i":["1","1","1","1"]}},"use_cudnn_on_gpu":{"b":true},"data_format":{"s":"TkhXQw=="}}},
          {"name":"StatefulPartitionedCall/model/batch_normalization_1/FusedBatchNormV3","op":"BiasAdd","input":["StatefulPartitionedCall/model/conv2d_1/Conv2D","StatefulPartitionedCall/model/conv2d_1/Conv2D_bn_offset"],"attr":{"data_format":{"s":"TkhXQw=="},"T":{"type":"DT_HALF"}}},
          {"name":"StatefulPartitionedCall/model/activation_1/Sigmoid","op":"Sigmoid","input":["StatefulPartitionedCall/model/batch_normalization_1/FusedBatchNormV3"],"attr":{"T":{"type":"DT_HALF"}}},
          {"name":"StatefulPartitionedCall/model/activation_1/mul_1","op":"Mul","input":["StatefulPartitionedCall/model/batch_normalization_1/FusedBatchNormV3","StatefulPartitionedCall/model/activation_1/Sigmoid"],"attr":{"T":{"type":"DT_HALF"}}},
          {"name":"StatefulPartitionedCall/model/conv2d_2/Conv2D","op":"Conv2D","input":["StatefulPartitionedCall/model/activation_1/mul_1","StatefulPartitionedCall/model/conv2d_2/Conv2D_weights"],"device":"/device:CPU:0","attr":{"padding":{"s":"U0FNRQ=="},"T":{"type":"DT_HALF"},"dilations":{"list":{"i":["1","1","1","1"]}},"use_cudnn_on_gpu":{"b":true},"data_format":{"s":"TkhXQw=="},"explicit_paddings":{"list":{}},"strides":{"list":{"i":["1","2","2","1"]}}}},
          {"name":"StatefulPartitionedCall/model/batch_normalization_2/FusedBatchNormV3","op":"BiasAdd","input":["StatefulPartitionedCall/model/conv2d_2/Conv2D","StatefulPartitionedCall/model/conv2d_2/Conv2D_bn_offset"],"attr":{"T":{"type":"DT_HALF"},"data_format":{"s":"TkhXQw=="}}},
          {"name":"StatefulPartitionedCall/model/activation_2/Sigmoid","op":"Sigmoid","input":["StatefulPartitionedCall/model/batch_normalization_2/FusedBatchNormV3"],"attr":{"T":{"type":"DT_HALF"}}},
          {"name":"StatefulPartitionedCall/model/activation_2/mul_1","op":"Mul","input":["StatefulPartitionedCall/model/batch_normalization_2/FusedBatchNormV3","StatefulPartitionedCall/model/activation_2/Sigmoid"],"attr":{"T":{"type":"DT_HALF"}}},
          {"name":"StatefulPartitionedCall/model/conv2d_3/Conv2D","op":"Conv2D","input":["StatefulPartitionedCall/model/activation_2/mul_1","StatefulPartitionedCall/model/conv2d_3/Conv2D_weights"],"device":"/device:CPU:0","attr":{"strides":{"list":{"i":["1","1","1","1"]}},"T":{"type":"DT_HALF"},"data_format":{"s":"TkhXQw=="},"dilations":{"list":{"i":["1","1","1","1"]}},"use_cudnn_on_gpu":{"b":true},"padding":{"s":"U0FNRQ=="},"explicit_paddings":{"list":{}}}},
          {"name":"StatefulPartitionedCall/model/batch_normalization_3/FusedBatchNormV3","op":"BiasAdd","input":["StatefulPartitionedCall/model/conv2d_3/Conv2D","StatefulPartitionedCall/model/conv2d_3/Conv2D_bn_offset"],"attr":{"T":{"type":"DT_HALF"},"data_format":{"s":"TkhXQw=="}}},
          {"name":"StatefulPartitionedCall/model/conv2d_4/Conv2D","op":"Conv2D","input":["StatefulPartitionedCall/model/batch_normalization_3/FusedBatchNormV3","StatefulPartitionedCall/model/conv2d_4/Conv2D_weights"],"device":"/device:CPU:0","attr":{"explicit_paddings":{"list":{}},"strides":{"list":{"i":["1","1","1","1"]}},"dilations":{"list":{"i":["1","1","1","1"]}},"use_cudnn_on_gpu":{"b":true},"data_format":{"s":"TkhXQw=="},"T":{"type":"DT_HALF"},"padding":{"s":"U0FNRQ=="}}},
          {"name":"StatefulPartitionedCall/model/batch_normalization_4/FusedBatchNormV3","op":"BiasAdd","input":["StatefulPartitionedCall/model/conv2d_4/Conv2D","StatefulPartitionedCall/model/conv2d_4/Conv2D_bn_offset"],"attr":{"T":{"type":"DT_HALF"},"data_format":{"s":"TkhXQw=="}}},
          {"name":"StatefulPartitionedCall/model/activation_3/Sigmoid","op":"Sigmoid","input":["StatefulPartitionedCall/model/batch_normalization_4/FusedBatchNormV3"],"attr":{"T":{"type":"DT_HALF"}}},
          {"name":"StatefulPartitionedCall/model/activation_3/mul_1","op":"Mul","input":["StatefulPartitionedCall/model/batch_normalization_4/FusedBatchNormV3","StatefulPartitionedCall/model/activation_3/Sigmoid"],"attr":{"T":{"type":"DT_HALF"}}},
          {"name":"StatefulPartitionedCall/model/conv2d_5/Conv2D","op":"Conv2D","input":["StatefulPartitionedCall/model/activation_3/mul_1","StatefulPartitionedCall/model/conv2d_5/Conv2D_weights"],"device":"/device:CPU:0","attr":{"dilations":{"list":{"i":["1","1","1","1"]}},"padding":{"s":"U0FNRQ=="},"explicit_paddings":{"list":{}},"T":{"type":"DT_HALF"},"strides":{"list":{"i":["1","1","1","1"]}},"data_format":{"s":"TkhXQw=="},"use_cudnn_on_gpu":{"b":true}}},
          {"name":"StatefulPartitionedCall/model/batch_normalization_5/FusedBatchNormV3","op":"BiasAdd","input":["StatefulPartitionedCall/model/conv2d_5/Conv2D","StatefulPartitionedCall/model/conv2d_5/Conv2D_bn_offset"],"attr":{"T":{"type":"DT_HALF"},"data_format":{"s":"TkhXQw=="}}},
          {"name":"StatefulPartitionedCall/model/add/add","op":"AddV2","input":["StatefulPartitionedCall/model/batch_normalization_3/FusedBatchNormV3","StatefulPartitionedCall/model/batch_normalization_5/FusedBatchNormV3"],"attr":{"T":{"type":"DT_HALF"}}},
          {"name":"StatefulPartitionedCall/model/conv2d_6/Conv2D","op":"Conv2D","input":["StatefulPartitionedCall/model/add/add","StatefulPartitionedCall/model/conv2d_6/Conv2D_weights"],"device":"/device:CPU:0","attr":{"padding":{"s":"U0FNRQ=="},"dilations":{"list":{"i":["1","1","1","1"]}},"strides":{"list":{"i":["1","2","2","1"]}},"T":{"type":"DT_HALF"},"explicit_paddings":{"list":{}},"data_format":{"s":"TkhXQw=="},"use_cudnn_on_gpu":{"b":true}}},
          {"name":"StatefulPartitionedCall/model/batch_normalization_6/FusedBatchNormV3","op":"BiasAdd","input":["StatefulPartitionedCall/model/conv2d_6/Conv2D","StatefulPartitionedCall/model/conv2d_6/Conv2D_bn_offset"],"attr":{"data_format":{"s":"TkhXQw=="},"T":{"type":"DT_HALF"}}},
          {"name":"StatefulPartitionedCall/model/activation_4/Sigmoid","op":"Sigmoid","input":["StatefulPartitionedCall/model/batch_normalization_6/FusedBatchNormV3"],"attr":{"T":{"type":"DT_HALF"}}},
          {"name":"StatefulPartitionedCall/model/activation_4/mul_1","op":"Mul","input":["StatefulPartitionedCall/model/batch_normalization_6/FusedBatchNormV3","StatefulPartitionedCall/model/activation_4/Sigmoid"],"attr":{"T":{"type":"DT_HALF"}}},
          {"name":"StatefulPartitionedCall/model/conv2d_7/Conv2D","op":"Conv2D","input":["StatefulPartitionedCall/model/activation_4/mul_1","StatefulPartitionedCall/model/conv2d_7/Conv2D_weights"],"device":"/device:CPU:0","attr":{"T":{"type":"DT_HALF"},"explicit_paddings":{"list":{}},"strides":{"list":{"i":["1","1","1","1"]}},"dilations":{"list":{"i":["1","1","1","1"]}},"use_cudnn_on_gpu":{"b":true},"padding":{"s":"U0FNRQ=="},"data_format":{"s":"TkhXQw=="}}},
          {"name":"StatefulPartitionedCall/model/batch_normalization_7/FusedBatchNormV3","op":"BiasAdd","input":["StatefulPartitionedCall/model/conv2d_7/Conv2D","StatefulPartitionedCall/model/conv2d_7/Conv2D_bn_offset"],"attr":{"T":{"type":"DT_HALF"},"data_format":{"s":"TkhXQw=="}}},
          {"name":"StatefulPartitionedCall/model/conv2d_8/Conv2D","op":"Conv2D","input":["StatefulPartitionedCall/model/batch_normalization_7/FusedBatchNormV3","StatefulPartitionedCall/model/conv2d_8/Conv2D_weights"],"device":"/device:CPU:0","attr":{"padding":{"s":"U0FNRQ=="},"T":{"type":"DT_HALF"},"use_cudnn_on_gpu":{"b":true},"strides":{"list":{"i":["1","1","1","1"]}},"data_format":{"s":"TkhXQw=="},"dilations":{"list":{"i":["1","1","1","1"]}},"explicit_paddings":{"list":{}}}},
          {"name":"StatefulPartitionedCall/model/batch_normalization_8/FusedBatchNormV3","op":"BiasAdd","input":["StatefulPartitionedCall/model/conv2d_8/Conv2D","StatefulPartitionedCall/model/conv2d_8/Conv2D_bn_offset"],"attr":{"T":{"type":"DT_HALF"},"data_format":{"s":"TkhXQw=="}}},
          {"name":"StatefulPartitionedCall/model/activation_5/Sigmoid","op":"Sigmoid","input":["StatefulPartitionedCall/model/batch_normalization_8/FusedBatchNormV3"],"attr":{"T":{"type":"DT_HALF"}}},
          {"name":"StatefulPartitionedCall/model/activation_5/mul_1","op":"Mul","input":["StatefulPartitionedCall/model/batch_normalization_8/FusedBatchNormV3","StatefulPartitionedCall/model/activation_5/Sigmoid"],"attr":{"T":{"type":"DT_HALF"}}},
          {"name":"StatefulPartitionedCall/model/conv2d_9/Conv2D","op":"Conv2D","input":["StatefulPartitionedCall/model/activation_5/mul_1","StatefulPartitionedCall/model/conv2d_9/Conv2D_weights"],"device":"/device:CPU:0","attr":{"data_format":{"s":"TkhXQw=="},"padding":{"s":"U0FNRQ=="},"explicit_paddings":{"list":{}},"T":{"type":"DT_HALF"},"use_cudnn_on_gpu":{"b":true},"dilations":{"list":{"i":["1","1","1","1"]}},"strides":{"list":{"i":["1","1","1","1"]}}}},
          {"name":"StatefulPartitionedCall/model/batch_normalization_9/FusedBatchNormV3","op":"BiasAdd","input":["StatefulPartitionedCall/model/conv2d_9/Conv2D","StatefulPartitionedCall/model/conv2d_9/Conv2D_bn_offset"],"attr":{"data_format":{"s":"TkhXQw=="},"T":{"type":"DT_HALF"}}},
          {"name":"StatefulPartitionedCall/model/add_1/add","op":"AddV2","input":["StatefulPartitionedCall/model/batch_normalization_7/FusedBatchNormV3","StatefulPartitionedCall/model/batch_normalization_9/FusedBatchNormV3"],"attr":{"T":{"type":"DT_HALF"}}},
          {"name":"StatefulPartitionedCall/model/conv2d_10/Conv2D","op":"Conv2D","input":["StatefulPartitionedCall/model/add_1/add","StatefulPartitionedCall/model/conv2d_10/Conv2D_weights"],"device":"/device:CPU:0","attr":{"T":{"type":"DT_HALF"},"explicit_paddings":{"list":{}},"padding":{"s":"U0FNRQ=="},"dilations":{"list":{"i":["1","1","1","1"]}},"use_cudnn_on_gpu":{"b":true},"data_format":{"s":"TkhXQw=="},"strides":{"list":{"i":["1","1","1","1"]}}}},
          {"name":"StatefulPartitionedCall/model/batch_normalization_10/FusedBatchNormV3","op":"BiasAdd","input":["StatefulPartitionedCall/model/conv2d_10/Conv2D","StatefulPartitionedCall/model/conv2d_10/Conv2D_bn_offset"],"attr":{"T":{"type":"DT_HALF"},"data_format":{"s":"TkhXQw=="}}},
          {"name":"StatefulPartitionedCall/model/activation_6/Sigmoid","op":"Sigmoid","input":["StatefulPartitionedCall/model/batch_normalization_10/FusedBatchNormV3"],"attr":{"T":{"type":"DT_HALF"}}},
          {"name":"StatefulPartitionedCall/model/activation_6/mul_1","op":"Mul","input":["StatefulPartitionedCall/model/batch_normalization_10/FusedBatchNormV3","StatefulPartitionedCall/model/activation_6/Sigmoid"],"attr":{"T":{"type":"DT_HALF"}}},
          {"name":"StatefulPartitionedCall/model/depthwise_conv2d/depthwise","op":"FusedDepthwiseConv2dNative","input":["StatefulPartitionedCall/model/activation_6/mul_1","StatefulPartitionedCall/model/depthwise_conv2d/depthwise_weights","StatefulPartitionedCall/model/depthwise_conv2d/depthwise_bn_offset"],"attr":{"dilations":{"list":{"i":["1","1","1","1"]}},"fused_ops":{"list":{"s":["Qmlhc0FkZA=="]}},"padding":{"s":"U0FNRQ=="},"num_args":{"i":"1"},"explicit_paddings":{"list":{}},"T":{"type":"DT_HALF"},"strides":{"list":{"i":["1","2","2","1"]}},"data_format":{"s":"TkhXQw=="}}},
          {"name":"StatefulPartitionedCall/model/activation_7/Sigmoid","op":"Sigmoid","input":["StatefulPartitionedCall/model/depthwise_conv2d/depthwise"],"attr":{"T":{"type":"DT_HALF"}}},
          {"name":"StatefulPartitionedCall/model/activation_7/mul_1","op":"Mul","input":["StatefulPartitionedCall/model/depthwise_conv2d/depthwise","StatefulPartitionedCall/model/activation_7/Sigmoid"],"attr":{"T":{"type":"DT_HALF"}}},
          {"name":"StatefulPartitionedCall/model/tf.math.reduce_mean/Mean","op":"Mean","input":["StatefulPartitionedCall/model/activation_7/mul_1","StatefulPartitionedCall/model/tf.math.reduce_mean/Mean/reduction_indices"],"attr":{"T":{"type":"DT_HALF"},"keep_dims":{"b":true},"Tidx":{"type":"DT_INT32"}}},
          {"name":"StatefulPartitionedCall/model/conv2d_11/Conv2D","op":"Conv2D","input":["StatefulPartitionedCall/model/tf.math.reduce_mean/Mean","StatefulPartitionedCall/model/conv2d_11/Conv2D/Cast"],"device":"/device:CPU:0","attr":{"explicit_paddings":{"list":{}},"T":{"type":"DT_HALF"},"dilations":{"list":{"i":["1","1","1","1"]}},"padding":{"s":"VkFMSUQ="},"data_format":{"s":"TkhXQw=="},"use_cudnn_on_gpu":{"b":true},"strides":{"list":{"i":["1","1","1","1"]}}}},
          {"name":"StatefulPartitionedCall/model/conv2d_11/BiasAdd","op":"BiasAdd","input":["StatefulPartitionedCall/model/conv2d_11/Conv2D","StatefulPartitionedCall/model/conv2d_11/BiasAdd/Cast"],"attr":{"data_format":{"s":"TkhXQw=="},"T":{"type":"DT_HALF"}}},
          {"name":"StatefulPartitionedCall/model/activation_8/Sigmoid","op":"Sigmoid","input":["StatefulPartitionedCall/model/conv2d_11/BiasAdd"],"attr":{"T":{"type":"DT_HALF"}}},
          {"name":"StatefulPartitionedCall/model/activation_8/mul_1","op":"Mul","input":["StatefulPartitionedCall/model/conv2d_11/BiasAdd","StatefulPartitionedCall/model/activation_8/Sigmoid"],"attr":{"T":{"type":"DT_HALF"}}},
          {"name":"StatefulPartitionedCall/model/conv2d_12/Conv2D","op":"Conv2D","input":["StatefulPartitionedCall/model/activation_8/mul_1","StatefulPartitionedCall/model/conv2d_12/Conv2D/Cast"],"device":"/device:CPU:0","attr":{"data_format":{"s":"TkhXQw=="},"T":{"type":"DT_HALF"},"strides":{"list":{"i":["1","1","1","1"]}},"dilations":{"list":{"i":["1","1","1","1"]}},"use_cudnn_on_gpu":{"b":true},"explicit_paddings":{"list":{}},"padding":{"s":"VkFMSUQ="}}},
          {"name":"StatefulPartitionedCall/model/conv2d_12/BiasAdd","op":"BiasAdd","input":["StatefulPartitionedCall/model/conv2d_12/Conv2D","StatefulPartitionedCall/model/conv2d_12/BiasAdd/Cast"],"attr":{"T":{"type":"DT_HALF"},"data_format":{"s":"TkhXQw=="}}},
          {"name":"StatefulPartitionedCall/model/activation_9/Sigmoid","op":"Sigmoid","input":["StatefulPartitionedCall/model/conv2d_12/BiasAdd"],"attr":{"T":{"type":"DT_HALF"}}},
          {"name":"StatefulPartitionedCall/model/multiply/mul","op":"Mul","input":["StatefulPartitionedCall/model/activation_7/mul_1","StatefulPartitionedCall/model/activation_9/Sigmoid"],"attr":{"T":{"type":"DT_HALF"}}},
          {"name":"StatefulPartitionedCall/model/conv2d_13/Conv2D","op":"Conv2D","input":["StatefulPartitionedCall/model/multiply/mul","StatefulPartitionedCall/model/conv2d_13/Conv2D_weights"],"device":"/device:CPU:0","attr":{"dilations":{"list":{"i":["1","1","1","1"]}},"padding":{"s":"U0FNRQ=="},"explicit_paddings":{"list":{}},"data_format":{"s":"TkhXQw=="},"T":{"type":"DT_HALF"},"use_cudnn_on_gpu":{"b":true},"strides":{"list":{"i":["1","1","1","1"]}}}},
          {"name":"StatefulPartitionedCall/model/batch_normalization_12/FusedBatchNormV3","op":"BiasAdd","input":["StatefulPartitionedCall/model/conv2d_13/Conv2D","StatefulPartitionedCall/model/conv2d_13/Conv2D_bn_offset"],"attr":{"data_format":{"s":"TkhXQw=="},"T":{"type":"DT_HALF"}}},
          {"name":"StatefulPartitionedCall/model/conv2d_14/Conv2D","op":"Conv2D","input":["StatefulPartitionedCall/model/batch_normalization_12/FusedBatchNormV3","StatefulPartitionedCall/model/conv2d_14/Conv2D_weights"],"device":"/device:CPU:0","attr":{"padding":{"s":"U0FNRQ=="},"data_format":{"s":"TkhXQw=="},"strides":{"list":{"i":["1","1","1","1"]}},"T":{"type":"DT_HALF"},"use_cudnn_on_gpu":{"b":true},"explicit_paddings":{"list":{}},"dilations":{"list":{"i":["1","1","1","1"]}}}},
          {"name":"StatefulPartitionedCall/model/batch_normalization_13/FusedBatchNormV3","op":"BiasAdd","input":["StatefulPartitionedCall/model/conv2d_14/Conv2D","StatefulPartitionedCall/model/conv2d_14/Conv2D_bn_offset"],"attr":{"T":{"type":"DT_HALF"},"data_format":{"s":"TkhXQw=="}}},
          {"name":"StatefulPartitionedCall/model/activation_10/Sigmoid","op":"Sigmoid","input":["StatefulPartitionedCall/model/batch_normalization_13/FusedBatchNormV3"],"attr":{"T":{"type":"DT_HALF"}}},
          {"name":"StatefulPartitionedCall/model/activation_10/mul_1","op":"Mul","input":["StatefulPartitionedCall/model/batch_normalization_13/FusedBatchNormV3","StatefulPartitionedCall/model/activation_10/Sigmoid"],"attr":{"T":{"type":"DT_HALF"}}},
          {"name":"StatefulPartitionedCall/model/depthwise_conv2d_1/depthwise","op":"FusedDepthwiseConv2dNative","input":["StatefulPartitionedCall/model/activation_10/mul_1","StatefulPartitionedCall/model/depthwise_conv2d_1/depthwise_weights","StatefulPartitionedCall/model/depthwise_conv2d_1/depthwise_bn_offset"],"attr":{"num_args":{"i":"1"},"T":{"type":"DT_HALF"},"padding":{"s":"U0FNRQ=="},"strides":{"list":{"i":["1","1","1","1"]}},"explicit_paddings":{"list":{}},"fused_ops":{"list":{"s":["Qmlhc0FkZA=="]}},"dilations":{"list":{"i":["1","1","1","1"]}},"data_format":{"s":"TkhXQw=="}}},
          {"name":"StatefulPartitionedCall/model/activation_11/Sigmoid","op":"Sigmoid","input":["StatefulPartitionedCall/model/depthwise_conv2d_1/depthwise"],"attr":{"T":{"type":"DT_HALF"}}},
          {"name":"StatefulPartitionedCall/model/activation_11/mul_1","op":"Mul","input":["StatefulPartitionedCall/model/depthwise_conv2d_1/depthwise","StatefulPartitionedCall/model/activation_11/Sigmoid"],"attr":{"T":{"type":"DT_HALF"}}},
          {"name":"StatefulPartitionedCall/model/tf.math.reduce_mean_1/Mean","op":"Mean","input":["StatefulPartitionedCall/model/activation_11/mul_1","StatefulPartitionedCall/model/tf.math.reduce_mean_1/Mean/reduction_indices"],"attr":{"keep_dims":{"b":true},"Tidx":{"type":"DT_INT32"},"T":{"type":"DT_HALF"}}},
          {"name":"StatefulPartitionedCall/model/conv2d_15/Conv2D","op":"Conv2D","input":["StatefulPartitionedCall/model/tf.math.reduce_mean_1/Mean","StatefulPartitionedCall/model/conv2d_15/Conv2D/Cast"],"device":"/device:CPU:0","attr":{"T":{"type":"DT_HALF"},"padding":{"s":"VkFMSUQ="},"strides":{"list":{"i":["1","1","1","1"]}},"data_format":{"s":"TkhXQw=="},"use_cudnn_on_gpu":{"b":true},"dilations":{"list":{"i":["1","1","1","1"]}},"explicit_paddings":{"list":{}}}},
          {"name":"StatefulPartitionedCall/model/conv2d_15/BiasAdd","op":"BiasAdd","input":["StatefulPartitionedCall/model/conv2d_15/Conv2D","StatefulPartitionedCall/model/conv2d_15/BiasAdd/Cast"],"attr":{"T":{"type":"DT_HALF"},"data_format":{"s":"TkhXQw=="}}},
          {"name":"StatefulPartitionedCall/model/activation_12/Sigmoid","op":"Sigmoid","input":["StatefulPartitionedCall/model/conv2d_15/BiasAdd"],"attr":{"T":{"type":"DT_HALF"}}},
          {"name":"StatefulPartitionedCall/model/activation_12/mul_1","op":"Mul","input":["StatefulPartitionedCall/model/conv2d_15/BiasAdd","StatefulPartitionedCall/model/activation_12/Sigmoid"],"attr":{"T":{"type":"DT_HALF"}}},
          {"name":"StatefulPartitionedCall/model/conv2d_16/Conv2D","op":"Conv2D","input":["StatefulPartitionedCall/model/activation_12/mul_1","StatefulPartitionedCall/model/conv2d_16/Conv2D/Cast"],"device":"/device:CPU:0","attr":{"use_cudnn_on_gpu":{"b":true},"dilations":{"list":{"i":["1","1","1","1"]}},"data_format":{"s":"TkhXQw=="},"T":{"type":"DT_HALF"},"padding":{"s":"VkFMSUQ="},"explicit_paddings":{"list":{}},"strides":{"list":{"i":["1","1","1","1"]}}}},
          {"name":"StatefulPartitionedCall/model/conv2d_16/BiasAdd","op":"BiasAdd","input":["StatefulPartitionedCall/model/conv2d_16/Conv2D","StatefulPartitionedCall/model/conv2d_16/BiasAdd/Cast"],"attr":{"data_format":{"s":"TkhXQw=="},"T":{"type":"DT_HALF"}}},
          {"name":"StatefulPartitionedCall/model/activation_13/Sigmoid","op":"Sigmoid","input":["StatefulPartitionedCall/model/conv2d_16/BiasAdd"],"attr":{"T":{"type":"DT_HALF"}}},
          {"name":"StatefulPartitionedCall/model/multiply_1/mul","op":"Mul","input":["StatefulPartitionedCall/model/activation_11/mul_1","StatefulPartitionedCall/model/activation_13/Sigmoid"],"attr":{"T":{"type":"DT_HALF"}}},
          {"name":"StatefulPartitionedCall/model/conv2d_17/Conv2D","op":"Conv2D","input":["StatefulPartitionedCall/model/multiply_1/mul","StatefulPartitionedCall/model/conv2d_17/Conv2D_weights"],"device":"/device:CPU:0","attr":{"use_cudnn_on_gpu":{"b":true},"T":{"type":"DT_HALF"},"padding":{"s":"U0FNRQ=="},"strides":{"list":{"i":["1","1","1","1"]}},"data_format":{"s":"TkhXQw=="},"explicit_paddings":{"list":{}},"dilations":{"list":{"i":["1","1","1","1"]}}}},
          {"name":"StatefulPartitionedCall/model/batch_normalization_15/FusedBatchNormV3","op":"BiasAdd","input":["StatefulPartitionedCall/model/conv2d_17/Conv2D","StatefulPartitionedCall/model/conv2d_17/Conv2D_bn_offset"],"attr":{"T":{"type":"DT_HALF"},"data_format":{"s":"TkhXQw=="}}},
          {"name":"StatefulPartitionedCall/model/add_2/add","op":"AddV2","input":["StatefulPartitionedCall/model/batch_normalization_12/FusedBatchNormV3","StatefulPartitionedCall/model/batch_normalization_15/FusedBatchNormV3"],"attr":{"T":{"type":"DT_HALF"}}},
          {"name":"StatefulPartitionedCall/model/conv2d_18/Conv2D","op":"Conv2D","input":["StatefulPartitionedCall/model/add_2/add","StatefulPartitionedCall/model/conv2d_18/Conv2D_weights"],"device":"/device:CPU:0","attr":{"use_cudnn_on_gpu":{"b":true},"T":{"type":"DT_HALF"},"data_format":{"s":"TkhXQw=="},"dilations":{"list":{"i":["1","1","1","1"]}},"padding":{"s":"U0FNRQ=="},"explicit_paddings":{"list":{}},"strides":{"list":{"i":["1","1","1","1"]}}}},
          {"name":"StatefulPartitionedCall/model/batch_normalization_16/FusedBatchNormV3","op":"BiasAdd","input":["StatefulPartitionedCall/model/conv2d_18/Conv2D","StatefulPartitionedCall/model/conv2d_18/Conv2D_bn_offset"],"attr":{"T":{"type":"DT_HALF"},"data_format":{"s":"TkhXQw=="}}},
          {"name":"StatefulPartitionedCall/model/activation_14/Sigmoid","op":"Sigmoid","input":["StatefulPartitionedCall/model/batch_normalization_16/FusedBatchNormV3"],"attr":{"T":{"type":"DT_HALF"}}},
          {"name":"StatefulPartitionedCall/model/activation_14/mul_1","op":"Mul","input":["StatefulPartitionedCall/model/batch_normalization_16/FusedBatchNormV3","StatefulPartitionedCall/model/activation_14/Sigmoid"],"attr":{"T":{"type":"DT_HALF"}}},
          {"name":"StatefulPartitionedCall/model/depthwise_conv2d_2/depthwise","op":"FusedDepthwiseConv2dNative","input":["StatefulPartitionedCall/model/activation_14/mul_1","StatefulPartitionedCall/model/depthwise_conv2d_2/depthwise_weights","StatefulPartitionedCall/model/depthwise_conv2d_2/depthwise_bn_offset"],"attr":{"explicit_paddings":{"list":{}},"padding":{"s":"U0FNRQ=="},"T":{"type":"DT_HALF"},"data_format":{"s":"TkhXQw=="},"strides":{"list":{"i":["1","1","1","1"]}},"fused_ops":{"list":{"s":["Qmlhc0FkZA=="]}},"num_args":{"i":"1"},"dilations":{"list":{"i":["1","1","1","1"]}}}},
          {"name":"StatefulPartitionedCall/model/activation_15/Sigmoid","op":"Sigmoid","input":["StatefulPartitionedCall/model/depthwise_conv2d_2/depthwise"],"attr":{"T":{"type":"DT_HALF"}}},
          {"name":"StatefulPartitionedCall/model/activation_15/mul_1","op":"Mul","input":["StatefulPartitionedCall/model/depthwise_conv2d_2/depthwise","StatefulPartitionedCall/model/activation_15/Sigmoid"],"attr":{"T":{"type":"DT_HALF"}}},
          {"name":"StatefulPartitionedCall/model/tf.math.reduce_mean_2/Mean","op":"Mean","input":["StatefulPartitionedCall/model/activation_15/mul_1","StatefulPartitionedCall/model/tf.math.reduce_mean_2/Mean/reduction_indices"],"attr":{"T":{"type":"DT_HALF"},"Tidx":{"type":"DT_INT32"},"keep_dims":{"b":true}}},
          {"name":"StatefulPartitionedCall/model/conv2d_19/Conv2D","op":"Conv2D","input":["StatefulPartitionedCall/model/tf.math.reduce_mean_2/Mean","StatefulPartitionedCall/model/conv2d_19/Conv2D/Cast"],"device":"/device:CPU:0","attr":{"explicit_paddings":{"list":{}},"dilations":{"list":{"i":["1","1","1","1"]}},"data_format":{"s":"TkhXQw=="},"padding":{"s":"VkFMSUQ="},"strides":{"list":{"i":["1","1","1","1"]}},"T":{"type":"DT_HALF"},"use_cudnn_on_gpu":{"b":true}}},
          {"name":"StatefulPartitionedCall/model/conv2d_19/BiasAdd","op":"BiasAdd","input":["StatefulPartitionedCall/model/conv2d_19/Conv2D","StatefulPartitionedCall/model/conv2d_19/BiasAdd/Cast"],"attr":{"data_format":{"s":"TkhXQw=="},"T":{"type":"DT_HALF"}}},
          {"name":"StatefulPartitionedCall/model/activation_16/Sigmoid","op":"Sigmoid","input":["StatefulPartitionedCall/model/conv2d_19/BiasAdd"],"attr":{"T":{"type":"DT_HALF"}}},
          {"name":"StatefulPartitionedCall/model/activation_16/mul_1","op":"Mul","input":["StatefulPartitionedCall/model/conv2d_19/BiasAdd","StatefulPartitionedCall/model/activation_16/Sigmoid"],"attr":{"T":{"type":"DT_HALF"}}},
          {"name":"StatefulPartitionedCall/model/conv2d_20/Conv2D","op":"Conv2D","input":["StatefulPartitionedCall/model/activation_16/mul_1","StatefulPartitionedCall/model/conv2d_20/Conv2D/Cast"],"device":"/device:CPU:0","attr":{"use_cudnn_on_gpu":{"b":true},"padding":{"s":"VkFMSUQ="},"data_format":{"s":"TkhXQw=="},"dilations":{"list":{"i":["1","1","1","1"]}},"T":{"type":"DT_HALF"},"explicit_paddings":{"list":{}},"strides":{"list":{"i":["1","1","1","1"]}}}},
          {"name":"StatefulPartitionedCall/model/conv2d_20/BiasAdd","op":"BiasAdd","input":["StatefulPartitionedCall/model/conv2d_20/Conv2D","StatefulPartitionedCall/model/conv2d_20/BiasAdd/Cast"],"attr":{"data_format":{"s":"TkhXQw=="},"T":{"type":"DT_HALF"}}},
          {"name":"StatefulPartitionedCall/model/activation_17/Sigmoid","op":"Sigmoid","input":["StatefulPartitionedCall/model/conv2d_20/BiasAdd"],"attr":{"T":{"type":"DT_HALF"}}},
          {"name":"StatefulPartitionedCall/model/multiply_2/mul","op":"Mul","input":["StatefulPartitionedCall/model/activation_15/mul_1","StatefulPartitionedCall/model/activation_17/Sigmoid"],"attr":{"T":{"type":"DT_HALF"}}},
          {"name":"StatefulPartitionedCall/model/conv2d_21/Conv2D","op":"Conv2D","input":["StatefulPartitionedCall/model/multiply_2/mul","StatefulPartitionedCall/model/conv2d_21/Conv2D_weights"],"device":"/device:CPU:0","attr":{"explicit_paddings":{"list":{}},"data_format":{"s":"TkhXQw=="},"use_cudnn_on_gpu":{"b":true},"dilations":{"list":{"i":["1","1","1","1"]}},"padding":{"s":"U0FNRQ=="},"T":{"type":"DT_HALF"},"strides":{"list":{"i":["1","1","1","1"]}}}},
          {"name":"StatefulPartitionedCall/model/batch_normalization_18/FusedBatchNormV3","op":"BiasAdd","input":["StatefulPartitionedCall/model/conv2d_21/Conv2D","StatefulPartitionedCall/model/conv2d_21/Conv2D_bn_offset"],"attr":{"data_format":{"s":"TkhXQw=="},"T":{"type":"DT_HALF"}}},
          {"name":"StatefulPartitionedCall/model/add_3/add","op":"AddV2","input":["StatefulPartitionedCall/model/add_2/add","StatefulPartitionedCall/model/batch_normalization_18/FusedBatchNormV3"],"attr":{"T":{"type":"DT_HALF"}}},
          {"name":"StatefulPartitionedCall/model/conv2d_22/Conv2D","op":"Conv2D","input":["StatefulPartitionedCall/model/add_3/add","StatefulPartitionedCall/model/conv2d_22/Conv2D_weights"],"device":"/device:CPU:0","attr":{"data_format":{"s":"TkhXQw=="},"strides":{"list":{"i":["1","1","1","1"]}},"use_cudnn_on_gpu":{"b":true},"explicit_paddings":{"list":{}},"dilations":{"list":{"i":["1","1","1","1"]}},"padding":{"s":"U0FNRQ=="},"T":{"type":"DT_HALF"}}},
          {"name":"StatefulPartitionedCall/model/batch_normalization_19/FusedBatchNormV3","op":"BiasAdd","input":["StatefulPartitionedCall/model/conv2d_22/Conv2D","StatefulPartitionedCall/model/conv2d_22/Conv2D_bn_offset"],"attr":{"data_format":{"s":"TkhXQw=="},"T":{"type":"DT_HALF"}}},
          {"name":"StatefulPartitionedCall/model/activation_18/Sigmoid","op":"Sigmoid","input":["StatefulPartitionedCall/model/batch_normalization_19/FusedBatchNormV3"],"attr":{"T":{"type":"DT_HALF"}}},
          {"name":"StatefulPartitionedCall/model/activation_18/mul_1","op":"Mul","input":["StatefulPartitionedCall/model/batch_normalization_19/FusedBatchNormV3","StatefulPartitionedCall/model/activation_18/Sigmoid"],"attr":{"T":{"type":"DT_HALF"}}},
          {"name":"StatefulPartitionedCall/model/depthwise_conv2d_3/depthwise","op":"FusedDepthwiseConv2dNative","input":["StatefulPartitionedCall/model/activation_18/mul_1","StatefulPartitionedCall/model/depthwise_conv2d_3/depthwise_weights","StatefulPartitionedCall/model/depthwise_conv2d_3/depthwise_bn_offset"],"attr":{"fused_ops":{"list":{"s":["Qmlhc0FkZA=="]}},"dilations":{"list":{"i":["1","1","1","1"]}},"padding":{"s":"U0FNRQ=="},"explicit_paddings":{"list":{}},"T":{"type":"DT_HALF"},"strides":{"list":{"i":["1","1","1","1"]}},"num_args":{"i":"1"},"data_format":{"s":"TkhXQw=="}}},
          {"name":"StatefulPartitionedCall/model/activation_19/Sigmoid","op":"Sigmoid","input":["StatefulPartitionedCall/model/depthwise_conv2d_3/depthwise"],"attr":{"T":{"type":"DT_HALF"}}},
          {"name":"StatefulPartitionedCall/model/activation_19/mul_1","op":"Mul","input":["StatefulPartitionedCall/model/depthwise_conv2d_3/depthwise","StatefulPartitionedCall/model/activation_19/Sigmoid"],"attr":{"T":{"type":"DT_HALF"}}},
          {"name":"StatefulPartitionedCall/model/tf.math.reduce_mean_3/Mean","op":"Mean","input":["StatefulPartitionedCall/model/activation_19/mul_1","StatefulPartitionedCall/model/tf.math.reduce_mean_3/Mean/reduction_indices"],"attr":{"Tidx":{"type":"DT_INT32"},"T":{"type":"DT_HALF"},"keep_dims":{"b":true}}},
          {"name":"StatefulPartitionedCall/model/conv2d_23/Conv2D","op":"Conv2D","input":["StatefulPartitionedCall/model/tf.math.reduce_mean_3/Mean","StatefulPartitionedCall/model/conv2d_23/Conv2D/Cast"],"device":"/device:CPU:0","attr":{"padding":{"s":"VkFMSUQ="},"data_format":{"s":"TkhXQw=="},"T":{"type":"DT_HALF"},"strides":{"list":{"i":["1","1","1","1"]}},"dilations":{"list":{"i":["1","1","1","1"]}},"use_cudnn_on_gpu":{"b":true},"explicit_paddings":{"list":{}}}},
          {"name":"StatefulPartitionedCall/model/conv2d_23/BiasAdd","op":"BiasAdd","input":["StatefulPartitionedCall/model/conv2d_23/Conv2D","StatefulPartitionedCall/model/conv2d_23/BiasAdd/Cast"],"attr":{"T":{"type":"DT_HALF"},"data_format":{"s":"TkhXQw=="}}},
          {"name":"StatefulPartitionedCall/model/activation_20/Sigmoid","op":"Sigmoid","input":["StatefulPartitionedCall/model/conv2d_23/BiasAdd"],"attr":{"T":{"type":"DT_HALF"}}},
          {"name":"StatefulPartitionedCall/model/activation_20/mul_1","op":"Mul","input":["StatefulPartitionedCall/model/conv2d_23/BiasAdd","StatefulPartitionedCall/model/activation_20/Sigmoid"],"attr":{"T":{"type":"DT_HALF"}}},
          {"name":"StatefulPartitionedCall/model/conv2d_24/Conv2D","op":"Conv2D","input":["StatefulPartitionedCall/model/activation_20/mul_1","StatefulPartitionedCall/model/conv2d_24/Conv2D/Cast"],"device":"/device:CPU:0","attr":{"explicit_paddings":{"list":{}},"T":{"type":"DT_HALF"},"dilations":{"list":{"i":["1","1","1","1"]}},"strides":{"list":{"i":["1","1","1","1"]}},"padding":{"s":"VkFMSUQ="},"use_cudnn_on_gpu":{"b":true},"data_format":{"s":"TkhXQw=="}}},
          {"name":"StatefulPartitionedCall/model/conv2d_24/BiasAdd","op":"BiasAdd","input":["StatefulPartitionedCall/model/conv2d_24/Conv2D","StatefulPartitionedCall/model/conv2d_24/BiasAdd/Cast"],"attr":{"T":{"type":"DT_HALF"},"data_format":{"s":"TkhXQw=="}}},
          {"name":"StatefulPartitionedCall/model/activation_21/Sigmoid","op":"Sigmoid","input":["StatefulPartitionedCall/model/conv2d_24/BiasAdd"],"attr":{"T":{"type":"DT_HALF"}}},
          {"name":"StatefulPartitionedCall/model/multiply_3/mul","op":"Mul","input":["StatefulPartitionedCall/model/activation_19/mul_1","StatefulPartitionedCall/model/activation_21/Sigmoid"],"attr":{"T":{"type":"DT_HALF"}}},
          {"name":"StatefulPartitionedCall/model/conv2d_25/Conv2D","op":"Conv2D","input":["StatefulPartitionedCall/model/multiply_3/mul","StatefulPartitionedCall/model/conv2d_25/Conv2D_weights"],"device":"/device:CPU:0","attr":{"explicit_paddings":{"list":{}},"data_format":{"s":"TkhXQw=="},"dilations":{"list":{"i":["1","1","1","1"]}},"strides":{"list":{"i":["1","1","1","1"]}},"padding":{"s":"U0FNRQ=="},"T":{"type":"DT_HALF"},"use_cudnn_on_gpu":{"b":true}}},
          {"name":"StatefulPartitionedCall/model/batch_normalization_21/FusedBatchNormV3","op":"BiasAdd","input":["StatefulPartitionedCall/model/conv2d_25/Conv2D","StatefulPartitionedCall/model/conv2d_25/Conv2D_bn_offset"],"attr":{"T":{"type":"DT_HALF"},"data_format":{"s":"TkhXQw=="}}},
          {"name":"StatefulPartitionedCall/model/conv2d_26/Conv2D","op":"Conv2D","input":["StatefulPartitionedCall/model/batch_normalization_21/FusedBatchNormV3","StatefulPartitionedCall/model/conv2d_26/Conv2D_weights"],"device":"/device:CPU:0","attr":{"padding":{"s":"U0FNRQ=="},"dilations":{"list":{"i":["1","1","1","1"]}},"strides":{"list":{"i":["1","1","1","1"]}},"T":{"type":"DT_HALF"},"data_format":{"s":"TkhXQw=="},"use_cudnn_on_gpu":{"b":true},"explicit_paddings":{"list":{}}}},
          {"name":"StatefulPartitionedCall/model/batch_normalization_22/FusedBatchNormV3","op":"BiasAdd","input":["StatefulPartitionedCall/model/conv2d_26/Conv2D","StatefulPartitionedCall/model/conv2d_26/Conv2D_bn_offset"],"attr":{"T":{"type":"DT_HALF"},"data_format":{"s":"TkhXQw=="}}},
          {"name":"StatefulPartitionedCall/model/activation_22/Sigmoid","op":"Sigmoid","input":["StatefulPartitionedCall/model/batch_normalization_22/FusedBatchNormV3"],"attr":{"T":{"type":"DT_HALF"}}},
          {"name":"StatefulPartitionedCall/model/activation_22/mul_1","op":"Mul","input":["StatefulPartitionedCall/model/batch_normalization_22/FusedBatchNormV3","StatefulPartitionedCall/model/activation_22/Sigmoid"],"attr":{"T":{"type":"DT_HALF"}}},
          {"name":"StatefulPartitionedCall/model/depthwise_conv2d_4/depthwise","op":"FusedDepthwiseConv2dNative","input":["StatefulPartitionedCall/model/activation_22/mul_1","StatefulPartitionedCall/model/depthwise_conv2d_4/depthwise_weights","StatefulPartitionedCall/model/depthwise_conv2d_4/depthwise_bn_offset"],"attr":{"data_format":{"s":"TkhXQw=="},"T":{"type":"DT_HALF"},"padding":{"s":"U0FNRQ=="},"strides":{"list":{"i":["1","1","1","1"]}},"num_args":{"i":"1"},"fused_ops":{"list":{"s":["Qmlhc0FkZA=="]}},"dilations":{"list":{"i":["1","1","1","1"]}},"explicit_paddings":{"list":{}}}},
          {"name":"StatefulPartitionedCall/model/activation_23/Sigmoid","op":"Sigmoid","input":["StatefulPartitionedCall/model/depthwise_conv2d_4/depthwise"],"attr":{"T":{"type":"DT_HALF"}}},
          {"name":"StatefulPartitionedCall/model/activation_23/mul_1","op":"Mul","input":["StatefulPartitionedCall/model/depthwise_conv2d_4/depthwise","StatefulPartitionedCall/model/activation_23/Sigmoid"],"attr":{"T":{"type":"DT_HALF"}}},
          {"name":"StatefulPartitionedCall/model/tf.math.reduce_mean_4/Mean","op":"Mean","input":["StatefulPartitionedCall/model/activation_23/mul_1","StatefulPartitionedCall/model/tf.math.reduce_mean_4/Mean/reduction_indices"],"attr":{"keep_dims":{"b":true},"Tidx":{"type":"DT_INT32"},"T":{"type":"DT_HALF"}}},
          {"name":"StatefulPartitionedCall/model/conv2d_27/Conv2D","op":"Conv2D","input":["StatefulPartitionedCall/model/tf.math.reduce_mean_4/Mean","StatefulPartitionedCall/model/conv2d_27/Conv2D/Cast"],"device":"/device:CPU:0","attr":{"strides":{"list":{"i":["1","1","1","1"]}},"data_format":{"s":"TkhXQw=="},"explicit_paddings":{"list":{}},"padding":{"s":"VkFMSUQ="},"dilations":{"list":{"i":["1","1","1","1"]}},"use_cudnn_on_gpu":{"b":true},"T":{"type":"DT_HALF"}}},
          {"name":"StatefulPartitionedCall/model/conv2d_27/BiasAdd","op":"BiasAdd","input":["StatefulPartitionedCall/model/conv2d_27/Conv2D","StatefulPartitionedCall/model/conv2d_27/BiasAdd/Cast"],"attr":{"T":{"type":"DT_HALF"},"data_format":{"s":"TkhXQw=="}}},
          {"name":"StatefulPartitionedCall/model/activation_24/Sigmoid","op":"Sigmoid","input":["StatefulPartitionedCall/model/conv2d_27/BiasAdd"],"attr":{"T":{"type":"DT_HALF"}}},
          {"name":"StatefulPartitionedCall/model/activation_24/mul_1","op":"Mul","input":["StatefulPartitionedCall/model/conv2d_27/BiasAdd","StatefulPartitionedCall/model/activation_24/Sigmoid"],"attr":{"T":{"type":"DT_HALF"}}},
          {"name":"StatefulPartitionedCall/model/conv2d_28/Conv2D","op":"Conv2D","input":["StatefulPartitionedCall/model/activation_24/mul_1","StatefulPartitionedCall/model/conv2d_28/Conv2D/Cast"],"device":"/device:CPU:0","attr":{"explicit_paddings":{"list":{}},"data_format":{"s":"TkhXQw=="},"dilations":{"list":{"i":["1","1","1","1"]}},"use_cudnn_on_gpu":{"b":true},"padding":{"s":"VkFMSUQ="},"T":{"type":"DT_HALF"},"strides":{"list":{"i":["1","1","1","1"]}}}},
          {"name":"StatefulPartitionedCall/model/conv2d_28/BiasAdd","op":"BiasAdd","input":["StatefulPartitionedCall/model/conv2d_28/Conv2D","StatefulPartitionedCall/model/conv2d_28/BiasAdd/Cast"],"attr":{"T":{"type":"DT_HALF"},"data_format":{"s":"TkhXQw=="}}},
          {"name":"StatefulPartitionedCall/model/activation_25/Sigmoid","op":"Sigmoid","input":["StatefulPartitionedCall/model/conv2d_28/BiasAdd"],"attr":{"T":{"type":"DT_HALF"}}},
          {"name":"StatefulPartitionedCall/model/multiply_4/mul","op":"Mul","input":["StatefulPartitionedCall/model/activation_23/mul_1","StatefulPartitionedCall/model/activation_25/Sigmoid"],"attr":{"T":{"type":"DT_HALF"}}},
          {"name":"StatefulPartitionedCall/model/conv2d_29/Conv2D","op":"Conv2D","input":["StatefulPartitionedCall/model/multiply_4/mul","StatefulPartitionedCall/model/conv2d_29/Conv2D_weights"],"device":"/device:CPU:0","attr":{"use_cudnn_on_gpu":{"b":true},"T":{"type":"DT_HALF"},"data_format":{"s":"TkhXQw=="},"padding":{"s":"U0FNRQ=="},"explicit_paddings":{"list":{}},"strides":{"list":{"i":["1","1","1","1"]}},"dilations":{"list":{"i":["1","1","1","1"]}}}},
          {"name":"StatefulPartitionedCall/model/batch_normalization_24/FusedBatchNormV3","op":"BiasAdd","input":["StatefulPartitionedCall/model/conv2d_29/Conv2D","StatefulPartitionedCall/model/conv2d_29/Conv2D_bn_offset"],"attr":{"T":{"type":"DT_HALF"},"data_format":{"s":"TkhXQw=="}}},
          {"name":"StatefulPartitionedCall/model/add_4/add","op":"AddV2","input":["StatefulPartitionedCall/model/batch_normalization_21/FusedBatchNormV3","StatefulPartitionedCall/model/batch_normalization_24/FusedBatchNormV3"],"attr":{"T":{"type":"DT_HALF"}}},
          {"name":"StatefulPartitionedCall/model/conv2d_30/Conv2D","op":"Conv2D","input":["StatefulPartitionedCall/model/add_4/add","StatefulPartitionedCall/model/conv2d_30/Conv2D_weights"],"device":"/device:CPU:0","attr":{"strides":{"list":{"i":["1","1","1","1"]}},"data_format":{"s":"TkhXQw=="},"explicit_paddings":{"list":{}},"use_cudnn_on_gpu":{"b":true},"padding":{"s":"U0FNRQ=="},"T":{"type":"DT_HALF"},"dilations":{"list":{"i":["1","1","1","1"]}}}},
          {"name":"StatefulPartitionedCall/model/batch_normalization_25/FusedBatchNormV3","op":"BiasAdd","input":["StatefulPartitionedCall/model/conv2d_30/Conv2D","StatefulPartitionedCall/model/conv2d_30/Conv2D_bn_offset"],"attr":{"data_format":{"s":"TkhXQw=="},"T":{"type":"DT_HALF"}}},
          {"name":"StatefulPartitionedCall/model/activation_26/Sigmoid","op":"Sigmoid","input":["StatefulPartitionedCall/model/batch_normalization_25/FusedBatchNormV3"],"attr":{"T":{"type":"DT_HALF"}}},
          {"name":"StatefulPartitionedCall/model/activation_26/mul_1","op":"Mul","input":["StatefulPartitionedCall/model/batch_normalization_25/FusedBatchNormV3","StatefulPartitionedCall/model/activation_26/Sigmoid"],"attr":{"T":{"type":"DT_HALF"}}},
          {"name":"StatefulPartitionedCall/model/depthwise_conv2d_5/depthwise","op":"FusedDepthwiseConv2dNative","input":["StatefulPartitionedCall/model/activation_26/mul_1","StatefulPartitionedCall/model/depthwise_conv2d_5/depthwise_weights","StatefulPartitionedCall/model/depthwise_conv2d_5/depthwise_bn_offset"],"attr":{"padding":{"s":"U0FNRQ=="},"strides":{"list":{"i":["1","1","1","1"]}},"explicit_paddings":{"list":{}},"dilations":{"list":{"i":["1","1","1","1"]}},"fused_ops":{"list":{"s":["Qmlhc0FkZA=="]}},"data_format":{"s":"TkhXQw=="},"num_args":{"i":"1"},"T":{"type":"DT_HALF"}}},
          {"name":"StatefulPartitionedCall/model/activation_27/Sigmoid","op":"Sigmoid","input":["StatefulPartitionedCall/model/depthwise_conv2d_5/depthwise"],"attr":{"T":{"type":"DT_HALF"}}},
          {"name":"StatefulPartitionedCall/model/activation_27/mul_1","op":"Mul","input":["StatefulPartitionedCall/model/depthwise_conv2d_5/depthwise","StatefulPartitionedCall/model/activation_27/Sigmoid"],"attr":{"T":{"type":"DT_HALF"}}},
          {"name":"StatefulPartitionedCall/model/tf.math.reduce_mean_5/Mean","op":"Mean","input":["StatefulPartitionedCall/model/activation_27/mul_1","StatefulPartitionedCall/model/tf.math.reduce_mean_5/Mean/reduction_indices"],"attr":{"keep_dims":{"b":true},"Tidx":{"type":"DT_INT32"},"T":{"type":"DT_HALF"}}},
          {"name":"StatefulPartitionedCall/model/conv2d_31/Conv2D","op":"Conv2D","input":["StatefulPartitionedCall/model/tf.math.reduce_mean_5/Mean","StatefulPartitionedCall/model/conv2d_31/Conv2D/Cast"],"device":"/device:CPU:0","attr":{"padding":{"s":"VkFMSUQ="},"data_format":{"s":"TkhXQw=="},"dilations":{"list":{"i":["1","1","1","1"]}},"strides":{"list":{"i":["1","1","1","1"]}},"use_cudnn_on_gpu":{"b":true},"T":{"type":"DT_HALF"},"explicit_paddings":{"list":{}}}},
          {"name":"StatefulPartitionedCall/model/conv2d_31/BiasAdd","op":"BiasAdd","input":["StatefulPartitionedCall/model/conv2d_31/Conv2D","StatefulPartitionedCall/model/conv2d_31/BiasAdd/Cast"],"attr":{"data_format":{"s":"TkhXQw=="},"T":{"type":"DT_HALF"}}},
          {"name":"StatefulPartitionedCall/model/activation_28/Sigmoid","op":"Sigmoid","input":["StatefulPartitionedCall/model/conv2d_31/BiasAdd"],"attr":{"T":{"type":"DT_HALF"}}},
          {"name":"StatefulPartitionedCall/model/activation_28/mul_1","op":"Mul","input":["StatefulPartitionedCall/model/conv2d_31/BiasAdd","StatefulPartitionedCall/model/activation_28/Sigmoid"],"attr":{"T":{"type":"DT_HALF"}}},
          {"name":"StatefulPartitionedCall/model/conv2d_32/Conv2D","op":"Conv2D","input":["StatefulPartitionedCall/model/activation_28/mul_1","StatefulPartitionedCall/model/conv2d_32/Conv2D/Cast"],"device":"/device:CPU:0","attr":{"strides":{"list":{"i":["1","1","1","1"]}},"explicit_paddings":{"list":{}},"data_format":{"s":"TkhXQw=="},"padding":{"s":"VkFMSUQ="},"dilations":{"list":{"i":["1","1","1","1"]}},"use_cudnn_on_gpu":{"b":true},"T":{"type":"DT_HALF"}}},
          {"name":"StatefulPartitionedCall/model/conv2d_32/BiasAdd","op":"BiasAdd","input":["StatefulPartitionedCall/model/conv2d_32/Conv2D","StatefulPartitionedCall/model/conv2d_32/BiasAdd/Cast"],"attr":{"data_format":{"s":"TkhXQw=="},"T":{"type":"DT_HALF"}}},
          {"name":"StatefulPartitionedCall/model/activation_29/Sigmoid","op":"Sigmoid","input":["StatefulPartitionedCall/model/conv2d_32/BiasAdd"],"attr":{"T":{"type":"DT_HALF"}}},
          {"name":"StatefulPartitionedCall/model/multiply_5/mul","op":"Mul","input":["StatefulPartitionedCall/model/activation_27/mul_1","StatefulPartitionedCall/model/activation_29/Sigmoid"],"attr":{"T":{"type":"DT_HALF"}}},
          {"name":"StatefulPartitionedCall/model/conv2d_33/Conv2D","op":"Conv2D","input":["StatefulPartitionedCall/model/multiply_5/mul","StatefulPartitionedCall/model/conv2d_33/Conv2D_weights"],"device":"/device:CPU:0","attr":{"use_cudnn_on_gpu":{"b":true},"data_format":{"s":"TkhXQw=="},"T":{"type":"DT_HALF"},"dilations":{"list":{"i":["1","1","1","1"]}},"strides":{"list":{"i":["1","1","1","1"]}},"padding":{"s":"U0FNRQ=="},"explicit_paddings":{"list":{}}}},
          {"name":"StatefulPartitionedCall/model/batch_normalization_27/FusedBatchNormV3","op":"BiasAdd","input":["StatefulPartitionedCall/model/conv2d_33/Conv2D","StatefulPartitionedCall/model/conv2d_33/Conv2D_bn_offset"],"attr":{"data_format":{"s":"TkhXQw=="},"T":{"type":"DT_HALF"}}},
          {"name":"StatefulPartitionedCall/model/add_5/add","op":"AddV2","input":["StatefulPartitionedCall/model/add_4/add","StatefulPartitionedCall/model/batch_normalization_27/FusedBatchNormV3"],"attr":{"T":{"type":"DT_HALF"}}},
          {"name":"StatefulPartitionedCall/model/conv2d_34/Conv2D","op":"Conv2D","input":["StatefulPartitionedCall/model/add_5/add","StatefulPartitionedCall/model/conv2d_34/Conv2D_weights"],"device":"/device:CPU:0","attr":{"data_format":{"s":"TkhXQw=="},"strides":{"list":{"i":["1","1","1","1"]}},"padding":{"s":"U0FNRQ=="},"explicit_paddings":{"list":{}},"use_cudnn_on_gpu":{"b":true},"T":{"type":"DT_HALF"},"dilations":{"list":{"i":["1","1","1","1"]}}}},
          {"name":"StatefulPartitionedCall/model/batch_normalization_28/FusedBatchNormV3","op":"BiasAdd","input":["StatefulPartitionedCall/model/conv2d_34/Conv2D","StatefulPartitionedCall/model/conv2d_34/Conv2D_bn_offset"],"attr":{"data_format":{"s":"TkhXQw=="},"T":{"type":"DT_HALF"}}},
          {"name":"StatefulPartitionedCall/model/activation_30/Sigmoid","op":"Sigmoid","input":["StatefulPartitionedCall/model/batch_normalization_28/FusedBatchNormV3"],"attr":{"T":{"type":"DT_HALF"}}},
          {"name":"StatefulPartitionedCall/model/activation_30/mul_1","op":"Mul","input":["StatefulPartitionedCall/model/batch_normalization_28/FusedBatchNormV3","StatefulPartitionedCall/model/activation_30/Sigmoid"],"attr":{"T":{"type":"DT_HALF"}}},
          {"name":"StatefulPartitionedCall/model/depthwise_conv2d_6/depthwise","op":"FusedDepthwiseConv2dNative","input":["StatefulPartitionedCall/model/activation_30/mul_1","StatefulPartitionedCall/model/depthwise_conv2d_6/depthwise_weights","StatefulPartitionedCall/model/depthwise_conv2d_6/depthwise_bn_offset"],"attr":{"dilations":{"list":{"i":["1","1","1","1"]}},"padding":{"s":"U0FNRQ=="},"num_args":{"i":"1"},"T":{"type":"DT_HALF"},"fused_ops":{"list":{"s":["Qmlhc0FkZA=="]}},"explicit_paddings":{"list":{}},"data_format":{"s":"TkhXQw=="},"strides":{"list":{"i":["1","1","1","1"]}}}},
          {"name":"StatefulPartitionedCall/model/activation_31/Sigmoid","op":"Sigmoid","input":["StatefulPartitionedCall/model/depthwise_conv2d_6/depthwise"],"attr":{"T":{"type":"DT_HALF"}}},
          {"name":"StatefulPartitionedCall/model/activation_31/mul_1","op":"Mul","input":["StatefulPartitionedCall/model/depthwise_conv2d_6/depthwise","StatefulPartitionedCall/model/activation_31/Sigmoid"],"attr":{"T":{"type":"DT_HALF"}}},
          {"name":"StatefulPartitionedCall/model/tf.math.reduce_mean_6/Mean","op":"Mean","input":["StatefulPartitionedCall/model/activation_31/mul_1","StatefulPartitionedCall/model/tf.math.reduce_mean_6/Mean/reduction_indices"],"attr":{"T":{"type":"DT_HALF"},"keep_dims":{"b":true},"Tidx":{"type":"DT_INT32"}}},
          {"name":"StatefulPartitionedCall/model/conv2d_35/Conv2D","op":"Conv2D","input":["StatefulPartitionedCall/model/tf.math.reduce_mean_6/Mean","StatefulPartitionedCall/model/conv2d_35/Conv2D/Cast"],"device":"/device:CPU:0","attr":{"use_cudnn_on_gpu":{"b":true},"strides":{"list":{"i":["1","1","1","1"]}},"padding":{"s":"VkFMSUQ="},"dilations":{"list":{"i":["1","1","1","1"]}},"explicit_paddings":{"list":{}},"data_format":{"s":"TkhXQw=="},"T":{"type":"DT_HALF"}}},
          {"name":"StatefulPartitionedCall/model/conv2d_35/BiasAdd","op":"BiasAdd","input":["StatefulPartitionedCall/model/conv2d_35/Conv2D","StatefulPartitionedCall/model/conv2d_35/BiasAdd/Cast"],"attr":{"T":{"type":"DT_HALF"},"data_format":{"s":"TkhXQw=="}}},
          {"name":"StatefulPartitionedCall/model/activation_32/Sigmoid","op":"Sigmoid","input":["StatefulPartitionedCall/model/conv2d_35/BiasAdd"],"attr":{"T":{"type":"DT_HALF"}}},
          {"name":"StatefulPartitionedCall/model/activation_32/mul_1","op":"Mul","input":["StatefulPartitionedCall/model/conv2d_35/BiasAdd","StatefulPartitionedCall/model/activation_32/Sigmoid"],"attr":{"T":{"type":"DT_HALF"}}},
          {"name":"StatefulPartitionedCall/model/conv2d_36/Conv2D","op":"Conv2D","input":["StatefulPartitionedCall/model/activation_32/mul_1","StatefulPartitionedCall/model/conv2d_36/Conv2D/Cast"],"device":"/device:CPU:0","attr":{"data_format":{"s":"TkhXQw=="},"padding":{"s":"VkFMSUQ="},"explicit_paddings":{"list":{}},"T":{"type":"DT_HALF"},"dilations":{"list":{"i":["1","1","1","1"]}},"strides":{"list":{"i":["1","1","1","1"]}},"use_cudnn_on_gpu":{"b":true}}},
          {"name":"StatefulPartitionedCall/model/conv2d_36/BiasAdd","op":"BiasAdd","input":["StatefulPartitionedCall/model/conv2d_36/Conv2D","StatefulPartitionedCall/model/conv2d_36/BiasAdd/Cast"],"attr":{"T":{"type":"DT_HALF"},"data_format":{"s":"TkhXQw=="}}},
          {"name":"StatefulPartitionedCall/model/activation_33/Sigmoid","op":"Sigmoid","input":["StatefulPartitionedCall/model/conv2d_36/BiasAdd"],"attr":{"T":{"type":"DT_HALF"}}},
          {"name":"StatefulPartitionedCall/model/multiply_6/mul","op":"Mul","input":["StatefulPartitionedCall/model/activation_31/mul_1","StatefulPartitionedCall/model/activation_33/Sigmoid"],"attr":{"T":{"type":"DT_HALF"}}},
          {"name":"StatefulPartitionedCall/model/conv2d_37/Conv2D","op":"Conv2D","input":["StatefulPartitionedCall/model/multiply_6/mul","StatefulPartitionedCall/model/conv2d_37/Conv2D_weights"],"device":"/device:CPU:0","attr":{"data_format":{"s":"TkhXQw=="},"use_cudnn_on_gpu":{"b":true},"padding":{"s":"U0FNRQ=="},"dilations":{"list":{"i":["1","1","1","1"]}},"strides":{"list":{"i":["1","1","1","1"]}},"T":{"type":"DT_HALF"},"explicit_paddings":{"list":{}}}},
          {"name":"StatefulPartitionedCall/model/batch_normalization_30/FusedBatchNormV3","op":"BiasAdd","input":["StatefulPartitionedCall/model/conv2d_37/Conv2D","StatefulPartitionedCall/model/conv2d_37/Conv2D_bn_offset"],"attr":{"T":{"type":"DT_HALF"},"data_format":{"s":"TkhXQw=="}}},
          {"name":"StatefulPartitionedCall/model/add_6/add","op":"AddV2","input":["StatefulPartitionedCall/model/add_5/add","StatefulPartitionedCall/model/batch_normalization_30/FusedBatchNormV3"],"attr":{"T":{"type":"DT_HALF"}}},
          {"name":"StatefulPartitionedCall/model/conv2d_38/Conv2D","op":"Conv2D","input":["StatefulPartitionedCall/model/add_6/add","StatefulPartitionedCall/model/conv2d_38/Conv2D_weights"],"device":"/device:CPU:0","attr":{"dilations":{"list":{"i":["1","1","1","1"]}},"data_format":{"s":"TkhXQw=="},"T":{"type":"DT_HALF"},"explicit_paddings":{"list":{}},"padding":{"s":"U0FNRQ=="},"use_cudnn_on_gpu":{"b":true},"strides":{"list":{"i":["1","1","1","1"]}}}},
          {"name":"StatefulPartitionedCall/model/batch_normalization_31/FusedBatchNormV3","op":"BiasAdd","input":["StatefulPartitionedCall/model/conv2d_38/Conv2D","StatefulPartitionedCall/model/conv2d_38/Conv2D_bn_offset"],"attr":{"T":{"type":"DT_HALF"},"data_format":{"s":"TkhXQw=="}}},
          {"name":"StatefulPartitionedCall/model/activation_34/Sigmoid","op":"Sigmoid","input":["StatefulPartitionedCall/model/batch_normalization_31/FusedBatchNormV3"],"attr":{"T":{"type":"DT_HALF"}}},
          {"name":"StatefulPartitionedCall/model/activation_34/mul_1","op":"Mul","input":["StatefulPartitionedCall/model/batch_normalization_31/FusedBatchNormV3","StatefulPartitionedCall/model/activation_34/Sigmoid"],"attr":{"T":{"type":"DT_HALF"}}},
          {"name":"StatefulPartitionedCall/model/depthwise_conv2d_7/depthwise","op":"FusedDepthwiseConv2dNative","input":["StatefulPartitionedCall/model/activation_34/mul_1","StatefulPartitionedCall/model/depthwise_conv2d_7/depthwise_weights","StatefulPartitionedCall/model/depthwise_conv2d_7/depthwise_bn_offset"],"attr":{"dilations":{"list":{"i":["1","1","1","1"]}},"strides":{"list":{"i":["1","1","1","1"]}},"padding":{"s":"U0FNRQ=="},"explicit_paddings":{"list":{}},"fused_ops":{"list":{"s":["Qmlhc0FkZA=="]}},"num_args":{"i":"1"},"T":{"type":"DT_HALF"},"data_format":{"s":"TkhXQw=="}}},
          {"name":"StatefulPartitionedCall/model/activation_35/Sigmoid","op":"Sigmoid","input":["StatefulPartitionedCall/model/depthwise_conv2d_7/depthwise"],"attr":{"T":{"type":"DT_HALF"}}},
          {"name":"StatefulPartitionedCall/model/activation_35/mul_1","op":"Mul","input":["StatefulPartitionedCall/model/depthwise_conv2d_7/depthwise","StatefulPartitionedCall/model/activation_35/Sigmoid"],"attr":{"T":{"type":"DT_HALF"}}},
          {"name":"StatefulPartitionedCall/model/tf.math.reduce_mean_7/Mean","op":"Mean","input":["StatefulPartitionedCall/model/activation_35/mul_1","StatefulPartitionedCall/model/tf.math.reduce_mean_7/Mean/reduction_indices"],"attr":{"keep_dims":{"b":true},"Tidx":{"type":"DT_INT32"},"T":{"type":"DT_HALF"}}},
          {"name":"StatefulPartitionedCall/model/conv2d_39/Conv2D","op":"Conv2D","input":["StatefulPartitionedCall/model/tf.math.reduce_mean_7/Mean","StatefulPartitionedCall/model/conv2d_39/Conv2D/Cast"],"device":"/device:CPU:0","attr":{"padding":{"s":"VkFMSUQ="},"dilations":{"list":{"i":["1","1","1","1"]}},"strides":{"list":{"i":["1","1","1","1"]}},"T":{"type":"DT_HALF"},"explicit_paddings":{"list":{}},"data_format":{"s":"TkhXQw=="},"use_cudnn_on_gpu":{"b":true}}},
          {"name":"StatefulPartitionedCall/model/conv2d_39/BiasAdd","op":"BiasAdd","input":["StatefulPartitionedCall/model/conv2d_39/Conv2D","StatefulPartitionedCall/model/conv2d_39/BiasAdd/Cast"],"attr":{"data_format":{"s":"TkhXQw=="},"T":{"type":"DT_HALF"}}},
          {"name":"StatefulPartitionedCall/model/activation_36/Sigmoid","op":"Sigmoid","input":["StatefulPartitionedCall/model/conv2d_39/BiasAdd"],"attr":{"T":{"type":"DT_HALF"}}},
          {"name":"StatefulPartitionedCall/model/activation_36/mul_1","op":"Mul","input":["StatefulPartitionedCall/model/conv2d_39/BiasAdd","StatefulPartitionedCall/model/activation_36/Sigmoid"],"attr":{"T":{"type":"DT_HALF"}}},
          {"name":"StatefulPartitionedCall/model/conv2d_40/Conv2D","op":"Conv2D","input":["StatefulPartitionedCall/model/activation_36/mul_1","StatefulPartitionedCall/model/conv2d_40/Conv2D/Cast"],"device":"/device:CPU:0","attr":{"T":{"type":"DT_HALF"},"use_cudnn_on_gpu":{"b":true},"explicit_paddings":{"list":{}},"padding":{"s":"VkFMSUQ="},"dilations":{"list":{"i":["1","1","1","1"]}},"data_format":{"s":"TkhXQw=="},"strides":{"list":{"i":["1","1","1","1"]}}}},
          {"name":"StatefulPartitionedCall/model/conv2d_40/BiasAdd","op":"BiasAdd","input":["StatefulPartitionedCall/model/conv2d_40/Conv2D","StatefulPartitionedCall/model/conv2d_40/BiasAdd/Cast"],"attr":{"data_format":{"s":"TkhXQw=="},"T":{"type":"DT_HALF"}}},
          {"name":"StatefulPartitionedCall/model/activation_37/Sigmoid","op":"Sigmoid","input":["StatefulPartitionedCall/model/conv2d_40/BiasAdd"],"attr":{"T":{"type":"DT_HALF"}}},
          {"name":"StatefulPartitionedCall/model/multiply_7/mul","op":"Mul","input":["StatefulPartitionedCall/model/activation_35/mul_1","StatefulPartitionedCall/model/activation_37/Sigmoid"],"attr":{"T":{"type":"DT_HALF"}}},
          {"name":"StatefulPartitionedCall/model/conv2d_41/Conv2D","op":"Conv2D","input":["StatefulPartitionedCall/model/multiply_7/mul","StatefulPartitionedCall/model/conv2d_41/Conv2D_weights"],"device":"/device:CPU:0","attr":{"use_cudnn_on_gpu":{"b":true},"padding":{"s":"U0FNRQ=="},"explicit_paddings":{"list":{}},"data_format":{"s":"TkhXQw=="},"strides":{"list":{"i":["1","1","1","1"]}},"dilations":{"list":{"i":["1","1","1","1"]}},"T":{"type":"DT_HALF"}}},
          {"name":"StatefulPartitionedCall/model/batch_normalization_33/FusedBatchNormV3","op":"BiasAdd","input":["StatefulPartitionedCall/model/conv2d_41/Conv2D","StatefulPartitionedCall/model/conv2d_41/Conv2D_bn_offset"],"attr":{"T":{"type":"DT_HALF"},"data_format":{"s":"TkhXQw=="}}},
          {"name":"StatefulPartitionedCall/model/add_7/add","op":"AddV2","input":["StatefulPartitionedCall/model/add_6/add","StatefulPartitionedCall/model/batch_normalization_33/FusedBatchNormV3"],"attr":{"T":{"type":"DT_HALF"}}},
          {"name":"StatefulPartitionedCall/model/conv2d_42/Conv2D","op":"Conv2D","input":["StatefulPartitionedCall/model/add_7/add","StatefulPartitionedCall/model/conv2d_42/Conv2D_weights"],"device":"/device:CPU:0","attr":{"use_cudnn_on_gpu":{"b":true},"T":{"type":"DT_HALF"},"strides":{"list":{"i":["1","1","1","1"]}},"explicit_paddings":{"list":{}},"dilations":{"list":{"i":["1","1","1","1"]}},"padding":{"s":"U0FNRQ=="},"data_format":{"s":"TkhXQw=="}}},
          {"name":"StatefulPartitionedCall/model/batch_normalization_34/FusedBatchNormV3","op":"BiasAdd","input":["StatefulPartitionedCall/model/conv2d_42/Conv2D","StatefulPartitionedCall/model/conv2d_42/Conv2D_bn_offset"],"attr":{"T":{"type":"DT_HALF"},"data_format":{"s":"TkhXQw=="}}},
          {"name":"StatefulPartitionedCall/model/activation_38/Sigmoid","op":"Sigmoid","input":["StatefulPartitionedCall/model/batch_normalization_34/FusedBatchNormV3"],"attr":{"T":{"type":"DT_HALF"}}},
          {"name":"StatefulPartitionedCall/model/activation_38/mul_1","op":"Mul","input":["StatefulPartitionedCall/model/batch_normalization_34/FusedBatchNormV3","StatefulPartitionedCall/model/activation_38/Sigmoid"],"attr":{"T":{"type":"DT_HALF"}}},
          {"name":"StatefulPartitionedCall/model/depthwise_conv2d_8/depthwise","op":"FusedDepthwiseConv2dNative","input":["StatefulPartitionedCall/model/activation_38/mul_1","StatefulPartitionedCall/model/depthwise_conv2d_8/depthwise_weights","StatefulPartitionedCall/model/depthwise_conv2d_8/depthwise_bn_offset"],"attr":{"num_args":{"i":"1"},"strides":{"list":{"i":["1","2","2","1"]}},"fused_ops":{"list":{"s":["Qmlhc0FkZA=="]}},"explicit_paddings":{"list":{}},"padding":{"s":"U0FNRQ=="},"T":{"type":"DT_HALF"},"dilations":{"list":{"i":["1","1","1","1"]}},"data_format":{"s":"TkhXQw=="}}},
          {"name":"StatefulPartitionedCall/model/activation_39/Sigmoid","op":"Sigmoid","input":["StatefulPartitionedCall/model/depthwise_conv2d_8/depthwise"],"attr":{"T":{"type":"DT_HALF"}}},
          {"name":"StatefulPartitionedCall/model/activation_39/mul_1","op":"Mul","input":["StatefulPartitionedCall/model/depthwise_conv2d_8/depthwise","StatefulPartitionedCall/model/activation_39/Sigmoid"],"attr":{"T":{"type":"DT_HALF"}}},
          {"name":"StatefulPartitionedCall/model/tf.math.reduce_mean_8/Mean","op":"Mean","input":["StatefulPartitionedCall/model/activation_39/mul_1","StatefulPartitionedCall/model/tf.math.reduce_mean_8/Mean/reduction_indices"],"attr":{"keep_dims":{"b":true},"Tidx":{"type":"DT_INT32"},"T":{"type":"DT_HALF"}}},
          {"name":"StatefulPartitionedCall/model/conv2d_43/Conv2D","op":"Conv2D","input":["StatefulPartitionedCall/model/tf.math.reduce_mean_8/Mean","StatefulPartitionedCall/model/conv2d_43/Conv2D/Cast"],"device":"/device:CPU:0","attr":{"strides":{"list":{"i":["1","1","1","1"]}},"explicit_paddings":{"list":{}},"data_format":{"s":"TkhXQw=="},"dilations":{"list":{"i":["1","1","1","1"]}},"padding":{"s":"VkFMSUQ="},"T":{"type":"DT_HALF"},"use_cudnn_on_gpu":{"b":true}}},
          {"name":"StatefulPartitionedCall/model/conv2d_43/BiasAdd","op":"BiasAdd","input":["StatefulPartitionedCall/model/conv2d_43/Conv2D","StatefulPartitionedCall/model/conv2d_43/BiasAdd/Cast"],"attr":{"data_format":{"s":"TkhXQw=="},"T":{"type":"DT_HALF"}}},
          {"name":"StatefulPartitionedCall/model/activation_40/Sigmoid","op":"Sigmoid","input":["StatefulPartitionedCall/model/conv2d_43/BiasAdd"],"attr":{"T":{"type":"DT_HALF"}}},
          {"name":"StatefulPartitionedCall/model/activation_40/mul_1","op":"Mul","input":["StatefulPartitionedCall/model/conv2d_43/BiasAdd","StatefulPartitionedCall/model/activation_40/Sigmoid"],"attr":{"T":{"type":"DT_HALF"}}},
          {"name":"StatefulPartitionedCall/model/conv2d_44/Conv2D","op":"Conv2D","input":["StatefulPartitionedCall/model/activation_40/mul_1","StatefulPartitionedCall/model/conv2d_44/Conv2D/Cast"],"device":"/device:CPU:0","attr":{"T":{"type":"DT_HALF"},"dilations":{"list":{"i":["1","1","1","1"]}},"strides":{"list":{"i":["1","1","1","1"]}},"explicit_paddings":{"list":{}},"data_format":{"s":"TkhXQw=="},"use_cudnn_on_gpu":{"b":true},"padding":{"s":"VkFMSUQ="}}},
          {"name":"StatefulPartitionedCall/model/conv2d_44/BiasAdd","op":"BiasAdd","input":["StatefulPartitionedCall/model/conv2d_44/Conv2D","StatefulPartitionedCall/model/conv2d_44/BiasAdd/Cast"],"attr":{"data_format":{"s":"TkhXQw=="},"T":{"type":"DT_HALF"}}},
          {"name":"StatefulPartitionedCall/model/activation_41/Sigmoid","op":"Sigmoid","input":["StatefulPartitionedCall/model/conv2d_44/BiasAdd"],"attr":{"T":{"type":"DT_HALF"}}},
          {"name":"StatefulPartitionedCall/model/multiply_8/mul","op":"Mul","input":["StatefulPartitionedCall/model/activation_39/mul_1","StatefulPartitionedCall/model/activation_41/Sigmoid"],"attr":{"T":{"type":"DT_HALF"}}},
          {"name":"StatefulPartitionedCall/model/conv2d_45/Conv2D","op":"Conv2D","input":["StatefulPartitionedCall/model/multiply_8/mul","StatefulPartitionedCall/model/conv2d_45/Conv2D_weights"],"device":"/device:CPU:0","attr":{"strides":{"list":{"i":["1","1","1","1"]}},"use_cudnn_on_gpu":{"b":true},"dilations":{"list":{"i":["1","1","1","1"]}},"data_format":{"s":"TkhXQw=="},"explicit_paddings":{"list":{}},"padding":{"s":"U0FNRQ=="},"T":{"type":"DT_HALF"}}},
          {"name":"StatefulPartitionedCall/model/batch_normalization_36/FusedBatchNormV3","op":"BiasAdd","input":["StatefulPartitionedCall/model/conv2d_45/Conv2D","StatefulPartitionedCall/model/conv2d_45/Conv2D_bn_offset"],"attr":{"T":{"type":"DT_HALF"},"data_format":{"s":"TkhXQw=="}}},
          {"name":"StatefulPartitionedCall/model/conv2d_46/Conv2D","op":"Conv2D","input":["StatefulPartitionedCall/model/batch_normalization_36/FusedBatchNormV3","StatefulPartitionedCall/model/conv2d_46/Conv2D_weights"],"device":"/device:CPU:0","attr":{"data_format":{"s":"TkhXQw=="},"T":{"type":"DT_HALF"},"dilations":{"list":{"i":["1","1","1","1"]}},"strides":{"list":{"i":["1","1","1","1"]}},"use_cudnn_on_gpu":{"b":true},"explicit_paddings":{"list":{}},"padding":{"s":"U0FNRQ=="}}},
          {"name":"StatefulPartitionedCall/model/batch_normalization_37/FusedBatchNormV3","op":"BiasAdd","input":["StatefulPartitionedCall/model/conv2d_46/Conv2D","StatefulPartitionedCall/model/conv2d_46/Conv2D_bn_offset"],"attr":{"data_format":{"s":"TkhXQw=="},"T":{"type":"DT_HALF"}}},
          {"name":"StatefulPartitionedCall/model/activation_42/Sigmoid","op":"Sigmoid","input":["StatefulPartitionedCall/model/batch_normalization_37/FusedBatchNormV3"],"attr":{"T":{"type":"DT_HALF"}}},
          {"name":"StatefulPartitionedCall/model/activation_42/mul_1","op":"Mul","input":["StatefulPartitionedCall/model/batch_normalization_37/FusedBatchNormV3","StatefulPartitionedCall/model/activation_42/Sigmoid"],"attr":{"T":{"type":"DT_HALF"}}},
          {"name":"StatefulPartitionedCall/model/depthwise_conv2d_9/depthwise","op":"FusedDepthwiseConv2dNative","input":["StatefulPartitionedCall/model/activation_42/mul_1","StatefulPartitionedCall/model/depthwise_conv2d_9/depthwise_weights","StatefulPartitionedCall/model/depthwise_conv2d_9/depthwise_bn_offset"],"attr":{"padding":{"s":"U0FNRQ=="},"strides":{"list":{"i":["1","1","1","1"]}},"T":{"type":"DT_HALF"},"num_args":{"i":"1"},"fused_ops":{"list":{"s":["Qmlhc0FkZA=="]}},"dilations":{"list":{"i":["1","1","1","1"]}},"data_format":{"s":"TkhXQw=="},"explicit_paddings":{"list":{}}}},
          {"name":"StatefulPartitionedCall/model/activation_43/Sigmoid","op":"Sigmoid","input":["StatefulPartitionedCall/model/depthwise_conv2d_9/depthwise"],"attr":{"T":{"type":"DT_HALF"}}},
          {"name":"StatefulPartitionedCall/model/activation_43/mul_1","op":"Mul","input":["StatefulPartitionedCall/model/depthwise_conv2d_9/depthwise","StatefulPartitionedCall/model/activation_43/Sigmoid"],"attr":{"T":{"type":"DT_HALF"}}},
          {"name":"StatefulPartitionedCall/model/tf.math.reduce_mean_9/Mean","op":"Mean","input":["StatefulPartitionedCall/model/activation_43/mul_1","StatefulPartitionedCall/model/tf.math.reduce_mean_9/Mean/reduction_indices"],"attr":{"keep_dims":{"b":true},"Tidx":{"type":"DT_INT32"},"T":{"type":"DT_HALF"}}},
          {"name":"StatefulPartitionedCall/model/conv2d_47/Conv2D","op":"Conv2D","input":["StatefulPartitionedCall/model/tf.math.reduce_mean_9/Mean","StatefulPartitionedCall/model/conv2d_47/Conv2D/Cast"],"device":"/device:CPU:0","attr":{"use_cudnn_on_gpu":{"b":true},"strides":{"list":{"i":["1","1","1","1"]}},"padding":{"s":"VkFMSUQ="},"dilations":{"list":{"i":["1","1","1","1"]}},"data_format":{"s":"TkhXQw=="},"T":{"type":"DT_HALF"},"explicit_paddings":{"list":{}}}},
          {"name":"StatefulPartitionedCall/model/conv2d_47/BiasAdd","op":"BiasAdd","input":["StatefulPartitionedCall/model/conv2d_47/Conv2D","StatefulPartitionedCall/model/conv2d_47/BiasAdd/Cast"],"attr":{"data_format":{"s":"TkhXQw=="},"T":{"type":"DT_HALF"}}},
          {"name":"StatefulPartitionedCall/model/activation_44/Sigmoid","op":"Sigmoid","input":["StatefulPartitionedCall/model/conv2d_47/BiasAdd"],"attr":{"T":{"type":"DT_HALF"}}},
          {"name":"StatefulPartitionedCall/model/activation_44/mul_1","op":"Mul","input":["StatefulPartitionedCall/model/conv2d_47/BiasAdd","StatefulPartitionedCall/model/activation_44/Sigmoid"],"attr":{"T":{"type":"DT_HALF"}}},
          {"name":"StatefulPartitionedCall/model/conv2d_48/Conv2D","op":"Conv2D","input":["StatefulPartitionedCall/model/activation_44/mul_1","StatefulPartitionedCall/model/conv2d_48/Conv2D/Cast"],"device":"/device:CPU:0","attr":{"padding":{"s":"VkFMSUQ="},"data_format":{"s":"TkhXQw=="},"use_cudnn_on_gpu":{"b":true},"strides":{"list":{"i":["1","1","1","1"]}},"T":{"type":"DT_HALF"},"dilations":{"list":{"i":["1","1","1","1"]}},"explicit_paddings":{"list":{}}}},
          {"name":"StatefulPartitionedCall/model/conv2d_48/BiasAdd","op":"BiasAdd","input":["StatefulPartitionedCall/model/conv2d_48/Conv2D","StatefulPartitionedCall/model/conv2d_48/BiasAdd/Cast"],"attr":{"data_format":{"s":"TkhXQw=="},"T":{"type":"DT_HALF"}}},
          {"name":"StatefulPartitionedCall/model/activation_45/Sigmoid","op":"Sigmoid","input":["StatefulPartitionedCall/model/conv2d_48/BiasAdd"],"attr":{"T":{"type":"DT_HALF"}}},
          {"name":"StatefulPartitionedCall/model/multiply_9/mul","op":"Mul","input":["StatefulPartitionedCall/model/activation_43/mul_1","StatefulPartitionedCall/model/activation_45/Sigmoid"],"attr":{"T":{"type":"DT_HALF"}}},
          {"name":"StatefulPartitionedCall/model/conv2d_49/Conv2D","op":"Conv2D","input":["StatefulPartitionedCall/model/multiply_9/mul","StatefulPartitionedCall/model/conv2d_49/Conv2D_weights"],"device":"/device:CPU:0","attr":{"strides":{"list":{"i":["1","1","1","1"]}},"explicit_paddings":{"list":{}},"data_format":{"s":"TkhXQw=="},"dilations":{"list":{"i":["1","1","1","1"]}},"T":{"type":"DT_HALF"},"use_cudnn_on_gpu":{"b":true},"padding":{"s":"U0FNRQ=="}}},
          {"name":"StatefulPartitionedCall/model/batch_normalization_39/FusedBatchNormV3","op":"BiasAdd","input":["StatefulPartitionedCall/model/conv2d_49/Conv2D","StatefulPartitionedCall/model/conv2d_49/Conv2D_bn_offset"],"attr":{"data_format":{"s":"TkhXQw=="},"T":{"type":"DT_HALF"}}},
          {"name":"StatefulPartitionedCall/model/add_8/add","op":"AddV2","input":["StatefulPartitionedCall/model/batch_normalization_36/FusedBatchNormV3","StatefulPartitionedCall/model/batch_normalization_39/FusedBatchNormV3"],"attr":{"T":{"type":"DT_HALF"}}},
          {"name":"StatefulPartitionedCall/model/conv2d_50/Conv2D","op":"Conv2D","input":["StatefulPartitionedCall/model/add_8/add","StatefulPartitionedCall/model/conv2d_50/Conv2D_weights"],"device":"/device:CPU:0","attr":{"data_format":{"s":"TkhXQw=="},"dilations":{"list":{"i":["1","1","1","1"]}},"T":{"type":"DT_HALF"},"strides":{"list":{"i":["1","1","1","1"]}},"use_cudnn_on_gpu":{"b":true},"explicit_paddings":{"list":{}},"padding":{"s":"U0FNRQ=="}}},
          {"name":"StatefulPartitionedCall/model/batch_normalization_40/FusedBatchNormV3","op":"BiasAdd","input":["StatefulPartitionedCall/model/conv2d_50/Conv2D","StatefulPartitionedCall/model/conv2d_50/Conv2D_bn_offset"],"attr":{"T":{"type":"DT_HALF"},"data_format":{"s":"TkhXQw=="}}},
          {"name":"StatefulPartitionedCall/model/activation_46/Sigmoid","op":"Sigmoid","input":["StatefulPartitionedCall/model/batch_normalization_40/FusedBatchNormV3"],"attr":{"T":{"type":"DT_HALF"}}},
          {"name":"StatefulPartitionedCall/model/activation_46/mul_1","op":"Mul","input":["StatefulPartitionedCall/model/batch_normalization_40/FusedBatchNormV3","StatefulPartitionedCall/model/activation_46/Sigmoid"],"attr":{"T":{"type":"DT_HALF"}}},
          {"name":"StatefulPartitionedCall/model/depthwise_conv2d_10/depthwise","op":"FusedDepthwiseConv2dNative","input":["StatefulPartitionedCall/model/activation_46/mul_1","StatefulPartitionedCall/model/depthwise_conv2d_10/depthwise_weights","StatefulPartitionedCall/model/depthwise_conv2d_10/depthwise_bn_offset"],"attr":{"data_format":{"s":"TkhXQw=="},"padding":{"s":"U0FNRQ=="},"explicit_paddings":{"list":{}},"num_args":{"i":"1"},"dilations":{"list":{"i":["1","1","1","1"]}},"T":{"type":"DT_HALF"},"strides":{"list":{"i":["1","1","1","1"]}},"fused_ops":{"list":{"s":["Qmlhc0FkZA=="]}}}},
          {"name":"StatefulPartitionedCall/model/activation_47/Sigmoid","op":"Sigmoid","input":["StatefulPartitionedCall/model/depthwise_conv2d_10/depthwise"],"attr":{"T":{"type":"DT_HALF"}}},
          {"name":"StatefulPartitionedCall/model/activation_47/mul_1","op":"Mul","input":["StatefulPartitionedCall/model/depthwise_conv2d_10/depthwise","StatefulPartitionedCall/model/activation_47/Sigmoid"],"attr":{"T":{"type":"DT_HALF"}}},
          {"name":"StatefulPartitionedCall/model/tf.math.reduce_mean_10/Mean","op":"Mean","input":["StatefulPartitionedCall/model/activation_47/mul_1","StatefulPartitionedCall/model/tf.math.reduce_mean_10/Mean/reduction_indices"],"attr":{"T":{"type":"DT_HALF"},"keep_dims":{"b":true},"Tidx":{"type":"DT_INT32"}}},
          {"name":"StatefulPartitionedCall/model/conv2d_51/Conv2D","op":"Conv2D","input":["StatefulPartitionedCall/model/tf.math.reduce_mean_10/Mean","StatefulPartitionedCall/model/conv2d_51/Conv2D/Cast"],"device":"/device:CPU:0","attr":{"use_cudnn_on_gpu":{"b":true},"padding":{"s":"VkFMSUQ="},"dilations":{"list":{"i":["1","1","1","1"]}},"strides":{"list":{"i":["1","1","1","1"]}},"data_format":{"s":"TkhXQw=="},"T":{"type":"DT_HALF"},"explicit_paddings":{"list":{}}}},
          {"name":"StatefulPartitionedCall/model/conv2d_51/BiasAdd","op":"BiasAdd","input":["StatefulPartitionedCall/model/conv2d_51/Conv2D","StatefulPartitionedCall/model/conv2d_51/BiasAdd/Cast"],"attr":{"data_format":{"s":"TkhXQw=="},"T":{"type":"DT_HALF"}}},
          {"name":"StatefulPartitionedCall/model/activation_48/Sigmoid","op":"Sigmoid","input":["StatefulPartitionedCall/model/conv2d_51/BiasAdd"],"attr":{"T":{"type":"DT_HALF"}}},
          {"name":"StatefulPartitionedCall/model/activation_48/mul_1","op":"Mul","input":["StatefulPartitionedCall/model/conv2d_51/BiasAdd","StatefulPartitionedCall/model/activation_48/Sigmoid"],"attr":{"T":{"type":"DT_HALF"}}},
          {"name":"StatefulPartitionedCall/model/conv2d_52/Conv2D","op":"Conv2D","input":["StatefulPartitionedCall/model/activation_48/mul_1","StatefulPartitionedCall/model/conv2d_52/Conv2D/Cast"],"device":"/device:CPU:0","attr":{"T":{"type":"DT_HALF"},"dilations":{"list":{"i":["1","1","1","1"]}},"strides":{"list":{"i":["1","1","1","1"]}},"padding":{"s":"VkFMSUQ="},"explicit_paddings":{"list":{}},"use_cudnn_on_gpu":{"b":true},"data_format":{"s":"TkhXQw=="}}},
          {"name":"StatefulPartitionedCall/model/conv2d_52/BiasAdd","op":"BiasAdd","input":["StatefulPartitionedCall/model/conv2d_52/Conv2D","StatefulPartitionedCall/model/conv2d_52/BiasAdd/Cast"],"attr":{"data_format":{"s":"TkhXQw=="},"T":{"type":"DT_HALF"}}},
          {"name":"StatefulPartitionedCall/model/activation_49/Sigmoid","op":"Sigmoid","input":["StatefulPartitionedCall/model/conv2d_52/BiasAdd"],"attr":{"T":{"type":"DT_HALF"}}},
          {"name":"StatefulPartitionedCall/model/multiply_10/mul","op":"Mul","input":["StatefulPartitionedCall/model/activation_47/mul_1","StatefulPartitionedCall/model/activation_49/Sigmoid"],"attr":{"T":{"type":"DT_HALF"}}},
          {"name":"StatefulPartitionedCall/model/conv2d_53/Conv2D","op":"Conv2D","input":["StatefulPartitionedCall/model/multiply_10/mul","StatefulPartitionedCall/model/conv2d_53/Conv2D_weights"],"device":"/device:CPU:0","attr":{"T":{"type":"DT_HALF"},"padding":{"s":"U0FNRQ=="},"dilations":{"list":{"i":["1","1","1","1"]}},"explicit_paddings":{"list":{}},"data_format":{"s":"TkhXQw=="},"use_cudnn_on_gpu":{"b":true},"strides":{"list":{"i":["1","1","1","1"]}}}},
          {"name":"StatefulPartitionedCall/model/batch_normalization_42/FusedBatchNormV3","op":"BiasAdd","input":["StatefulPartitionedCall/model/conv2d_53/Conv2D","StatefulPartitionedCall/model/conv2d_53/Conv2D_bn_offset"],"attr":{"T":{"type":"DT_HALF"},"data_format":{"s":"TkhXQw=="}}},
          {"name":"StatefulPartitionedCall/model/add_9/add","op":"AddV2","input":["StatefulPartitionedCall/model/add_8/add","StatefulPartitionedCall/model/batch_normalization_42/FusedBatchNormV3"],"attr":{"T":{"type":"DT_HALF"}}},
          {"name":"StatefulPartitionedCall/model/conv2d_54/Conv2D","op":"Conv2D","input":["StatefulPartitionedCall/model/add_9/add","StatefulPartitionedCall/model/conv2d_54/Conv2D_weights"],"device":"/device:CPU:0","attr":{"use_cudnn_on_gpu":{"b":true},"strides":{"list":{"i":["1","1","1","1"]}},"T":{"type":"DT_HALF"},"dilations":{"list":{"i":["1","1","1","1"]}},"padding":{"s":"U0FNRQ=="},"explicit_paddings":{"list":{}},"data_format":{"s":"TkhXQw=="}}},
          {"name":"StatefulPartitionedCall/model/batch_normalization_43/FusedBatchNormV3","op":"BiasAdd","input":["StatefulPartitionedCall/model/conv2d_54/Conv2D","StatefulPartitionedCall/model/conv2d_54/Conv2D_bn_offset"],"attr":{"data_format":{"s":"TkhXQw=="},"T":{"type":"DT_HALF"}}},
          {"name":"StatefulPartitionedCall/model/activation_50/Sigmoid","op":"Sigmoid","input":["StatefulPartitionedCall/model/batch_normalization_43/FusedBatchNormV3"],"attr":{"T":{"type":"DT_HALF"}}},
          {"name":"StatefulPartitionedCall/model/activation_50/mul_1","op":"Mul","input":["StatefulPartitionedCall/model/batch_normalization_43/FusedBatchNormV3","StatefulPartitionedCall/model/activation_50/Sigmoid"],"attr":{"T":{"type":"DT_HALF"}}},
          {"name":"StatefulPartitionedCall/model/depthwise_conv2d_11/depthwise","op":"FusedDepthwiseConv2dNative","input":["StatefulPartitionedCall/model/activation_50/mul_1","StatefulPartitionedCall/model/depthwise_conv2d_11/depthwise_weights","StatefulPartitionedCall/model/depthwise_conv2d_11/depthwise_bn_offset"],"attr":{"padding":{"s":"U0FNRQ=="},"explicit_paddings":{"list":{}},"T":{"type":"DT_HALF"},"strides":{"list":{"i":["1","1","1","1"]}},"data_format":{"s":"TkhXQw=="},"num_args":{"i":"1"},"fused_ops":{"list":{"s":["Qmlhc0FkZA=="]}},"dilations":{"list":{"i":["1","1","1","1"]}}}},
          {"name":"StatefulPartitionedCall/model/activation_51/Sigmoid","op":"Sigmoid","input":["StatefulPartitionedCall/model/depthwise_conv2d_11/depthwise"],"attr":{"T":{"type":"DT_HALF"}}},
          {"name":"StatefulPartitionedCall/model/activation_51/mul_1","op":"Mul","input":["StatefulPartitionedCall/model/depthwise_conv2d_11/depthwise","StatefulPartitionedCall/model/activation_51/Sigmoid"],"attr":{"T":{"type":"DT_HALF"}}},
          {"name":"StatefulPartitionedCall/model/tf.math.reduce_mean_11/Mean","op":"Mean","input":["StatefulPartitionedCall/model/activation_51/mul_1","StatefulPartitionedCall/model/tf.math.reduce_mean_11/Mean/reduction_indices"],"attr":{"keep_dims":{"b":true},"Tidx":{"type":"DT_INT32"},"T":{"type":"DT_HALF"}}},
          {"name":"StatefulPartitionedCall/model/conv2d_55/Conv2D","op":"Conv2D","input":["StatefulPartitionedCall/model/tf.math.reduce_mean_11/Mean","StatefulPartitionedCall/model/conv2d_55/Conv2D/Cast"],"device":"/device:CPU:0","attr":{"padding":{"s":"VkFMSUQ="},"use_cudnn_on_gpu":{"b":true},"explicit_paddings":{"list":{}},"strides":{"list":{"i":["1","1","1","1"]}},"data_format":{"s":"TkhXQw=="},"T":{"type":"DT_HALF"},"dilations":{"list":{"i":["1","1","1","1"]}}}},
          {"name":"StatefulPartitionedCall/model/conv2d_55/BiasAdd","op":"BiasAdd","input":["StatefulPartitionedCall/model/conv2d_55/Conv2D","StatefulPartitionedCall/model/conv2d_55/BiasAdd/Cast"],"attr":{"data_format":{"s":"TkhXQw=="},"T":{"type":"DT_HALF"}}},
          {"name":"StatefulPartitionedCall/model/activation_52/Sigmoid","op":"Sigmoid","input":["StatefulPartitionedCall/model/conv2d_55/BiasAdd"],"attr":{"T":{"type":"DT_HALF"}}},
          {"name":"StatefulPartitionedCall/model/activation_52/mul_1","op":"Mul","input":["StatefulPartitionedCall/model/conv2d_55/BiasAdd","StatefulPartitionedCall/model/activation_52/Sigmoid"],"attr":{"T":{"type":"DT_HALF"}}},
          {"name":"StatefulPartitionedCall/model/conv2d_56/Conv2D","op":"Conv2D","input":["StatefulPartitionedCall/model/activation_52/mul_1","StatefulPartitionedCall/model/conv2d_56/Conv2D/Cast"],"device":"/device:CPU:0","attr":{"use_cudnn_on_gpu":{"b":true},"data_format":{"s":"TkhXQw=="},"T":{"type":"DT_HALF"},"padding":{"s":"VkFMSUQ="},"dilations":{"list":{"i":["1","1","1","1"]}},"strides":{"list":{"i":["1","1","1","1"]}},"explicit_paddings":{"list":{}}}},
          {"name":"StatefulPartitionedCall/model/conv2d_56/BiasAdd","op":"BiasAdd","input":["StatefulPartitionedCall/model/conv2d_56/Conv2D","StatefulPartitionedCall/model/conv2d_56/BiasAdd/Cast"],"attr":{"T":{"type":"DT_HALF"},"data_format":{"s":"TkhXQw=="}}},
          {"name":"StatefulPartitionedCall/model/activation_53/Sigmoid","op":"Sigmoid","input":["StatefulPartitionedCall/model/conv2d_56/BiasAdd"],"attr":{"T":{"type":"DT_HALF"}}},
          {"name":"StatefulPartitionedCall/model/multiply_11/mul","op":"Mul","input":["StatefulPartitionedCall/model/activation_51/mul_1","StatefulPartitionedCall/model/activation_53/Sigmoid"],"attr":{"T":{"type":"DT_HALF"}}},
          {"name":"StatefulPartitionedCall/model/conv2d_57/Conv2D","op":"Conv2D","input":["StatefulPartitionedCall/model/multiply_11/mul","StatefulPartitionedCall/model/conv2d_57/Conv2D_weights"],"device":"/device:CPU:0","attr":{"T":{"type":"DT_HALF"},"use_cudnn_on_gpu":{"b":true},"dilations":{"list":{"i":["1","1","1","1"]}},"explicit_paddings":{"list":{}},"padding":{"s":"U0FNRQ=="},"strides":{"list":{"i":["1","1","1","1"]}},"data_format":{"s":"TkhXQw=="}}},
          {"name":"StatefulPartitionedCall/model/batch_normalization_45/FusedBatchNormV3","op":"BiasAdd","input":["StatefulPartitionedCall/model/conv2d_57/Conv2D","StatefulPartitionedCall/model/conv2d_57/Conv2D_bn_offset"],"attr":{"data_format":{"s":"TkhXQw=="},"T":{"type":"DT_HALF"}}},
          {"name":"StatefulPartitionedCall/model/add_10/add","op":"AddV2","input":["StatefulPartitionedCall/model/add_9/add","StatefulPartitionedCall/model/batch_normalization_45/FusedBatchNormV3"],"attr":{"T":{"type":"DT_HALF"}}},
          {"name":"StatefulPartitionedCall/model/conv2d_58/Conv2D","op":"Conv2D","input":["StatefulPartitionedCall/model/add_10/add","StatefulPartitionedCall/model/conv2d_58/Conv2D_weights"],"device":"/device:CPU:0","attr":{"padding":{"s":"U0FNRQ=="},"explicit_paddings":{"list":{}},"data_format":{"s":"TkhXQw=="},"dilations":{"list":{"i":["1","1","1","1"]}},"T":{"type":"DT_HALF"},"strides":{"list":{"i":["1","1","1","1"]}},"use_cudnn_on_gpu":{"b":true}}},
          {"name":"StatefulPartitionedCall/model/batch_normalization_46/FusedBatchNormV3","op":"BiasAdd","input":["StatefulPartitionedCall/model/conv2d_58/Conv2D","StatefulPartitionedCall/model/conv2d_58/Conv2D_bn_offset"],"attr":{"data_format":{"s":"TkhXQw=="},"T":{"type":"DT_HALF"}}},
          {"name":"StatefulPartitionedCall/model/activation_54/Sigmoid","op":"Sigmoid","input":["StatefulPartitionedCall/model/batch_normalization_46/FusedBatchNormV3"],"attr":{"T":{"type":"DT_HALF"}}},
          {"name":"StatefulPartitionedCall/model/activation_54/mul_1","op":"Mul","input":["StatefulPartitionedCall/model/batch_normalization_46/FusedBatchNormV3","StatefulPartitionedCall/model/activation_54/Sigmoid"],"attr":{"T":{"type":"DT_HALF"}}},
          {"name":"StatefulPartitionedCall/model/depthwise_conv2d_12/depthwise","op":"FusedDepthwiseConv2dNative","input":["StatefulPartitionedCall/model/activation_54/mul_1","StatefulPartitionedCall/model/depthwise_conv2d_12/depthwise_weights","StatefulPartitionedCall/model/depthwise_conv2d_12/depthwise_bn_offset"],"attr":{"fused_ops":{"list":{"s":["Qmlhc0FkZA=="]}},"padding":{"s":"U0FNRQ=="},"dilations":{"list":{"i":["1","1","1","1"]}},"T":{"type":"DT_HALF"},"data_format":{"s":"TkhXQw=="},"explicit_paddings":{"list":{}},"num_args":{"i":"1"},"strides":{"list":{"i":["1","1","1","1"]}}}},
          {"name":"StatefulPartitionedCall/model/activation_55/Sigmoid","op":"Sigmoid","input":["StatefulPartitionedCall/model/depthwise_conv2d_12/depthwise"],"attr":{"T":{"type":"DT_HALF"}}},
          {"name":"StatefulPartitionedCall/model/activation_55/mul_1","op":"Mul","input":["StatefulPartitionedCall/model/depthwise_conv2d_12/depthwise","StatefulPartitionedCall/model/activation_55/Sigmoid"],"attr":{"T":{"type":"DT_HALF"}}},
          {"name":"StatefulPartitionedCall/model/tf.math.reduce_mean_12/Mean","op":"Mean","input":["StatefulPartitionedCall/model/activation_55/mul_1","StatefulPartitionedCall/model/tf.math.reduce_mean_12/Mean/reduction_indices"],"attr":{"T":{"type":"DT_HALF"},"keep_dims":{"b":true},"Tidx":{"type":"DT_INT32"}}},
          {"name":"StatefulPartitionedCall/model/conv2d_59/Conv2D","op":"Conv2D","input":["StatefulPartitionedCall/model/tf.math.reduce_mean_12/Mean","StatefulPartitionedCall/model/conv2d_59/Conv2D/Cast"],"device":"/device:CPU:0","attr":{"use_cudnn_on_gpu":{"b":true},"explicit_paddings":{"list":{}},"T":{"type":"DT_HALF"},"data_format":{"s":"TkhXQw=="},"padding":{"s":"VkFMSUQ="},"dilations":{"list":{"i":["1","1","1","1"]}},"strides":{"list":{"i":["1","1","1","1"]}}}},
          {"name":"StatefulPartitionedCall/model/conv2d_59/BiasAdd","op":"BiasAdd","input":["StatefulPartitionedCall/model/conv2d_59/Conv2D","StatefulPartitionedCall/model/conv2d_59/BiasAdd/Cast"],"attr":{"T":{"type":"DT_HALF"},"data_format":{"s":"TkhXQw=="}}},
          {"name":"StatefulPartitionedCall/model/activation_56/Sigmoid","op":"Sigmoid","input":["StatefulPartitionedCall/model/conv2d_59/BiasAdd"],"attr":{"T":{"type":"DT_HALF"}}},
          {"name":"StatefulPartitionedCall/model/activation_56/mul_1","op":"Mul","input":["StatefulPartitionedCall/model/conv2d_59/BiasAdd","StatefulPartitionedCall/model/activation_56/Sigmoid"],"attr":{"T":{"type":"DT_HALF"}}},
          {"name":"StatefulPartitionedCall/model/conv2d_60/Conv2D","op":"Conv2D","input":["StatefulPartitionedCall/model/activation_56/mul_1","StatefulPartitionedCall/model/conv2d_60/Conv2D/Cast"],"device":"/device:CPU:0","attr":{"dilations":{"list":{"i":["1","1","1","1"]}},"T":{"type":"DT_HALF"},"strides":{"list":{"i":["1","1","1","1"]}},"data_format":{"s":"TkhXQw=="},"use_cudnn_on_gpu":{"b":true},"padding":{"s":"VkFMSUQ="},"explicit_paddings":{"list":{}}}},
          {"name":"StatefulPartitionedCall/model/conv2d_60/BiasAdd","op":"BiasAdd","input":["StatefulPartitionedCall/model/conv2d_60/Conv2D","StatefulPartitionedCall/model/conv2d_60/BiasAdd/Cast"],"attr":{"data_format":{"s":"TkhXQw=="},"T":{"type":"DT_HALF"}}},
          {"name":"StatefulPartitionedCall/model/activation_57/Sigmoid","op":"Sigmoid","input":["StatefulPartitionedCall/model/conv2d_60/BiasAdd"],"attr":{"T":{"type":"DT_HALF"}}},
          {"name":"StatefulPartitionedCall/model/multiply_12/mul","op":"Mul","input":["StatefulPartitionedCall/model/activation_55/mul_1","StatefulPartitionedCall/model/activation_57/Sigmoid"],"attr":{"T":{"type":"DT_HALF"}}},
          {"name":"StatefulPartitionedCall/model/conv2d_61/Conv2D","op":"Conv2D","input":["StatefulPartitionedCall/model/multiply_12/mul","StatefulPartitionedCall/model/conv2d_61/Conv2D_weights"],"device":"/device:CPU:0","attr":{"padding":{"s":"U0FNRQ=="},"use_cudnn_on_gpu":{"b":true},"strides":{"list":{"i":["1","1","1","1"]}},"T":{"type":"DT_HALF"},"explicit_paddings":{"list":{}},"dilations":{"list":{"i":["1","1","1","1"]}},"data_format":{"s":"TkhXQw=="}}},
          {"name":"StatefulPartitionedCall/model/batch_normalization_48/FusedBatchNormV3","op":"BiasAdd","input":["StatefulPartitionedCall/model/conv2d_61/Conv2D","StatefulPartitionedCall/model/conv2d_61/Conv2D_bn_offset"],"attr":{"T":{"type":"DT_HALF"},"data_format":{"s":"TkhXQw=="}}},
          {"name":"StatefulPartitionedCall/model/add_11/add","op":"AddV2","input":["StatefulPartitionedCall/model/add_10/add","StatefulPartitionedCall/model/batch_normalization_48/FusedBatchNormV3"],"attr":{"T":{"type":"DT_HALF"}}},
          {"name":"StatefulPartitionedCall/model/conv2d_62/Conv2D","op":"Conv2D","input":["StatefulPartitionedCall/model/add_11/add","StatefulPartitionedCall/model/conv2d_62/Conv2D_weights"],"device":"/device:CPU:0","attr":{"padding":{"s":"U0FNRQ=="},"data_format":{"s":"TkhXQw=="},"strides":{"list":{"i":["1","1","1","1"]}},"use_cudnn_on_gpu":{"b":true},"explicit_paddings":{"list":{}},"dilations":{"list":{"i":["1","1","1","1"]}},"T":{"type":"DT_HALF"}}},
          {"name":"StatefulPartitionedCall/model/batch_normalization_49/FusedBatchNormV3","op":"BiasAdd","input":["StatefulPartitionedCall/model/conv2d_62/Conv2D","StatefulPartitionedCall/model/conv2d_62/Conv2D_bn_offset"],"attr":{"data_format":{"s":"TkhXQw=="},"T":{"type":"DT_HALF"}}},
          {"name":"StatefulPartitionedCall/model/activation_58/Sigmoid","op":"Sigmoid","input":["StatefulPartitionedCall/model/batch_normalization_49/FusedBatchNormV3"],"attr":{"T":{"type":"DT_HALF"}}},
          {"name":"StatefulPartitionedCall/model/activation_58/mul_1","op":"Mul","input":["StatefulPartitionedCall/model/batch_normalization_49/FusedBatchNormV3","StatefulPartitionedCall/model/activation_58/Sigmoid"],"attr":{"T":{"type":"DT_HALF"}}},
          {"name":"StatefulPartitionedCall/model/depthwise_conv2d_13/depthwise","op":"FusedDepthwiseConv2dNative","input":["StatefulPartitionedCall/model/activation_58/mul_1","StatefulPartitionedCall/model/depthwise_conv2d_13/depthwise_weights","StatefulPartitionedCall/model/depthwise_conv2d_13/depthwise_bn_offset"],"attr":{"data_format":{"s":"TkhXQw=="},"fused_ops":{"list":{"s":["Qmlhc0FkZA=="]}},"strides":{"list":{"i":["1","1","1","1"]}},"T":{"type":"DT_HALF"},"explicit_paddings":{"list":{}},"padding":{"s":"U0FNRQ=="},"dilations":{"list":{"i":["1","1","1","1"]}},"num_args":{"i":"1"}}},
          {"name":"StatefulPartitionedCall/model/activation_59/Sigmoid","op":"Sigmoid","input":["StatefulPartitionedCall/model/depthwise_conv2d_13/depthwise"],"attr":{"T":{"type":"DT_HALF"}}},
          {"name":"StatefulPartitionedCall/model/activation_59/mul_1","op":"Mul","input":["StatefulPartitionedCall/model/depthwise_conv2d_13/depthwise","StatefulPartitionedCall/model/activation_59/Sigmoid"],"attr":{"T":{"type":"DT_HALF"}}},
          {"name":"StatefulPartitionedCall/model/tf.math.reduce_mean_13/Mean","op":"Mean","input":["StatefulPartitionedCall/model/activation_59/mul_1","StatefulPartitionedCall/model/tf.math.reduce_mean_13/Mean/reduction_indices"],"attr":{"Tidx":{"type":"DT_INT32"},"T":{"type":"DT_HALF"},"keep_dims":{"b":true}}},
          {"name":"StatefulPartitionedCall/model/conv2d_63/Conv2D","op":"Conv2D","input":["StatefulPartitionedCall/model/tf.math.reduce_mean_13/Mean","StatefulPartitionedCall/model/conv2d_63/Conv2D/Cast"],"device":"/device:CPU:0","attr":{"use_cudnn_on_gpu":{"b":true},"T":{"type":"DT_HALF"},"explicit_paddings":{"list":{}},"padding":{"s":"VkFMSUQ="},"dilations":{"list":{"i":["1","1","1","1"]}},"data_format":{"s":"TkhXQw=="},"strides":{"list":{"i":["1","1","1","1"]}}}},
          {"name":"StatefulPartitionedCall/model/conv2d_63/BiasAdd","op":"BiasAdd","input":["StatefulPartitionedCall/model/conv2d_63/Conv2D","StatefulPartitionedCall/model/conv2d_63/BiasAdd/Cast"],"attr":{"data_format":{"s":"TkhXQw=="},"T":{"type":"DT_HALF"}}},
          {"name":"StatefulPartitionedCall/model/activation_60/Sigmoid","op":"Sigmoid","input":["StatefulPartitionedCall/model/conv2d_63/BiasAdd"],"attr":{"T":{"type":"DT_HALF"}}},
          {"name":"StatefulPartitionedCall/model/activation_60/mul_1","op":"Mul","input":["StatefulPartitionedCall/model/conv2d_63/BiasAdd","StatefulPartitionedCall/model/activation_60/Sigmoid"],"attr":{"T":{"type":"DT_HALF"}}},
          {"name":"StatefulPartitionedCall/model/conv2d_64/Conv2D","op":"Conv2D","input":["StatefulPartitionedCall/model/activation_60/mul_1","StatefulPartitionedCall/model/conv2d_64/Conv2D/Cast"],"device":"/device:CPU:0","attr":{"data_format":{"s":"TkhXQw=="},"T":{"type":"DT_HALF"},"padding":{"s":"VkFMSUQ="},"dilations":{"list":{"i":["1","1","1","1"]}},"strides":{"list":{"i":["1","1","1","1"]}},"explicit_paddings":{"list":{}},"use_cudnn_on_gpu":{"b":true}}},
          {"name":"StatefulPartitionedCall/model/conv2d_64/BiasAdd","op":"BiasAdd","input":["StatefulPartitionedCall/model/conv2d_64/Conv2D","StatefulPartitionedCall/model/conv2d_64/BiasAdd/Cast"],"attr":{"T":{"type":"DT_HALF"},"data_format":{"s":"TkhXQw=="}}},
          {"name":"StatefulPartitionedCall/model/activation_61/Sigmoid","op":"Sigmoid","input":["StatefulPartitionedCall/model/conv2d_64/BiasAdd"],"attr":{"T":{"type":"DT_HALF"}}},
          {"name":"StatefulPartitionedCall/model/multiply_13/mul","op":"Mul","input":["StatefulPartitionedCall/model/activation_59/mul_1","StatefulPartitionedCall/model/activation_61/Sigmoid"],"attr":{"T":{"type":"DT_HALF"}}},
          {"name":"StatefulPartitionedCall/model/conv2d_65/Conv2D","op":"Conv2D","input":["StatefulPartitionedCall/model/multiply_13/mul","StatefulPartitionedCall/model/conv2d_65/Conv2D_weights"],"device":"/device:CPU:0","attr":{"dilations":{"list":{"i":["1","1","1","1"]}},"use_cudnn_on_gpu":{"b":true},"strides":{"list":{"i":["1","1","1","1"]}},"data_format":{"s":"TkhXQw=="},"explicit_paddings":{"list":{}},"T":{"type":"DT_HALF"},"padding":{"s":"U0FNRQ=="}}},
          {"name":"StatefulPartitionedCall/model/batch_normalization_51/FusedBatchNormV3","op":"BiasAdd","input":["StatefulPartitionedCall/model/conv2d_65/Conv2D","StatefulPartitionedCall/model/conv2d_65/Conv2D_bn_offset"],"attr":{"data_format":{"s":"TkhXQw=="},"T":{"type":"DT_HALF"}}},
          {"name":"StatefulPartitionedCall/model/add_12/add","op":"AddV2","input":["StatefulPartitionedCall/model/add_11/add","StatefulPartitionedCall/model/batch_normalization_51/FusedBatchNormV3"],"attr":{"T":{"type":"DT_HALF"}}},
          {"name":"StatefulPartitionedCall/model/conv2d_66/Conv2D","op":"Conv2D","input":["StatefulPartitionedCall/model/add_12/add","StatefulPartitionedCall/model/conv2d_66/Conv2D_weights"],"device":"/device:CPU:0","attr":{"padding":{"s":"U0FNRQ=="},"explicit_paddings":{"list":{}},"T":{"type":"DT_HALF"},"strides":{"list":{"i":["1","1","1","1"]}},"use_cudnn_on_gpu":{"b":true},"dilations":{"list":{"i":["1","1","1","1"]}},"data_format":{"s":"TkhXQw=="}}},
          {"name":"StatefulPartitionedCall/model/batch_normalization_52/FusedBatchNormV3","op":"BiasAdd","input":["StatefulPartitionedCall/model/conv2d_66/Conv2D","StatefulPartitionedCall/model/conv2d_66/Conv2D_bn_offset"],"attr":{"T":{"type":"DT_HALF"},"data_format":{"s":"TkhXQw=="}}},
          {"name":"StatefulPartitionedCall/model/activation_62/Sigmoid","op":"Sigmoid","input":["StatefulPartitionedCall/model/batch_normalization_52/FusedBatchNormV3"],"attr":{"T":{"type":"DT_HALF"}}},
          {"name":"StatefulPartitionedCall/model/activation_62/mul_1","op":"Mul","input":["StatefulPartitionedCall/model/batch_normalization_52/FusedBatchNormV3","StatefulPartitionedCall/model/activation_62/Sigmoid"],"attr":{"T":{"type":"DT_HALF"}}},
          {"name":"StatefulPartitionedCall/model/depthwise_conv2d_14/depthwise","op":"FusedDepthwiseConv2dNative","input":["StatefulPartitionedCall/model/activation_62/mul_1","StatefulPartitionedCall/model/depthwise_conv2d_14/depthwise_weights","StatefulPartitionedCall/model/depthwise_conv2d_14/depthwise_bn_offset"],"attr":{"T":{"type":"DT_HALF"},"strides":{"list":{"i":["1","1","1","1"]}},"explicit_paddings":{"list":{}},"num_args":{"i":"1"},"fused_ops":{"list":{"s":["Qmlhc0FkZA=="]}},"dilations":{"list":{"i":["1","1","1","1"]}},"data_format":{"s":"TkhXQw=="},"padding":{"s":"U0FNRQ=="}}},
          {"name":"StatefulPartitionedCall/model/activation_63/Sigmoid","op":"Sigmoid","input":["StatefulPartitionedCall/model/depthwise_conv2d_14/depthwise"],"attr":{"T":{"type":"DT_HALF"}}},
          {"name":"StatefulPartitionedCall/model/activation_63/mul_1","op":"Mul","input":["StatefulPartitionedCall/model/depthwise_conv2d_14/depthwise","StatefulPartitionedCall/model/activation_63/Sigmoid"],"attr":{"T":{"type":"DT_HALF"}}},
          {"name":"StatefulPartitionedCall/model/tf.math.reduce_mean_14/Mean","op":"Mean","input":["StatefulPartitionedCall/model/activation_63/mul_1","StatefulPartitionedCall/model/tf.math.reduce_mean_14/Mean/reduction_indices"],"attr":{"Tidx":{"type":"DT_INT32"},"keep_dims":{"b":true},"T":{"type":"DT_HALF"}}},
          {"name":"StatefulPartitionedCall/model/conv2d_67/Conv2D","op":"Conv2D","input":["StatefulPartitionedCall/model/tf.math.reduce_mean_14/Mean","StatefulPartitionedCall/model/conv2d_67/Conv2D/Cast"],"device":"/device:CPU:0","attr":{"strides":{"list":{"i":["1","1","1","1"]}},"data_format":{"s":"TkhXQw=="},"dilations":{"list":{"i":["1","1","1","1"]}},"explicit_paddings":{"list":{}},"use_cudnn_on_gpu":{"b":true},"T":{"type":"DT_HALF"},"padding":{"s":"VkFMSUQ="}}},
          {"name":"StatefulPartitionedCall/model/conv2d_67/BiasAdd","op":"BiasAdd","input":["StatefulPartitionedCall/model/conv2d_67/Conv2D","StatefulPartitionedCall/model/conv2d_67/BiasAdd/Cast"],"attr":{"data_format":{"s":"TkhXQw=="},"T":{"type":"DT_HALF"}}},
          {"name":"StatefulPartitionedCall/model/activation_64/Sigmoid","op":"Sigmoid","input":["StatefulPartitionedCall/model/conv2d_67/BiasAdd"],"attr":{"T":{"type":"DT_HALF"}}},
          {"name":"StatefulPartitionedCall/model/activation_64/mul_1","op":"Mul","input":["StatefulPartitionedCall/model/conv2d_67/BiasAdd","StatefulPartitionedCall/model/activation_64/Sigmoid"],"attr":{"T":{"type":"DT_HALF"}}},
          {"name":"StatefulPartitionedCall/model/conv2d_68/Conv2D","op":"Conv2D","input":["StatefulPartitionedCall/model/activation_64/mul_1","StatefulPartitionedCall/model/conv2d_68/Conv2D/Cast"],"device":"/device:CPU:0","attr":{"data_format":{"s":"TkhXQw=="},"dilations":{"list":{"i":["1","1","1","1"]}},"T":{"type":"DT_HALF"},"strides":{"list":{"i":["1","1","1","1"]}},"padding":{"s":"VkFMSUQ="},"explicit_paddings":{"list":{}},"use_cudnn_on_gpu":{"b":true}}},
          {"name":"StatefulPartitionedCall/model/conv2d_68/BiasAdd","op":"BiasAdd","input":["StatefulPartitionedCall/model/conv2d_68/Conv2D","StatefulPartitionedCall/model/conv2d_68/BiasAdd/Cast"],"attr":{"data_format":{"s":"TkhXQw=="},"T":{"type":"DT_HALF"}}},
          {"name":"StatefulPartitionedCall/model/activation_65/Sigmoid","op":"Sigmoid","input":["StatefulPartitionedCall/model/conv2d_68/BiasAdd"],"attr":{"T":{"type":"DT_HALF"}}},
          {"name":"StatefulPartitionedCall/model/multiply_14/mul","op":"Mul","input":["StatefulPartitionedCall/model/activation_63/mul_1","StatefulPartitionedCall/model/activation_65/Sigmoid"],"attr":{"T":{"type":"DT_HALF"}}},
          {"name":"StatefulPartitionedCall/model/conv2d_69/Conv2D","op":"Conv2D","input":["StatefulPartitionedCall/model/multiply_14/mul","StatefulPartitionedCall/model/conv2d_69/Conv2D_weights"],"device":"/device:CPU:0","attr":{"dilations":{"list":{"i":["1","1","1","1"]}},"use_cudnn_on_gpu":{"b":true},"padding":{"s":"U0FNRQ=="},"T":{"type":"DT_HALF"},"data_format":{"s":"TkhXQw=="},"strides":{"list":{"i":["1","1","1","1"]}},"explicit_paddings":{"list":{}}}},
          {"name":"StatefulPartitionedCall/model/batch_normalization_54/FusedBatchNormV3","op":"BiasAdd","input":["StatefulPartitionedCall/model/conv2d_69/Conv2D","StatefulPartitionedCall/model/conv2d_69/Conv2D_bn_offset"],"attr":{"data_format":{"s":"TkhXQw=="},"T":{"type":"DT_HALF"}}},
          {"name":"StatefulPartitionedCall/model/add_13/add","op":"AddV2","input":["StatefulPartitionedCall/model/add_12/add","StatefulPartitionedCall/model/batch_normalization_54/FusedBatchNormV3"],"attr":{"T":{"type":"DT_HALF"}}},
          {"name":"StatefulPartitionedCall/model/conv2d_70/Conv2D","op":"Conv2D","input":["StatefulPartitionedCall/model/add_13/add","StatefulPartitionedCall/model/conv2d_70/Conv2D_weights"],"device":"/device:CPU:0","attr":{"dilations":{"list":{"i":["1","1","1","1"]}},"data_format":{"s":"TkhXQw=="},"T":{"type":"DT_HALF"},"use_cudnn_on_gpu":{"b":true},"strides":{"list":{"i":["1","1","1","1"]}},"padding":{"s":"U0FNRQ=="},"explicit_paddings":{"list":{}}}},
          {"name":"StatefulPartitionedCall/model/batch_normalization_55/FusedBatchNormV3","op":"BiasAdd","input":["StatefulPartitionedCall/model/conv2d_70/Conv2D","StatefulPartitionedCall/model/conv2d_70/Conv2D_bn_offset"],"attr":{"T":{"type":"DT_HALF"},"data_format":{"s":"TkhXQw=="}}},
          {"name":"StatefulPartitionedCall/model/activation_66/Sigmoid","op":"Sigmoid","input":["StatefulPartitionedCall/model/batch_normalization_55/FusedBatchNormV3"],"attr":{"T":{"type":"DT_HALF"}}},
          {"name":"StatefulPartitionedCall/model/activation_66/mul_1","op":"Mul","input":["StatefulPartitionedCall/model/batch_normalization_55/FusedBatchNormV3","StatefulPartitionedCall/model/activation_66/Sigmoid"],"attr":{"T":{"type":"DT_HALF"}}},
          {"name":"StatefulPartitionedCall/model/depthwise_conv2d_15/depthwise","op":"FusedDepthwiseConv2dNative","input":["StatefulPartitionedCall/model/activation_66/mul_1","StatefulPartitionedCall/model/depthwise_conv2d_15/depthwise_weights","StatefulPartitionedCall/model/depthwise_conv2d_15/depthwise_bn_offset"],"attr":{"dilations":{"list":{"i":["1","1","1","1"]}},"num_args":{"i":"1"},"padding":{"s":"U0FNRQ=="},"T":{"type":"DT_HALF"},"explicit_paddings":{"list":{}},"strides":{"list":{"i":["1","1","1","1"]}},"fused_ops":{"list":{"s":["Qmlhc0FkZA=="]}},"data_format":{"s":"TkhXQw=="}}},
          {"name":"StatefulPartitionedCall/model/activation_67/Sigmoid","op":"Sigmoid","input":["StatefulPartitionedCall/model/depthwise_conv2d_15/depthwise"],"attr":{"T":{"type":"DT_HALF"}}},
          {"name":"StatefulPartitionedCall/model/activation_67/mul_1","op":"Mul","input":["StatefulPartitionedCall/model/depthwise_conv2d_15/depthwise","StatefulPartitionedCall/model/activation_67/Sigmoid"],"attr":{"T":{"type":"DT_HALF"}}},
          {"name":"StatefulPartitionedCall/model/tf.math.reduce_mean_15/Mean","op":"Mean","input":["StatefulPartitionedCall/model/activation_67/mul_1","StatefulPartitionedCall/model/tf.math.reduce_mean_15/Mean/reduction_indices"],"attr":{"Tidx":{"type":"DT_INT32"},"T":{"type":"DT_HALF"},"keep_dims":{"b":true}}},
          {"name":"StatefulPartitionedCall/model/conv2d_71/Conv2D","op":"Conv2D","input":["StatefulPartitionedCall/model/tf.math.reduce_mean_15/Mean","StatefulPartitionedCall/model/conv2d_71/Conv2D/Cast"],"device":"/device:CPU:0","attr":{"explicit_paddings":{"list":{}},"use_cudnn_on_gpu":{"b":true},"strides":{"list":{"i":["1","1","1","1"]}},"dilations":{"list":{"i":["1","1","1","1"]}},"T":{"type":"DT_HALF"},"padding":{"s":"VkFMSUQ="},"data_format":{"s":"TkhXQw=="}}},
          {"name":"StatefulPartitionedCall/model/conv2d_71/BiasAdd","op":"BiasAdd","input":["StatefulPartitionedCall/model/conv2d_71/Conv2D","StatefulPartitionedCall/model/conv2d_71/BiasAdd/Cast"],"attr":{"T":{"type":"DT_HALF"},"data_format":{"s":"TkhXQw=="}}},
          {"name":"StatefulPartitionedCall/model/activation_68/Sigmoid","op":"Sigmoid","input":["StatefulPartitionedCall/model/conv2d_71/BiasAdd"],"attr":{"T":{"type":"DT_HALF"}}},
          {"name":"StatefulPartitionedCall/model/activation_68/mul_1","op":"Mul","input":["StatefulPartitionedCall/model/conv2d_71/BiasAdd","StatefulPartitionedCall/model/activation_68/Sigmoid"],"attr":{"T":{"type":"DT_HALF"}}},
          {"name":"StatefulPartitionedCall/model/conv2d_72/Conv2D","op":"Conv2D","input":["StatefulPartitionedCall/model/activation_68/mul_1","StatefulPartitionedCall/model/conv2d_72/Conv2D/Cast"],"device":"/device:CPU:0","attr":{"explicit_paddings":{"list":{}},"data_format":{"s":"TkhXQw=="},"T":{"type":"DT_HALF"},"use_cudnn_on_gpu":{"b":true},"dilations":{"list":{"i":["1","1","1","1"]}},"padding":{"s":"VkFMSUQ="},"strides":{"list":{"i":["1","1","1","1"]}}}},
          {"name":"StatefulPartitionedCall/model/conv2d_72/BiasAdd","op":"BiasAdd","input":["StatefulPartitionedCall/model/conv2d_72/Conv2D","StatefulPartitionedCall/model/conv2d_72/BiasAdd/Cast"],"attr":{"T":{"type":"DT_HALF"},"data_format":{"s":"TkhXQw=="}}},
          {"name":"StatefulPartitionedCall/model/activation_69/Sigmoid","op":"Sigmoid","input":["StatefulPartitionedCall/model/conv2d_72/BiasAdd"],"attr":{"T":{"type":"DT_HALF"}}},
          {"name":"StatefulPartitionedCall/model/multiply_15/mul","op":"Mul","input":["StatefulPartitionedCall/model/activation_67/mul_1","StatefulPartitionedCall/model/activation_69/Sigmoid"],"attr":{"T":{"type":"DT_HALF"}}},
          {"name":"StatefulPartitionedCall/model/conv2d_73/Conv2D","op":"Conv2D","input":["StatefulPartitionedCall/model/multiply_15/mul","StatefulPartitionedCall/model/conv2d_73/Conv2D_weights"],"device":"/device:CPU:0","attr":{"explicit_paddings":{"list":{}},"data_format":{"s":"TkhXQw=="},"T":{"type":"DT_HALF"},"use_cudnn_on_gpu":{"b":true},"dilations":{"list":{"i":["1","1","1","1"]}},"padding":{"s":"U0FNRQ=="},"strides":{"list":{"i":["1","1","1","1"]}}}},
          {"name":"StatefulPartitionedCall/model/batch_normalization_57/FusedBatchNormV3","op":"BiasAdd","input":["StatefulPartitionedCall/model/conv2d_73/Conv2D","StatefulPartitionedCall/model/conv2d_73/Conv2D_bn_offset"],"attr":{"T":{"type":"DT_HALF"},"data_format":{"s":"TkhXQw=="}}},
          {"name":"StatefulPartitionedCall/model/add_14/add","op":"AddV2","input":["StatefulPartitionedCall/model/add_13/add","StatefulPartitionedCall/model/batch_normalization_57/FusedBatchNormV3"],"attr":{"T":{"type":"DT_HALF"}}},
          {"name":"StatefulPartitionedCall/model/conv2d_74/Conv2D","op":"Conv2D","input":["StatefulPartitionedCall/model/add_14/add","StatefulPartitionedCall/model/conv2d_74/Conv2D_weights"],"device":"/device:CPU:0","attr":{"strides":{"list":{"i":["1","1","1","1"]}},"dilations":{"list":{"i":["1","1","1","1"]}},"padding":{"s":"VkFMSUQ="},"use_cudnn_on_gpu":{"b":true},"T":{"type":"DT_HALF"},"explicit_paddings":{"list":{}},"data_format":{"s":"TkhXQw=="}}},
          {"name":"StatefulPartitionedCall/model/batch_normalization_58/FusedBatchNormV3","op":"BiasAdd","input":["StatefulPartitionedCall/model/conv2d_74/Conv2D","StatefulPartitionedCall/model/conv2d_74/Conv2D_bn_offset"],"attr":{"data_format":{"s":"TkhXQw=="},"T":{"type":"DT_HALF"}}},
          {"name":"StatefulPartitionedCall/model/activation_70/Sigmoid","op":"Sigmoid","input":["StatefulPartitionedCall/model/batch_normalization_58/FusedBatchNormV3"],"attr":{"T":{"type":"DT_HALF"}}},
          {"name":"StatefulPartitionedCall/model/activation_70/mul_1","op":"Mul","input":["StatefulPartitionedCall/model/batch_normalization_58/FusedBatchNormV3","StatefulPartitionedCall/model/activation_70/Sigmoid"],"attr":{"T":{"type":"DT_HALF"}}},
          {"name":"StatefulPartitionedCall/model/GDC_dw/depthwise","op":"FusedDepthwiseConv2dNative","input":["StatefulPartitionedCall/model/activation_70/mul_1","StatefulPartitionedCall/model/GDC_dw/depthwise_weights","StatefulPartitionedCall/model/GDC_dw/depthwise_bn_offset"],"attr":{"num_args":{"i":"1"},"dilations":{"list":{"i":["1","1","1","1"]}},"T":{"type":"DT_HALF"},"padding":{"s":"VkFMSUQ="},"strides":{"list":{"i":["1","1","1","1"]}},"data_format":{"s":"TkhXQw=="},"explicit_paddings":{"list":{}},"fused_ops":{"list":{"s":["Qmlhc0FkZA=="]}}}},
          {"name":"StatefulPartitionedCall/model/GDC_conv/Conv2D","op":"Conv2D","input":["StatefulPartitionedCall/model/GDC_dw/depthwise","StatefulPartitionedCall/model/GDC_conv/Conv2D/Cast"],"device":"/device:CPU:0","attr":{"explicit_paddings":{"list":{}},"padding":{"s":"VkFMSUQ="},"strides":{"list":{"i":["1","1","1","1"]}},"dilations":{"list":{"i":["1","1","1","1"]}},"T":{"type":"DT_HALF"},"data_format":{"s":"TkhXQw=="},"use_cudnn_on_gpu":{"b":true}}},
          {"name":"StatefulPartitionedCall/model/GDC_flatten/Reshape","op":"Reshape","input":["StatefulPartitionedCall/model/GDC_conv/Conv2D","StatefulPartitionedCall/model/GDC_flatten/Const"],"attr":{"Tshape":{"type":"DT_INT32"},"T":{"type":"DT_HALF"}}},
          {"name":"StatefulPartitionedCall/model/pre_embedding/Cast","op":"Cast","input":["StatefulPartitionedCall/model/GDC_flatten/Reshape"],"attr":{"DstT":{"type":"DT_FLOAT"},"SrcT":{"type":"DT_HALF"},"Truncate":{"b":false}}},
          {"name":"StatefulPartitionedCall/model/pre_embedding/batchnorm/mul_1","op":"Mul","input":["StatefulPartitionedCall/model/pre_embedding/Cast","StatefulPartitionedCall/model/pre_embedding/batchnorm/mul"],"attr":{"T":{"type":"DT_FLOAT"}}},
          {"name":"StatefulPartitionedCall/model/pre_embedding/batchnorm/add_1","op":"AddV2","input":["StatefulPartitionedCall/model/pre_embedding/batchnorm/mul_1","StatefulPartitionedCall/model/pre_embedding/batchnorm/sub"],"attr":{"T":{"type":"DT_FLOAT"}}},
          {"name":"StatefulPartitionedCall/model/pre_embedding/Cast_1","op":"Cast","input":["StatefulPartitionedCall/model/pre_embedding/batchnorm/add_1"],"attr":{"Truncate":{"b":false},"SrcT":{"type":"DT_FLOAT"},"DstT":{"type":"DT_HALF"}}},
          {"name":"StatefulPartitionedCall/model/embedding/Cast","op":"Cast","input":["StatefulPartitionedCall/model/pre_embedding/Cast_1"],"attr":{"Truncate":{"b":false},"DstT":{"type":"DT_FLOAT"},"SrcT":{"type":"DT_HALF"}}},
          {"name":"Identity","op":"Identity","input":["StatefulPartitionedCall/model/embedding/Cast"],"attr":{"T":{"type":"DT_FLOAT"}}}
      ],
      "library": {},
      "versions":
      {
          "producer": 1087
      }
  },
  "weightsManifest":
  [
      {
          "paths": ["insightface-efficientnet-b0.bin"],
          "weights": [{"name":"StatefulPartitionedCall/model/tf.math.reduce_mean/Mean/reduction_indices","shape":[2],"dtype":"int32"},{"name":"StatefulPartitionedCall/model/conv2d_11/Conv2D/Cast","shape":[1,1,192,12],"dtype":"float32","quantization":{"dtype":"float16","original_dtype":"float32"}},{"name":"StatefulPartitionedCall/model/conv2d_11/BiasAdd/Cast","shape":[12],"dtype":"float32","quantization":{"dtype":"float16","original_dtype":"float32"}},{"name":"StatefulPartitionedCall/model/conv2d_12/Conv2D/Cast","shape":[1,1,12,192],"dtype":"float32","quantization":{"dtype":"float16","original_dtype":"float32"}},{"name":"StatefulPartitionedCall/model/conv2d_12/BiasAdd/Cast","shape":[192],"dtype":"float32","quantization":{"dtype":"float16","original_dtype":"float32"}},{"name":"StatefulPartitionedCall/model/tf.math.reduce_mean_1/Mean/reduction_indices","shape":[2],"dtype":"int32"},{"name":"StatefulPartitionedCall/model/conv2d_15/Conv2D/Cast","shape":[1,1,384,24],"dtype":"float32","quantization":{"dtype":"float16","original_dtype":"float32"}},{"name":"StatefulPartitionedCall/model/conv2d_15/BiasAdd/Cast","shape":[24],"dtype":"float32","quantization":{"dtype":"float16","original_dtype":"float32"}},{"name":"StatefulPartitionedCall/model/conv2d_16/Conv2D/Cast","shape":[1,1,24,384],"dtype":"float32","quantization":{"dtype":"float16","original_dtype":"float32"}},{"name":"StatefulPartitionedCall/model/conv2d_16/BiasAdd/Cast","shape":[384],"dtype":"float32","quantization":{"dtype":"float16","original_dtype":"float32"}},{"name":"StatefulPartitionedCall/model/tf.math.reduce_mean_2/Mean/reduction_indices","shape":[2],"dtype":"int32"},{"name":"StatefulPartitionedCall/model/conv2d_19/Conv2D/Cast","shape":[1,1,384,24],"dtype":"float32","quantization":{"dtype":"float16","original_dtype":"float32"}},{"name":"StatefulPartitionedCall/model/conv2d_19/BiasAdd/Cast","shape":[24],"dtype":"float32","quantization":{"dtype":"float16","original_dtype":"float32"}},{"name":"StatefulPartitionedCall/model/conv2d_20/Conv2D/Cast","shape":[1,1,24,384],"dtype":"float32","quantization":{"dtype":"float16","original_dtype":"float32"}},{"name":"StatefulPartitionedCall/model/conv2d_20/BiasAdd/Cast","shape":[384],"dtype":"float32","quantization":{"dtype":"float16","original_dtype":"float32"}},{"name":"StatefulPartitionedCall/model/tf.math.reduce_mean_3/Mean/reduction_indices","shape":[2],"dtype":"int32"},{"name":"StatefulPartitionedCall/model/conv2d_23/Conv2D/Cast","shape":[1,1,576,24],"dtype":"float32","quantization":{"dtype":"float16","original_dtype":"float32"}},{"name":"StatefulPartitionedCall/model/conv2d_23/BiasAdd/Cast","shape":[24],"dtype":"float32","quantization":{"dtype":"float16","original_dtype":"float32"}},{"name":"StatefulPartitionedCall/model/conv2d_24/Conv2D/Cast","shape":[1,1,24,576],"dtype":"float32","quantization":{"dtype":"float16","original_dtype":"float32"}},{"name":"StatefulPartitionedCall/model/conv2d_24/BiasAdd/Cast","shape":[576],"dtype":"float32","quantization":{"dtype":"float16","original_dtype":"float32"}},{"name":"StatefulPartitionedCall/model/tf.math.reduce_mean_4/Mean/reduction_indices","shape":[2],"dtype":"int32"},{"name":"StatefulPartitionedCall/model/conv2d_27/Conv2D/Cast","shape":[1,1,672,28],"dtype":"float32","quantization":{"dtype":"float16","original_dtype":"float32"}},{"name":"StatefulPartitionedCall/model/conv2d_27/BiasAdd/Cast","shape":[28],"dtype":"float32","quantization":{"dtype":"float16","original_dtype":"float32"}},{"name":"StatefulPartitionedCall/model/conv2d_28/Conv2D/Cast","shape":[1,1,28,672],"dtype":"float32","quantization":{"dtype":"float16","original_dtype":"float32"}},{"name":"StatefulPartitionedCall/model/conv2d_28/BiasAdd/Cast","shape":[672],"dtype":"float32","quantization":{"dtype":"float16","original_dtype":"float32"}},{"name":"StatefulPartitionedCall/model/tf.math.reduce_mean_5/Mean/reduction_indices","shape":[2],"dtype":"int32"},{"name":"StatefulPartitionedCall/model/conv2d_31/Conv2D/Cast","shape":[1,1,672,28],"dtype":"float32","quantization":{"dtype":"float16","original_dtype":"float32"}},{"name":"StatefulPartitionedCall/model/conv2d_31/BiasAdd/Cast","shape":[28],"dtype":"float32","quantization":{"dtype":"float16","original_dtype":"float32"}},{"name":"StatefulPartitionedCall/model/conv2d_32/Conv2D/Cast","shape":[1,1,28,672],"dtype":"float32","quantization":{"dtype":"float16","original_dtype":"float32"}},{"name":"StatefulPartitionedCall/model/conv2d_32/BiasAdd/Cast","shape":[672],"dtype":"float32","quantization":{"dtype":"float16","original_dtype":"float32"}},{"name":"StatefulPartitionedCall/model/tf.math.reduce_mean_6/Mean/reduction_indices","shape":[2],"dtype":"int32"},{"name":"StatefulPartitionedCall/model/conv2d_35/Conv2D/Cast","shape":[1,1,672,28],"dtype":"float32","quantization":{"dtype":"float16","original_dtype":"float32"}},{"name":"StatefulPartitionedCall/model/conv2d_35/BiasAdd/Cast","shape":[28],"dtype":"float32","quantization":{"dtype":"float16","original_dtype":"float32"}},{"name":"StatefulPartitionedCall/model/conv2d_36/Conv2D/Cast","shape":[1,1,28,672],"dtype":"float32","quantization":{"dtype":"float16","original_dtype":"float32"}},{"name":"StatefulPartitionedCall/model/conv2d_36/BiasAdd/Cast","shape":[672],"dtype":"float32","quantization":{"dtype":"float16","original_dtype":"float32"}},{"name":"StatefulPartitionedCall/model/tf.math.reduce_mean_7/Mean/reduction_indices","shape":[2],"dtype":"int32"},{"name":"StatefulPartitionedCall/model/conv2d_39/Conv2D/Cast","shape":[1,1,672,28],"dtype":"float32","quantization":{"dtype":"float16","original_dtype":"float32"}},{"name":"StatefulPartitionedCall/model/conv2d_39/BiasAdd/Cast","shape":[28],"dtype":"float32","quantization":{"dtype":"float16","original_dtype":"float32"}},{"name":"StatefulPartitionedCall/model/conv2d_40/Conv2D/Cast","shape":[1,1,28,672],"dtype":"float32","quantization":{"dtype":"float16","original_dtype":"float32"}},{"name":"StatefulPartitionedCall/model/conv2d_40/BiasAdd/Cast","shape":[672],"dtype":"float32","quantization":{"dtype":"float16","original_dtype":"float32"}},{"name":"StatefulPartitionedCall/model/tf.math.reduce_mean_8/Mean/reduction_indices","shape":[2],"dtype":"int32"},{"name":"StatefulPartitionedCall/model/conv2d_43/Conv2D/Cast","shape":[1,1,672,28],"dtype":"float32","quantization":{"dtype":"float16","original_dtype":"float32"}},{"name":"StatefulPartitionedCall/model/conv2d_43/BiasAdd/Cast","shape":[28],"dtype":"float32","quantization":{"dtype":"float16","original_dtype":"float32"}},{"name":"StatefulPartitionedCall/model/conv2d_44/Conv2D/Cast","shape":[1,1,28,672],"dtype":"float32","quantization":{"dtype":"float16","original_dtype":"float32"}},{"name":"StatefulPartitionedCall/model/conv2d_44/BiasAdd/Cast","shape":[672],"dtype":"float32","quantization":{"dtype":"float16","original_dtype":"float32"}},{"name":"StatefulPartitionedCall/model/tf.math.reduce_mean_9/Mean/reduction_indices","shape":[2],"dtype":"int32"},{"name":"StatefulPartitionedCall/model/conv2d_47/Conv2D/Cast","shape":[1,1,1152,48],"dtype":"float32","quantization":{"dtype":"float16","original_dtype":"float32"}},{"name":"StatefulPartitionedCall/model/conv2d_47/BiasAdd/Cast","shape":[48],"dtype":"float32","quantization":{"dtype":"float16","original_dtype":"float32"}},{"name":"StatefulPartitionedCall/model/conv2d_48/Conv2D/Cast","shape":[1,1,48,1152],"dtype":"float32","quantization":{"dtype":"float16","original_dtype":"float32"}},{"name":"StatefulPartitionedCall/model/conv2d_48/BiasAdd/Cast","shape":[1152],"dtype":"float32","quantization":{"dtype":"float16","original_dtype":"float32"}},{"name":"StatefulPartitionedCall/model/tf.math.reduce_mean_10/Mean/reduction_indices","shape":[2],"dtype":"int32"},{"name":"StatefulPartitionedCall/model/conv2d_51/Conv2D/Cast","shape":[1,1,1152,48],"dtype":"float32","quantization":{"dtype":"float16","original_dtype":"float32"}},{"name":"StatefulPartitionedCall/model/conv2d_51/BiasAdd/Cast","shape":[48],"dtype":"float32","quantization":{"dtype":"float16","original_dtype":"float32"}},{"name":"StatefulPartitionedCall/model/conv2d_52/Conv2D/Cast","shape":[1,1,48,1152],"dtype":"float32","quantization":{"dtype":"float16","original_dtype":"float32"}},{"name":"StatefulPartitionedCall/model/conv2d_52/BiasAdd/Cast","shape":[1152],"dtype":"float32","quantization":{"dtype":"float16","original_dtype":"float32"}},{"name":"StatefulPartitionedCall/model/tf.math.reduce_mean_11/Mean/reduction_indices","shape":[2],"dtype":"int32"},{"name":"StatefulPartitionedCall/model/conv2d_55/Conv2D/Cast","shape":[1,1,1152,48],"dtype":"float32","quantization":{"dtype":"float16","original_dtype":"float32"}},{"name":"StatefulPartitionedCall/model/conv2d_55/BiasAdd/Cast","shape":[48],"dtype":"float32","quantization":{"dtype":"float16","original_dtype":"float32"}},{"name":"StatefulPartitionedCall/model/conv2d_56/Conv2D/Cast","shape":[1,1,48,1152],"dtype":"float32","quantization":{"dtype":"float16","original_dtype":"float32"}},{"name":"StatefulPartitionedCall/model/conv2d_56/BiasAdd/Cast","shape":[1152],"dtype":"float32","quantization":{"dtype":"float16","original_dtype":"float32"}},{"name":"StatefulPartitionedCall/model/tf.math.reduce_mean_12/Mean/reduction_indices","shape":[2],"dtype":"int32"},{"name":"StatefulPartitionedCall/model/conv2d_59/Conv2D/Cast","shape":[1,1,1152,48],"dtype":"float32","quantization":{"dtype":"float16","original_dtype":"float32"}},{"name":"StatefulPartitionedCall/model/conv2d_59/BiasAdd/Cast","shape":[48],"dtype":"float32","quantization":{"dtype":"float16","original_dtype":"float32"}},{"name":"StatefulPartitionedCall/model/conv2d_60/Conv2D/Cast","shape":[1,1,48,1152],"dtype":"float32","quantization":{"dtype":"float16","original_dtype":"float32"}},{"name":"StatefulPartitionedCall/model/conv2d_60/BiasAdd/Cast","shape":[1152],"dtype":"float32","quantization":{"dtype":"float16","original_dtype":"float32"}},{"name":"StatefulPartitionedCall/model/tf.math.reduce_mean_13/Mean/reduction_indices","shape":[2],"dtype":"int32"},{"name":"StatefulPartitionedCall/model/conv2d_63/Conv2D/Cast","shape":[1,1,1152,48],"dtype":"float32","quantization":{"dtype":"float16","original_dtype":"float32"}},{"name":"StatefulPartitionedCall/model/conv2d_63/BiasAdd/Cast","shape":[48],"dtype":"float32","quantization":{"dtype":"float16","original_dtype":"float32"}},{"name":"StatefulPartitionedCall/model/conv2d_64/Conv2D/Cast","shape":[1,1,48,1152],"dtype":"float32","quantization":{"dtype":"float16","original_dtype":"float32"}},{"name":"StatefulPartitionedCall/model/conv2d_64/BiasAdd/Cast","shape":[1152],"dtype":"float32","quantization":{"dtype":"float16","original_dtype":"float32"}},{"name":"StatefulPartitionedCall/model/tf.math.reduce_mean_14/Mean/reduction_indices","shape":[2],"dtype":"int32"},{"name":"StatefulPartitionedCall/model/conv2d_67/Conv2D/Cast","shape":[1,1,1152,48],"dtype":"float32","quantization":{"dtype":"float16","original_dtype":"float32"}},{"name":"StatefulPartitionedCall/model/conv2d_67/BiasAdd/Cast","shape":[48],"dtype":"float32","quantization":{"dtype":"float16","original_dtype":"float32"}},{"name":"StatefulPartitionedCall/model/conv2d_68/Conv2D/Cast","shape":[1,1,48,1152],"dtype":"float32","quantization":{"dtype":"float16","original_dtype":"float32"}},{"name":"StatefulPartitionedCall/model/conv2d_68/BiasAdd/Cast","shape":[1152],"dtype":"float32","quantization":{"dtype":"float16","original_dtype":"float32"}},{"name":"StatefulPartitionedCall/model/tf.math.reduce_mean_15/Mean/reduction_indices","shape":[2],"dtype":"int32"},{"name":"StatefulPartitionedCall/model/conv2d_71/Conv2D/Cast","shape":[1,1,1152,48],"dtype":"float32","quantization":{"dtype":"float16","original_dtype":"float32"}},{"name":"StatefulPartitionedCall/model/conv2d_71/BiasAdd/Cast","shape":[48],"dtype":"float32","quantization":{"dtype":"float16","original_dtype":"float32"}},{"name":"StatefulPartitionedCall/model/conv2d_72/Conv2D/Cast","shape":[1,1,48,1152],"dtype":"float32","quantization":{"dtype":"float16","original_dtype":"float32"}},{"name":"StatefulPartitionedCall/model/conv2d_72/BiasAdd/Cast","shape":[1152],"dtype":"float32","quantization":{"dtype":"float16","original_dtype":"float32"}},{"name":"StatefulPartitionedCall/model/GDC_conv/Conv2D/Cast","shape":[1,1,1280,512],"dtype":"float32","quantization":{"dtype":"float16","original_dtype":"float32"}},{"name":"StatefulPartitionedCall/model/GDC_flatten/Const","shape":[2],"dtype":"int32"},{"name":"StatefulPartitionedCall/model/pre_embedding/batchnorm/mul","shape":[512],"dtype":"float32","quantization":{"dtype":"float16","original_dtype":"float32"}},{"name":"StatefulPartitionedCall/model/pre_embedding/batchnorm/sub","shape":[512],"dtype":"float32","quantization":{"dtype":"float16","original_dtype":"float32"}},{"name":"StatefulPartitionedCall/model/conv2d/Conv2D_weights","shape":[3,3,3,32],"dtype":"float32","quantization":{"dtype":"float16","original_dtype":"float32"}},{"name":"StatefulPartitionedCall/model/conv2d/Conv2D_bn_offset","shape":[32],"dtype":"float32","quantization":{"dtype":"float16","original_dtype":"float32"}},{"name":"StatefulPartitionedCall/model/conv2d_1/Conv2D_weights","shape":[3,3,32,16],"dtype":"float32","quantization":{"dtype":"float16","original_dtype":"float32"}},{"name":"StatefulPartitionedCall/model/conv2d_1/Conv2D_bn_offset","shape":[16],"dtype":"float32","quantization":{"dtype":"float16","original_dtype":"float32"}},{"name":"StatefulPartitionedCall/model/conv2d_2/Conv2D_weights","shape":[3,3,16,64],"dtype":"float32","quantization":{"dtype":"float16","original_dtype":"float32"}},{"name":"StatefulPartitionedCall/model/conv2d_2/Conv2D_bn_offset","shape":[64],"dtype":"float32","quantization":{"dtype":"float16","original_dtype":"float32"}},{"name":"StatefulPartitionedCall/model/conv2d_3/Conv2D_weights","shape":[1,1,64,32],"dtype":"float32","quantization":{"dtype":"float16","original_dtype":"float32"}},{"name":"StatefulPartitionedCall/model/conv2d_3/Conv2D_bn_offset","shape":[32],"dtype":"float32","quantization":{"dtype":"float16","original_dtype":"float32"}},{"name":"StatefulPartitionedCall/model/conv2d_4/Conv2D_weights","shape":[3,3,32,128],"dtype":"float32","quantization":{"dtype":"float16","original_dtype":"float32"}},{"name":"StatefulPartitionedCall/model/conv2d_4/Conv2D_bn_offset","shape":[128],"dtype":"float32","quantization":{"dtype":"float16","original_dtype":"float32"}},{"name":"StatefulPartitionedCall/model/conv2d_5/Conv2D_weights","shape":[1,1,128,32],"dtype":"float32","quantization":{"dtype":"float16","original_dtype":"float32"}},{"name":"StatefulPartitionedCall/model/conv2d_5/Conv2D_bn_offset","shape":[32],"dtype":"float32","quantization":{"dtype":"float16","original_dtype":"float32"}},{"name":"StatefulPartitionedCall/model/conv2d_6/Conv2D_weights","shape":[3,3,32,128],"dtype":"float32","quantization":{"dtype":"float16","original_dtype":"float32"}},{"name":"StatefulPartitionedCall/model/conv2d_6/Conv2D_bn_offset","shape":[128],"dtype":"float32","quantization":{"dtype":"float16","original_dtype":"float32"}},{"name":"StatefulPartitionedCall/model/conv2d_7/Conv2D_weights","shape":[1,1,128,48],"dtype":"float32","quantization":{"dtype":"float16","original_dtype":"float32"}},{"name":"StatefulPartitionedCall/model/conv2d_7/Conv2D_bn_offset","shape":[48],"dtype":"float32","quantization":{"dtype":"float16","original_dtype":"float32"}},{"name":"StatefulPartitionedCall/model/conv2d_8/Conv2D_weights","shape":[3,3,48,192],"dtype":"float32","quantization":{"dtype":"float16","original_dtype":"float32"}},{"name":"StatefulPartitionedCall/model/conv2d_8/Conv2D_bn_offset","shape":[192],"dtype":"float32","quantization":{"dtype":"float16","original_dtype":"float32"}},{"name":"StatefulPartitionedCall/model/conv2d_9/Conv2D_weights","shape":[1,1,192,48],"dtype":"float32","quantization":{"dtype":"float16","original_dtype":"float32"}},{"name":"StatefulPartitionedCall/model/conv2d_9/Conv2D_bn_offset","shape":[48],"dtype":"float32","quantization":{"dtype":"float16","original_dtype":"float32"}},{"name":"StatefulPartitionedCall/model/conv2d_10/Conv2D_weights","shape":[1,1,48,192],"dtype":"float32","quantization":{"dtype":"float16","original_dtype":"float32"}},{"name":"StatefulPartitionedCall/model/conv2d_10/Conv2D_bn_offset","shape":[192],"dtype":"float32","quantization":{"dtype":"float16","original_dtype":"float32"}},{"name":"StatefulPartitionedCall/model/depthwise_conv2d/depthwise_weights","shape":[3,3,192,1],"dtype":"float32","quantization":{"dtype":"float16","original_dtype":"float32"}},{"name":"StatefulPartitionedCall/model/depthwise_conv2d/depthwise_bn_offset","shape":[192],"dtype":"float32","quantization":{"dtype":"float16","original_dtype":"float32"}},{"name":"StatefulPartitionedCall/model/conv2d_13/Conv2D_weights","shape":[1,1,192,96],"dtype":"float32","quantization":{"dtype":"float16","original_dtype":"float32"}},{"name":"StatefulPartitionedCall/model/conv2d_13/Conv2D_bn_offset","shape":[96],"dtype":"float32","quantization":{"dtype":"float16","original_dtype":"float32"}},{"name":"StatefulPartitionedCall/model/conv2d_14/Conv2D_weights","shape":[1,1,96,384],"dtype":"float32","quantization":{"dtype":"float16","original_dtype":"float32"}},{"name":"StatefulPartitionedCall/model/conv2d_14/Conv2D_bn_offset","shape":[384],"dtype":"float32","quantization":{"dtype":"float16","original_dtype":"float32"}},{"name":"StatefulPartitionedCall/model/depthwise_conv2d_1/depthwise_weights","shape":[3,3,384,1],"dtype":"float32","quantization":{"dtype":"float16","original_dtype":"float32"}},{"name":"StatefulPartitionedCall/model/depthwise_conv2d_1/depthwise_bn_offset","shape":[384],"dtype":"float32","quantization":{"dtype":"float16","original_dtype":"float32"}},{"name":"StatefulPartitionedCall/model/conv2d_17/Conv2D_weights","shape":[1,1,384,96],"dtype":"float32","quantization":{"dtype":"float16","original_dtype":"float32"}},{"name":"StatefulPartitionedCall/model/conv2d_17/Conv2D_bn_offset","shape":[96],"dtype":"float32","quantization":{"dtype":"float16","original_dtype":"float32"}},{"name":"StatefulPartitionedCall/model/conv2d_18/Conv2D_weights","shape":[1,1,96,384],"dtype":"float32","quantization":{"dtype":"float16","original_dtype":"float32"}},{"name":"StatefulPartitionedCall/model/conv2d_18/Conv2D_bn_offset","shape":[384],"dtype":"float32","quantization":{"dtype":"float16","original_dtype":"float32"}},{"name":"StatefulPartitionedCall/model/depthwise_conv2d_2/depthwise_weights","shape":[3,3,384,1],"dtype":"float32","quantization":{"dtype":"float16","original_dtype":"float32"}},{"name":"StatefulPartitionedCall/model/depthwise_conv2d_2/depthwise_bn_offset","shape":[384],"dtype":"float32","quantization":{"dtype":"float16","original_dtype":"float32"}},{"name":"StatefulPartitionedCall/model/conv2d_21/Conv2D_weights","shape":[1,1,384,96],"dtype":"float32","quantization":{"dtype":"float16","original_dtype":"float32"}},{"name":"StatefulPartitionedCall/model/conv2d_21/Conv2D_bn_offset","shape":[96],"dtype":"float32","quantization":{"dtype":"float16","original_dtype":"float32"}},{"name":"StatefulPartitionedCall/model/conv2d_22/Conv2D_weights","shape":[1,1,96,576],"dtype":"float32","quantization":{"dtype":"float16","original_dtype":"float32"}},{"name":"StatefulPartitionedCall/model/conv2d_22/Conv2D_bn_offset","shape":[576],"dtype":"float32","quantization":{"dtype":"float16","original_dtype":"float32"}},{"name":"StatefulPartitionedCall/model/depthwise_conv2d_3/depthwise_weights","shape":[3,3,576,1],"dtype":"float32","quantization":{"dtype":"float16","original_dtype":"float32"}},{"name":"StatefulPartitionedCall/model/depthwise_conv2d_3/depthwise_bn_offset","shape":[576],"dtype":"float32","quantization":{"dtype":"float16","original_dtype":"float32"}},{"name":"StatefulPartitionedCall/model/conv2d_25/Conv2D_weights","shape":[1,1,576,112],"dtype":"float32","quantization":{"dtype":"float16","original_dtype":"float32"}},{"name":"StatefulPartitionedCall/model/conv2d_25/Conv2D_bn_offset","shape":[112],"dtype":"float32","quantization":{"dtype":"float16","original_dtype":"float32"}},{"name":"StatefulPartitionedCall/model/conv2d_26/Conv2D_weights","shape":[1,1,112,672],"dtype":"float32","quantization":{"dtype":"float16","original_dtype":"float32"}},{"name":"StatefulPartitionedCall/model/conv2d_26/Conv2D_bn_offset","shape":[672],"dtype":"float32","quantization":{"dtype":"float16","original_dtype":"float32"}},{"name":"StatefulPartitionedCall/model/depthwise_conv2d_4/depthwise_weights","shape":[3,3,672,1],"dtype":"float32","quantization":{"dtype":"float16","original_dtype":"float32"}},{"name":"StatefulPartitionedCall/model/depthwise_conv2d_4/depthwise_bn_offset","shape":[672],"dtype":"float32","quantization":{"dtype":"float16","original_dtype":"float32"}},{"name":"StatefulPartitionedCall/model/conv2d_29/Conv2D_weights","shape":[1,1,672,112],"dtype":"float32","quantization":{"dtype":"float16","original_dtype":"float32"}},{"name":"StatefulPartitionedCall/model/conv2d_29/Conv2D_bn_offset","shape":[112],"dtype":"float32","quantization":{"dtype":"float16","original_dtype":"float32"}},{"name":"StatefulPartitionedCall/model/conv2d_30/Conv2D_weights","shape":[1,1,112,672],"dtype":"float32","quantization":{"dtype":"float16","original_dtype":"float32"}},{"name":"StatefulPartitionedCall/model/conv2d_30/Conv2D_bn_offset","shape":[672],"dtype":"float32","quantization":{"dtype":"float16","original_dtype":"float32"}},{"name":"StatefulPartitionedCall/model/depthwise_conv2d_5/depthwise_weights","shape":[3,3,672,1],"dtype":"float32","quantization":{"dtype":"float16","original_dtype":"float32"}},{"name":"StatefulPartitionedCall/model/depthwise_conv2d_5/depthwise_bn_offset","shape":[672],"dtype":"float32","quantization":{"dtype":"float16","original_dtype":"float32"}},{"name":"StatefulPartitionedCall/model/conv2d_33/Conv2D_weights","shape":[1,1,672,112],"dtype":"float32","quantization":{"dtype":"float16","original_dtype":"float32"}},{"name":"StatefulPartitionedCall/model/conv2d_33/Conv2D_bn_offset","shape":[112],"dtype":"float32","quantization":{"dtype":"float16","original_dtype":"float32"}},{"name":"StatefulPartitionedCall/model/conv2d_34/Conv2D_weights","shape":[1,1,112,672],"dtype":"float32","quantization":{"dtype":"float16","original_dtype":"float32"}},{"name":"StatefulPartitionedCall/model/conv2d_34/Conv2D_bn_offset","shape":[672],"dtype":"float32","quantization":{"dtype":"float16","original_dtype":"float32"}},{"name":"StatefulPartitionedCall/model/depthwise_conv2d_6/depthwise_weights","shape":[3,3,672,1],"dtype":"float32","quantization":{"dtype":"float16","original_dtype":"float32"}},{"name":"StatefulPartitionedCall/model/depthwise_conv2d_6/depthwise_bn_offset","shape":[672],"dtype":"float32","quantization":{"dtype":"float16","original_dtype":"float32"}},{"name":"StatefulPartitionedCall/model/conv2d_37/Conv2D_weights","shape":[1,1,672,112],"dtype":"float32","quantization":{"dtype":"float16","original_dtype":"float32"}},{"name":"StatefulPartitionedCall/model/conv2d_37/Conv2D_bn_offset","shape":[112],"dtype":"float32","quantization":{"dtype":"float16","original_dtype":"float32"}},{"name":"StatefulPartitionedCall/model/conv2d_38/Conv2D_weights","shape":[1,1,112,672],"dtype":"float32","quantization":{"dtype":"float16","original_dtype":"float32"}},{"name":"StatefulPartitionedCall/model/conv2d_38/Conv2D_bn_offset","shape":[672],"dtype":"float32","quantization":{"dtype":"float16","original_dtype":"float32"}},{"name":"StatefulPartitionedCall/model/depthwise_conv2d_7/depthwise_weights","shape":[3,3,672,1],"dtype":"float32","quantization":{"dtype":"float16","original_dtype":"float32"}},{"name":"StatefulPartitionedCall/model/depthwise_conv2d_7/depthwise_bn_offset","shape":[672],"dtype":"float32","quantization":{"dtype":"float16","original_dtype":"float32"}},{"name":"StatefulPartitionedCall/model/conv2d_41/Conv2D_weights","shape":[1,1,672,112],"dtype":"float32","quantization":{"dtype":"float16","original_dtype":"float32"}},{"name":"StatefulPartitionedCall/model/conv2d_41/Conv2D_bn_offset","shape":[112],"dtype":"float32","quantization":{"dtype":"float16","original_dtype":"float32"}},{"name":"StatefulPartitionedCall/model/conv2d_42/Conv2D_weights","shape":[1,1,112,672],"dtype":"float32","quantization":{"dtype":"float16","original_dtype":"float32"}},{"name":"StatefulPartitionedCall/model/conv2d_42/Conv2D_bn_offset","shape":[672],"dtype":"float32","quantization":{"dtype":"float16","original_dtype":"float32"}},{"name":"StatefulPartitionedCall/model/depthwise_conv2d_8/depthwise_weights","shape":[3,3,672,1],"dtype":"float32","quantization":{"dtype":"float16","original_dtype":"float32"}},{"name":"StatefulPartitionedCall/model/depthwise_conv2d_8/depthwise_bn_offset","shape":[672],"dtype":"float32","quantization":{"dtype":"float16","original_dtype":"float32"}},{"name":"StatefulPartitionedCall/model/conv2d_45/Conv2D_weights","shape":[1,1,672,192],"dtype":"float32","quantization":{"dtype":"float16","original_dtype":"float32"}},{"name":"StatefulPartitionedCall/model/conv2d_45/Conv2D_bn_offset","shape":[192],"dtype":"float32","quantization":{"dtype":"float16","original_dtype":"float32"}},{"name":"StatefulPartitionedCall/model/conv2d_46/Conv2D_weights","shape":[1,1,192,1152],"dtype":"float32","quantization":{"dtype":"float16","original_dtype":"float32"}},{"name":"StatefulPartitionedCall/model/conv2d_46/Conv2D_bn_offset","shape":[1152],"dtype":"float32","quantization":{"dtype":"float16","original_dtype":"float32"}},{"name":"StatefulPartitionedCall/model/depthwise_conv2d_9/depthwise_weights","shape":[3,3,1152,1],"dtype":"float32","quantization":{"dtype":"float16","original_dtype":"float32"}},{"name":"StatefulPartitionedCall/model/depthwise_conv2d_9/depthwise_bn_offset","shape":[1152],"dtype":"float32","quantization":{"dtype":"float16","original_dtype":"float32"}},{"name":"StatefulPartitionedCall/model/conv2d_49/Conv2D_weights","shape":[1,1,1152,192],"dtype":"float32","quantization":{"dtype":"float16","original_dtype":"float32"}},{"name":"StatefulPartitionedCall/model/conv2d_49/Conv2D_bn_offset","shape":[192],"dtype":"float32","quantization":{"dtype":"float16","original_dtype":"float32"}},{"name":"StatefulPartitionedCall/model/conv2d_50/Conv2D_weights","shape":[1,1,192,1152],"dtype":"float32","quantization":{"dtype":"float16","original_dtype":"float32"}},{"name":"StatefulPartitionedCall/model/conv2d_50/Conv2D_bn_offset","shape":[1152],"dtype":"float32","quantization":{"dtype":"float16","original_dtype":"float32"}},{"name":"StatefulPartitionedCall/model/depthwise_conv2d_10/depthwise_weights","shape":[3,3,1152,1],"dtype":"float32","quantization":{"dtype":"float16","original_dtype":"float32"}},{"name":"StatefulPartitionedCall/model/depthwise_conv2d_10/depthwise_bn_offset","shape":[1152],"dtype":"float32","quantization":{"dtype":"float16","original_dtype":"float32"}},{"name":"StatefulPartitionedCall/model/conv2d_53/Conv2D_weights","shape":[1,1,1152,192],"dtype":"float32","quantization":{"dtype":"float16","original_dtype":"float32"}},{"name":"StatefulPartitionedCall/model/conv2d_53/Conv2D_bn_offset","shape":[192],"dtype":"float32","quantization":{"dtype":"float16","original_dtype":"float32"}},{"name":"StatefulPartitionedCall/model/conv2d_54/Conv2D_weights","shape":[1,1,192,1152],"dtype":"float32","quantization":{"dtype":"float16","original_dtype":"float32"}},{"name":"StatefulPartitionedCall/model/conv2d_54/Conv2D_bn_offset","shape":[1152],"dtype":"float32","quantization":{"dtype":"float16","original_dtype":"float32"}},{"name":"StatefulPartitionedCall/model/depthwise_conv2d_11/depthwise_weights","shape":[3,3,1152,1],"dtype":"float32","quantization":{"dtype":"float16","original_dtype":"float32"}},{"name":"StatefulPartitionedCall/model/depthwise_conv2d_11/depthwise_bn_offset","shape":[1152],"dtype":"float32","quantization":{"dtype":"float16","original_dtype":"float32"}},{"name":"StatefulPartitionedCall/model/conv2d_57/Conv2D_weights","shape":[1,1,1152,192],"dtype":"float32","quantization":{"dtype":"float16","original_dtype":"float32"}},{"name":"StatefulPartitionedCall/model/conv2d_57/Conv2D_bn_offset","shape":[192],"dtype":"float32","quantization":{"dtype":"float16","original_dtype":"float32"}},{"name":"StatefulPartitionedCall/model/conv2d_58/Conv2D_weights","shape":[1,1,192,1152],"dtype":"float32","quantization":{"dtype":"float16","original_dtype":"float32"}},{"name":"StatefulPartitionedCall/model/conv2d_58/Conv2D_bn_offset","shape":[1152],"dtype":"float32","quantization":{"dtype":"float16","original_dtype":"float32"}},{"name":"StatefulPartitionedCall/model/depthwise_conv2d_12/depthwise_weights","shape":[3,3,1152,1],"dtype":"float32","quantization":{"dtype":"float16","original_dtype":"float32"}},{"name":"StatefulPartitionedCall/model/depthwise_conv2d_12/depthwise_bn_offset","shape":[1152],"dtype":"float32","quantization":{"dtype":"float16","original_dtype":"float32"}},{"name":"StatefulPartitionedCall/model/conv2d_61/Conv2D_weights","shape":[1,1,1152,192],"dtype":"float32","quantization":{"dtype":"float16","original_dtype":"float32"}},{"name":"StatefulPartitionedCall/model/conv2d_61/Conv2D_bn_offset","shape":[192],"dtype":"float32","quantization":{"dtype":"float16","original_dtype":"float32"}},{"name":"StatefulPartitionedCall/model/conv2d_62/Conv2D_weights","shape":[1,1,192,1152],"dtype":"float32","quantization":{"dtype":"float16","original_dtype":"float32"}},{"name":"StatefulPartitionedCall/model/conv2d_62/Conv2D_bn_offset","shape":[1152],"dtype":"float32","quantization":{"dtype":"float16","original_dtype":"float32"}},{"name":"StatefulPartitionedCall/model/depthwise_conv2d_13/depthwise_weights","shape":[3,3,1152,1],"dtype":"float32","quantization":{"dtype":"float16","original_dtype":"float32"}},{"name":"StatefulPartitionedCall/model/depthwise_conv2d_13/depthwise_bn_offset","shape":[1152],"dtype":"float32","quantization":{"dtype":"float16","original_dtype":"float32"}},{"name":"StatefulPartitionedCall/model/conv2d_65/Conv2D_weights","shape":[1,1,1152,192],"dtype":"float32","quantization":{"dtype":"float16","original_dtype":"float32"}},{"name":"StatefulPartitionedCall/model/conv2d_65/Conv2D_bn_offset","shape":[192],"dtype":"float32","quantization":{"dtype":"float16","original_dtype":"float32"}},{"name":"StatefulPartitionedCall/model/conv2d_66/Conv2D_weights","shape":[1,1,192,1152],"dtype":"float32","quantization":{"dtype":"float16","original_dtype":"float32"}},{"name":"StatefulPartitionedCall/model/conv2d_66/Conv2D_bn_offset","shape":[1152],"dtype":"float32","quantization":{"dtype":"float16","original_dtype":"float32"}},{"name":"StatefulPartitionedCall/model/depthwise_conv2d_14/depthwise_weights","shape":[3,3,1152,1],"dtype":"float32","quantization":{"dtype":"float16","original_dtype":"float32"}},{"name":"StatefulPartitionedCall/model/depthwise_conv2d_14/depthwise_bn_offset","shape":[1152],"dtype":"float32","quantization":{"dtype":"float16","original_dtype":"float32"}},{"name":"StatefulPartitionedCall/model/conv2d_69/Conv2D_weights","shape":[1,1,1152,192],"dtype":"float32","quantization":{"dtype":"float16","original_dtype":"float32"}},{"name":"StatefulPartitionedCall/model/conv2d_69/Conv2D_bn_offset","shape":[192],"dtype":"float32","quantization":{"dtype":"float16","original_dtype":"float32"}},{"name":"StatefulPartitionedCall/model/conv2d_70/Conv2D_weights","shape":[1,1,192,1152],"dtype":"float32","quantization":{"dtype":"float16","original_dtype":"float32"}},{"name":"StatefulPartitionedCall/model/conv2d_70/Conv2D_bn_offset","shape":[1152],"dtype":"float32","quantization":{"dtype":"float16","original_dtype":"float32"}},{"name":"StatefulPartitionedCall/model/depthwise_conv2d_15/depthwise_weights","shape":[3,3,1152,1],"dtype":"float32","quantization":{"dtype":"float16","original_dtype":"float32"}},{"name":"StatefulPartitionedCall/model/depthwise_conv2d_15/depthwise_bn_offset","shape":[1152],"dtype":"float32","quantization":{"dtype":"float16","original_dtype":"float32"}},{"name":"StatefulPartitionedCall/model/conv2d_73/Conv2D_weights","shape":[1,1,1152,192],"dtype":"float32","quantization":{"dtype":"float16","original_dtype":"float32"}},{"name":"StatefulPartitionedCall/model/conv2d_73/Conv2D_bn_offset","shape":[192],"dtype":"float32","quantization":{"dtype":"float16","original_dtype":"float32"}},{"name":"StatefulPartitionedCall/model/conv2d_74/Conv2D_weights","shape":[1,1,192,1280],"dtype":"float32","quantization":{"dtype":"float16","original_dtype":"float32"}},{"name":"StatefulPartitionedCall/model/conv2d_74/Conv2D_bn_offset","shape":[1280],"dtype":"float32","quantization":{"dtype":"float16","original_dtype":"float32"}},{"name":"StatefulPartitionedCall/model/GDC_dw/depthwise_weights","shape":[4,4,1280,1],"dtype":"float32","quantization":{"dtype":"float16","original_dtype":"float32"}},{"name":"StatefulPartitionedCall/model/GDC_dw/depthwise_bn_offset","shape":[1280],"dtype":"float32","quantization":{"dtype":"float16","original_dtype":"float32"}}]
      }
  ]
}